results/model/model_1.pth (torch, 439799 bytes, 36 tensors)

cls_token f4 [1, 1, 64]
0	0xbe3429e3	-0.17594104
1	0xc0219412	-2.5246625
2	0xbe8e813c	-0.27832973
3	0xbd8e1053	-0.06936707
4	0x3e88b2ed	0.2669901
5	0x3e13c18b	0.144293
6	0xbe364fe4	-0.17803913
7	0xbf87195a	-1.0554612
8	0xbf256ab8	-0.64615965
9	0xbdcbfa95	-0.09959904
10	0x3e88d6a3	0.26726255
11	0xbee04518	-0.43802714
12	0xbed3a3ac	-0.4133581
13	0x3f2c9454	0.6741383
14	0xbf7bc327	-0.98344654
15	0x3f7e5e7b	0.99362916
16	0xbef52633	-0.47880706
17	0x3ebfa846	0.3743307
18	0x3f827012	1.0190451
19	0xbf587ab4	-0.8456223
20	0x3f20fae1	0.6288281
21	0x3dad9c51	0.084770806
22	0x3fceaa8b	1.6145796
23	0xbf0db088	-0.5534749
24	0x3fb7c7b9	1.4357826
25	0xbf4a9314	-0.79130673
26	0xbe141024	-0.14459282
27	0xbdfca17a	-0.12335487
28	0x3f58a722	0.84630024
29	0xbe4a35c1	-0.19747068
30	0xc00624b8	-2.0959911
31	0x3f2526ab	0.6451213
32	0x3ebfdc86	0.37472934
33	0x3f868ab5	1.051108
34	0xbf85b184	-1.0444798
35	0x3bfe4265	0.0077593797
36	0xbfd41f8a	-1.6572125
37	0x3ac48e3d	0.0014996004
38	0x3fb76474	1.4327531
39	0xbfd8ed1b	-1.6947359
40	0x3f8ab06e	1.0835092
41	0xbfdaf268	-1.7105227
42	0x3ef6e29e	0.4821977
43	0x3e4b2f39	0.19842233
44	0x3eb497b4	0.3527199
45	0x3f1c0cf9	0.60957295
46	0xbf860928	-1.0471544
47	0x3ea55c6c	0.32297075
48	0xbffeae47	-1.9896935
49	0xbec96b5a	-0.39339715
50	0x3f37ab80	0.71746063
51	0x3f0ed3e9	0.557921
52	0xbe15a4b6	-0.14613613
53	0xbfd386ef	-1.6525553
54	0xbed3cad4	-0.41365683
55	0xbf426e49	-0.7594953
56	0x3f49ca73	0.7882454
57	0xbff4bc88	-1.9120035
58	0xbe9bdc0c	-0.3044132
59	0xbfab5d54	-1.3387856
60	0x3f4ac6a9	0.7920938
61	0x3e65922d	0.22419043
62	0xbf0c2ee0	-0.54759026
63	0x3f859422	1.0435832

input_proj.weight f4 [64, 28]
0	0xbdc82327	-0.0977233
1	0xbe123535	-0.1427811
2	0xbd841d84	-0.06450942
3	0xbd8f6d38	-0.07003254
4	0x3d2713cd	0.040790368
5	0xbd9ba3aa	-0.07599576
6	0xbe014d2e	-0.12627098
7	0xbd9504fb	-0.072763406
8	0xbe2153df	-0.1575465
9	0xbdb7cae4	-0.08974245
10	0xbe18609b	-0.14880602
11	0xbbab6ba0	-0.0052313358
12	0x3dc8bb32	0.0980133
13	0xbe2e2756	-0.17007193
14	0x3db1fc02	0.08690645
15	0xbd624b46	-0.055247568
16	0xbe234725	-0.15945108
17	0xbd3a8381	-0.04553557
18	0xbe05d265	-0.1306854
19	0xbdd621b5	-0.10455648
20	0x3c9d6920	0.019215167
21	0xbe29c08f	-0.16577362
22	0x3d9e41d9	0.07727403
23	0xbdbb7286	-0.09152703
24	0x3e35d409	0.17756666
25	0x3e2bb977	0.16769968
26	0xbd880c45	-0.06642965
27	0xbd98b653	-0.074566506
28	0x3c7fd9f7	0.015615932
29	0xbdaec839	-0.08534283
30	0xbe1a04c9	-0.15040888
31	0x3e1965f3	0.14980297
32	0xbd8653f4	-0.065589815
33	0xbe2589ae	-0.16165802
34	0x3da0346a	0.07822497
35	0xbdeb512d	-0.114900924
36	0x3d81a176	0.06329624
37	0xbbfb3ecb	-0.0076673976
38	0x3e1d477f	0.15359305
39	0xbe1b224b	-0.151498
40	0x3c58f58d	0.013242138
41	0xbd34d5be	-0.044149153
42	0xbd9a37a2	-0.07530142
43	0xbdf44bb1	-0.119284995
44	0x3e0587e2	0.13040116
45	0x3d5249af	0.0513398
46	0xbe25f309	-0.16205992
47	0x3d8863b9	0.066596456
48	0x3e0931bd	0.1339788
49	0x3da9795f	0.08275103
50	0xbc84d788	-0.016216055
51	0x3dec48b2	0.11537303
52	0x3cbb2401	0.022844316
53	0x3df3c291	0.11902345
54	0xbcc3ecc7	-0.023916615
55	0x3dc4b9c2	0.09605743
56	0x3d81a715	0.063306965
57	0xbd937678	-0.072003305
58	0xbd6974f7	-0.056996312
59	0x3dac395a	0.084093764
60	0xbddf0eb1	-0.10891474
61	0xbd3ee944	-0.04660918
62	0x3e1b9340	0.1519289
63	0xbdc9f274	-0.098606974
64	0xbd8dc698	-0.069226444
65	0x3d9222f4	0.07135573
66	0xbcd37d4a	-0.025816578
67	0x3dc13b69	0.0943516
68	0xbe221b74	-0.15830785
69	0x3ddc7d52	0.107660905
70	0x3dc0a50a	0.09406479
71	0xbcda6cd1	-0.026663216
72	0xbd869d5a	-0.06572981
73	0xbe1cf6cb	-0.15328519
74	0x3e292498	0.16517866
75	0xbdb65003	-0.0890198
76	0x3e0e180c	0.1387636
77	0xbdf98dd5	-0.121852554
78	0x3bee30fd	0.0072690235
79	0x3e370242	0.17871955
80	0x3e34e3b9	0.17664994
81	0x3e0d15b6	0.13777813
82	0xbe1598fb	-0.14609139
83	0xbc8baffe	-0.017051693
84	0xbd738f15	-0.059462626
85	0xbd88d1f2	-0.06680669
86	0xbda119d9	-0.07866258
87	0xbd79fcbe	-0.06103205
88	0xbdcadba3	-0.09905174
89	0xbdc24ed9	-0.09487695
90	0x3cb447f0	0.022006959
91	0xbbeaa832	-0.0071611637
92	0xbd5dd3fb	-0.05415724
93	0x3d952b8c	0.072836965
94	0xbde699ae	-0.11259781
95	0x3ded53a9	0.115882225
96	0x3d74d133	0.05976982
97	0x3dc68235	0.09692804
98	0x3e0918a2	0.13388303
99	0xbe1f94e1	-0.15584137
100	0x3dc8ceae	0.09805046
101	0x3c58dbdc	0.013236012
102	0x3dc78a52	0.097431794
103	0x3da95981	0.08269025
104	0xbb487b2b	-0.0030590992
105	0xbc32bff8	-0.010910027
106	0xbe21e0d2	-0.15808418
107	0x3d4909d0	0.049081624
108	0x3d7000aa	0.058594383
109	0x3d0a8160	0.033814788
110	0x3c5f48de	0.013628213
111	0x3de07549	0.1095987
112	0x3c9000e4	0.01757855
113	0xbde575ae	-0.11204086
114	0x3e3ed27b	0.1863498
115	0x3df7f781	0.121077545
116	0xbc41bb58	-0.011824451
117	0x3d8fb649	0.0701719
118	0xbd4f68d6	-0.05063709
119	0x3dca00a3	0.09863403
120	0xbdca08fd	-0.09864996
121	0xbe198865	-0.14993437
122	0x3deca884	0.11555579
123	0xbe101294	-0.14069587
124	0xbd422930	-0.04740256
125	0xbe36cf42	-0.178525
126	0x3dfe307b	0.12411591
127	0xbe1ce413	-0.15321378
128	0xbe191971	-0.14951111
129	0xbdf6a5ba	-0.120433286
130	0xbe2b4108	-0.16724026
131	0xbd3cc8c7	-0.046089914
132	0x3df91c34	0.121635824
133	0xbd0cd6f1	-0.03438467
134	0x3cf59ff8	0.029983506
135	0x3db1c4fa	0.086801484
136	0x3e32cafc	0.17460245
137	0xbd3b40d2	-0.045716114
138	0x3cff247c	0.031145327
139	0xbbb0a361	-0.00539057
140	0xbdc80c0b	-0.09767922
141	0x3d9bd7f0	0.07609546
142	0x3e0d3d57	0.1379293
143	0xbe27ef2a	-0.16399828
144	0xbc6c01de	-0.014404742
145	0xbe3523ea	-0.17689481
146	0xbcb19c0d	-0.021680856
147	0xbdd49b13	-0.103811406
148	0xbd3bc69f	-0.045843717
149	0x3c996e4a	0.018729348
150	0xbe260b14	-0.16215163
151	0x3dd81aee	0.105520114
152	0xbe019eb5	-0.12658198
153	0xbe020ea8	-0.12700903
154	0xbc93c105	-0.018036375
155	0xbb293018	-0.002581602
156	0x3e101776	0.1407145
157	0xbd02e374	-0.031955197
158	0x3d88d7e2	0.066818014
159	0xbc83a82b	-0.0160714
160	0xbdde6058	-0.1085822
161	0xbd1500d1	-0.03637773
162	0xbe33fe13	-0.1757739
163	0x3deb62f1	0.11493481
164	0x3e2add2f	0.16685937
165	0xbe215c76	-0.15757927
166	0xbd36c99c	-0.044625863
167	0x3cec6c5c	0.028860264
168	0xbda4f0a8	-0.08053714
169	0x3dafc48c	0.0858241
170	0x3c02341a	0.007946992
171	0xbcc9e611	-0.024645837
172	0xbdcc8087	-0.09985452
173	0xbe09684e	-0.13418695
174	0xbbbf30ce	-0.0058346754
175	0xbdd6ac9e	-0.10482143
176	0xbe251c89	-0.16124167
177	0xbdc1c73a	-0.094618276
178	0x3c9a85c9	0.018862622
179	0x3c248929	0.010042467
180	0x3d4bb758	0.049735397
181	0x3db12f96	0.086516544
182	0x3e16cb4f	0.14725994
183	0x3d41b6e0	0.047293544
184	0xbe13ce95	-0.14434274
185	0x3e10d3d9	0.14143313
186	0x3e0931e0	0.13397932
187	0x3e3a6212	0.18201473
188	0xbe40cd28	-0.18828261
189	0xbe314cd1	-0.1731446
190	0xbceaa9c3	-0.028645402
191	0x3d8b2efe	0.067960724
192	0x3d621419	0.055194948
193	0xbd1e0330	-0.03857726
194	0xbde3269d	-0.11091349
195	0xbc94f1a4	-0.01818163
196	0x3dde154f	0.10843908
197	0x3e4015c1	0.18758298
198	0xbe36994b	-0.17831914
199	0xbe2489c1	-0.16068174
200	0x3dae7399	0.08518142
201	0x3d5edc28	0.054409176
202	0x3e2c0547	0.16798888
203	0x3cdf0f6e	0.027229037
204	0xbc116373	-0.008873808
205	0x3e140772	0.14455965
206	0x3dde948c	0.10868177
207	0xbdc921f6	-0.09820931
208	0xbe0fc98c	-0.14041728
209	0x3e3f3a95	0.18674691
210	0x3e1a3053	0.15057497
211	0xbddeaf7c	-0.10873315
212	0xbe26123f	-0.16217898
213	0x3dbc48bc	0.091935605
214	0x3e1762e5	0.14783819
215	0xbd8f2442	-0.069893375
216	0xbdfe3eee	-0.12414347
217	0x3e2fb2ec	0.17158097
218	0x3e1c3944	0.1525622
219	0xbe25f3f9	-0.1620635
220	0x3e375fba	0.1790761
221	0x3e289435	0.16462786
222	0x3e3f3712	0.18673351
223	0x3c5c5d95	0.013450046
224	0xbe2e17fe	-0.1700134
225	0xbd416d91	-0.04722363
226	0xbe08b74f	-0.13351177
227	0x3e30aae5	0.17252691
228	0xbe1f21e4	-0.15540272
229	0xbd64dd7c	-0.055875286
230	0xbda2ea21	-0.07954813
231	0xbd6ec08d	-0.0582891
232	0x3e25d940	0.16196156
233	0x3d8bbbd3	0.06822934
234	0xbd9cfa6b	-0.07664951
235	0x3e29c7cf	0.16580127
236	0xbb22a324	-0.0024816478
237	0xbe16ff07	-0.14745723
238	0x3d2ea12c	0.042634174
239	0x3d4e6001	0.050384525
240	0x3e34672a	0.17617479
241	0x3d60efd6	0.054916225
242	0x3ddcf33c	0.10788581
243	0xbde9876b	-0.11402782
244	0x3e383174	0.17987615
245	0xbe2f351f	-0.17110108
246	0xbd84a050	-0.0647589
247	0x3dcf2dc7	0.10116153
248	0x3e085535	0.13313754
249	0x3ddce3a7	0.10785609
250	0x3d638f92	0.05555684
251	0x3e40c9d3	0.1882699
252	0xbc981be6	-0.01856799
253	0xbe407652	-0.18795136
254	0xbe234412	-0.15943936
255	0xbc2cddbf	-0.010550915

input_proj.bias f4 [64]
0	0xbdcdd2fa	-0.10050006
1	0x3d6b2ca7	0.05741563
2	0xbb45f7f6	-0.003020761
3	0xbe3ea828	-0.18618834
4	0xbdd6b393	-0.1048347
5	0xbdb53452	-0.0884787
6	0x3db16530	0.08661878
7	0x3cbb9ed9	0.022902893
8	0xbd84df0c	-0.06487855
9	0xbdbbb237	-0.09164851
10	0x3d203f03	0.039122593
11	0x3c6695af	0.014073773
12	0x3d807752	0.062727585
13	0xbd2268ae	-0.03965061
14	0x3e02e1e6	0.12781486
15	0x3c9a8c00	0.018865585
16	0x3e3b6c4f	0.18303035
17	0xbd63cb6a	-0.055613913
18	0x3e0a1653	0.13485079
19	0xbe0183f7	-0.12647997
20	0xbc29f4ea	-0.0103733335
21	0x3e0cc709	0.13747801
22	0x3e0a62a9	0.13514198
23	0x3e37102e	0.17877266
24	0xbe181555	-0.14851888
25	0xbd30aead	-0.043135334
26	0x3d396771	0.045264665
27	0x3e337e4d	0.17528649
28	0xbda9bcfb	-0.08287998
29	0xbd4abd87	-0.049497154
30	0xbe28df16	-0.1649135
31	0x3de20abb	0.11037203
32	0x3da87dcc	0.08227119
33	0x3d881689	0.06644923
34	0x3c5c026e	0.013428314
35	0x3c88ad16	0.016684096
36	0xbcd2c2a4	-0.025727578
37	0xbe1ec8ca	-0.15506282
38	0x3d730735	0.059333045
39	0xbdc81f0f	-0.09771549
40	0xbe33cfd0	-0.17559743
41	0x3e02ac28	0.12760985
42	0x3dcf82a9	0.10132343
43	0x3e36bd09	0.17845549
44	0xbd0ec4e8	-0.034855753
45	0x3ade6d80	0.0016969889
46	0x3db12d14	0.08651176
47	0x3dd10cfa	0.10207553
48	0xbce58ef5	-0.028022269
49	0xbc9a8e9c	-0.01886683
50	0xbe1a958f	-0.15096115
51	0x3d440812	0.04785926
52	0xbdf60ccc	-0.120141596
53	0xbd1aca49	-0.03779057
54	0xbdf7154b	-0.12064608
55	0x3e08cac6	0.13358602
56	0x3db0a348	0.086248934
57	0xbe2cb1bc	-0.16864675
58	0xbe291141	-0.16510488
59	0xbe11f7af	-0.1425464
60	0x3ddd96e1	0.108197935
61	0xbb905b8e	-0.0044054454
62	0xbe217b97	-0.15769802
63	0xbe1f2b22	-0.15543798

stock_emb.weight f4 [5, 64]
0	0x3e43c157	0.19116722
1	0xbeaee096	-0.3415572
2	0xbe1b7d12	-0.1518443
3	0xbf903aff	-1.1268004
4	0x3f426c20	0.75946236
5	0x40123f49	2.2851126
6	0x3dee3072	0.11630334
7	0x3d85cad3	0.06532826
8	0xbe3a4583	-0.18190579
9	0x40080380	2.1252136
10	0xbe9fef29	-0.31237152
11	0x3eb382a2	0.35060602
12	0xbf4757ba	-0.77868235
13	0x3f32bf59	0.69823223
14	0x3e8ce697	0.27519676
15	0xbda2bf4f	-0.079466455
16	0xbfb3b639	-1.4039985
17	0x3fab2d44	1.3373189
18	0xbf9b2668	-1.2121096
19	0x3f9e07e8	1.2346163
20	0xbf6690ff	-0.90064996
21	0xbe9058a3	-0.28192624
22	0x3db915ef	0.090373866
23	0xbf4a399e	-0.78994167
24	0xbf7dc7ae	-0.9913281
25	0xbeb234a3	-0.34805784
26	0xbf84856b	-1.0353216
27	0x3f3fca2e	0.74917877
28	0x40048fd3	2.0712783
29	0xbdd57d7b	-0.10424324
30	0xbf37cedf	-0.71800035
31	0x3e9c5bf0	0.30538893
32	0x3f89d27c	1.076736
33	0xbf8406ad	-1.0314537
34	0xbfa13c87	-1.2596596
35	0xbeeaccdf	-0.4585943
36	0xbfe5ebba	-1.7962563
37	0x3f4bf983	0.796776
38	0xbe8aa935	-0.2708222
39	0xbf85d77b	-1.0456384
40	0xbf7e82b8	-0.9941821
41	0x3fa04a08	1.2522593
42	0x3f6cb2d2	0.9246036
43	0xbf076769	-0.52892166
44	0x3fcf0c85	1.6175696
45	0xbfc2db43	-1.5223163
46	0xbf35f390	-0.7107477
47	0x3f3b6ca1	0.7321263
48	0xbdfc501d	-0.12319968
49	0xbe0e9be0	-0.13926649
50	0xbf8d52e3	-1.104092
51	0xbf7387c4	-0.95129037
52	0xbe95e6e8	-0.2927773
53	0x3e16ffbe	0.14745995
54	0x3f8ee238	1.1162786
55	0xbf3c75a7	-0.73617023
56	0xbfab9b2c	-1.340673
57	0x3e81d5c1	0.25358394
58	0xbdd849ae	-0.10560928
59	0xbea091a6	-0.3136112
60	0xbf78be32	-0.97165215
61	0xbf44f314	-0.7693341
62	0xbe1a8f75	-0.15093787
63	0xbf5d6bd5	-0.86492664
64	0xc0282e32	-2.6278195
65	0xbf04c745	-0.5186656
66	0xbe2ece7a	-0.17070952
67	0xbf3f5758	-0.7474265
68	0xbf438550	-0.76375294
69	0xbf7eb2a2	-0.9949132
70	0x3f02a34a	0.5103041
71	0xbf2b5da3	-0.66939753
72	0x3effbe03	0.49949655
73	0xbfb2e7dc	-1.3977008
74	0x3f984510	1.1896076
75	0xbf043226	-0.5163902
76	0x3ebb5a0f	0.36592147
77	0xbf2f02f2	-0.6836387
78	0xbecc5d9a	-0.39915162
79	0x3f0ddb20	0.55412483
80	0x3dd0d08b	0.101960264
81	0x3f2d253d	0.67634946
82	0x3eae3d94	0.34031355
83	0x3fb00708	1.3752146
84	0x40176469	2.3655035
85	0x3f151d23	0.58247584
86	0xbf5c4701	-0.86045843
87	0xbf65ccf5	-0.89765865
88	0x3ef4c557	0.47806808
89	0xbeadb2f6	-0.339256
90	0x3de75abd	0.11296604
91	0x3fac4d73	1.3461136
92	0x3e5ace74	0.21367818
93	0x3e8e9da8	0.27854657
94	0x3e8a64f1	0.27030137
95	0xbef7260f	-0.48271224
96	0x3de0336c	0.10947308
97	0x3eb4353a	0.3519686
98	0x3ea91ead	0.33031216
99	0xc009ebe7	-2.1550233
100	0xbf86375c	-1.0485644
101	0xbf2ce4f7	-0.6753687
102	0xbec52c57	-0.3851039
103	0x3f9e90da	1.2387955
104	0x3f28e97e	0.6598128
105	0x400f471a	2.2387147
106	0xbfe24ec9	-1.7680293
107	0xbffa4d0f	-1.9554766
108	0xbf8a46bd	-1.0802838
109	0xbf2a4284	-0.66507745
110	0x3f9b9220	1.2153969
111	0x3fc7464d	1.5568329
112	0x3e7a3bd0	0.24436879
113	0x3f559c75	0.8344186
114	0x3f3bbd86	0.73336065
115	0x3fdab689	1.7086955
116	0x3dd3de9b	0.10345193
117	0x3ecee18a	0.40406448
118	0x3f2951b9	0.66140324
119	0x3f08c065	0.5341857
120	0xbf87401c	-1.056644
121	0xbf0b0b6f	-0.5431432
122	0x3fd328ce	1.6496828
123	0x4018b975	2.3863194
124	0xbf00bd79	-0.5028911
125	0xbf09b89c	-0.53797317
126	0x3e8be7f3	0.273254
127	0x3d0bb692	0.03410966
128	0x3f7a188d	0.9769371
129	0xbee71460	-0.45132732
130	0xbf9ea7de	-1.2394979
131	0x3f6b6016	0.9194349
132	0xbdb88f91	-0.09011758
133	0x3fc53993	1.5408195
134	0x3f92eee1	1.147915
135	0xbf7d4371	-0.9893103
136	0x3f142d38	0.578815
137	0xbf9d5e16	-1.2294338
138	0xbec73b9f	-0.38912675
139	0xbfeb0a2e	-1.8362482
140	0x3f0063bc	0.5015218
141	0x402f9d10	2.7439613
142	0xbfedf5de	-1.8590658
143	0x3fcd64d2	1.6046393
144	0xbe805dcd	-0.25071564
145	0xbf8dca2d	-1.1077324
146	0xbeb490af	-0.35266635
147	0xbe26e564	-0.16298443
148	0x3e670ba7	0.22563039
149	0xbf646727	-0.892199
150	0xbebf636b	-0.37380537
151	0xbf532ce2	-0.8249036
152	0x3f18c52d	0.59675866
153	0x3d80588d	0.0626689
154	0xbfe706fc	-1.8049006
155	0xbebf5880	-0.37372208
156	0xbfaa2b80	-1.3294525
157	0x3f25d142	0.6477243
158	0xbdb078f8	-0.08616823
159	0x3f968a8d	1.1761032
160	0x3f57acab	0.84247845
161	0xbea2a673	-0.31767616
162	0x3c06c67f	0.008226036
163	0x3faf846c	1.3712287
164	0x3f865e22	1.0497477
165	0xbfa295cb	-1.2701963
166	0x3fb2c4c2	1.3966296
167	0xbf143ab0	-0.5790205
168	0x3f0f49a1	0.55971724
169	0x3e67a6db	0.22622244
170	0x3e2d7c29	0.16941895
171	0x3fc00e7e	1.5004423
172	0x3f6d5795	0.92711765
173	0xbf858bd3	-1.0433296
174	0xbf971ded	-1.1806008
175	0xbef5eaf1	-0.4803081
176	0x3ddfd2dc	0.1092889
177	0xbfb5b8d5	-1.4197031
178	0xbfb589d3	-1.4182686
179	0x3da5ef26	0.081022546
180	0xbe8eaa0f	-0.2786412
181	0x3f02ada2	0.5104619
182	0x3f95b587	1.1696023
183	0x3f5dc613	0.8663036
184	0xbea61a07	-0.32441732
185	0xbfd8a9ac	-1.692678
186	0xbd73d25e	-0.059526794
187	0xbefa4228	-0.48878598
188	0x3bbbbe4e	0.005729473
189	0xbf87f5a0	-1.0621834
190	0xbf42e3a0	-0.7612858
191	0x3f9e0c06	1.2347419
192	0x3f14a685	0.5806659
193	0xbf395671	-0.72397524
194	0xbeb94386	-0.3618433
195	0xbf1dbb16	-0.61613595
196	0xbf60a878	-0.8775706
197	0x40183f71	2.3788722
198	0x3ff8fd63	1.9452327
199	0xbe2049de	-0.15653178
200	0xbec8c8b0	-0.39215612
201	0xc01990ec	-2.3994703
202	0x4009c300	2.1525269
203	0x3ec3cdc3	0.3824292
204	0xbf3a10f5	-0.72682124
205	0x3ec3e071	0.38257173
206	0x3eb37c7e	0.35055918
207	0x3cbd9af2	0.023145173
208	0x3e466561	0.1937461
209	0xbe9f4591	-0.31107762
210	0x3f36e76c	0.7144687
211	0x3e15386b	0.14572303
212	0x3fa54a4e	1.2913301
213	0x3dd5c2d5	0.10437552
214	0x3e0a7385	0.1352063
215	0xbe194333	-0.1496704
216	0x3fe000b9	1.750022
217	0xbf470a8b	-0.7775046
218	0xbf60bfa1	-0.877924
219	0xbff42f67	-1.9076966
220	0xbf178501	-0.5918732
221	0xbfdb7133	-1.7143921
222	0xbfbc9464	-1.4732785
223	0xbf952923	-1.1653179
224	0x3ccb6334	0.024827577
225	0xc0406ba8	-3.0065708
226	0x3fb02ca0	1.3763618
227	0x3ef7febf	0.48436543
228	0x3e73ef2d	0.23821707
229	0x3fdf10e5	1.7427031
230	0xbdd2cae7	-0.10292607
231	0xbf1d4ffa	-0.6145016
232	0xbf913d24	-1.1346784
233	0xbffc12c0	-1.9693222
234	0xbf801b87	-1.0008401
235	0x3f7c266a	0.98496115
236	0xbd36f089	-0.044662986
237	0x3f092b7a	0.53581965
238	0xbfc22780	-1.5168304
239	0xbfd8f06d	-1.6948372
240	0xbf3377c2	-0.7010461
241	0xc023a7b0	-2.5571098
242	0x3dd73670	0.1050843
243	0xbeb1b677	-0.34709522
244	0x3fdf6108	1.7451487
245	0x3fcd2d78	1.6029501
246	0x3e1fb6f4	0.15597135
247	0xbeac9144	-0.3370458
248	0x3f774522	0.96589863
249	0xbea4ec18	-0.32211375
250	0xbf1f1de0	-0.6215496
251	0x3fbdfb98	1.4842405
252	0x3eba0bf3	0.36337242
253	0x401e45a5	2.4730008
254	0xbef9c51a	-0.4878319
255	0xbf163611	-0.5867625

stock_proj.weight f4 [64, 64]
0	0xbdb0063c	-0.08594939
1	0x3d314f6f	0.043288644
2	0xbdd32bd2	-0.103110924
3	0x3dfdd1d6	0.12393539
4	0xbdf64a17	-0.1202585
5	0x3cef7675	0.02923129
6	0x3c7690dc	0.015049186
7	0xbdca765c	-0.098858565
8	0xbcc226be	-0.023700114
9	0xbc8f8c61	-0.017522993
10	0xbd99f8c2	-0.0751815
11	0xbd5878d1	-0.052849595
12	0xbd3e8cca	-0.046520986
13	0xbda45f53	-0.08025994
14	0x3c2cf475	0.01055633
15	0x3b9d6414	0.00480319
16	0xbd1d7646	-0.038442872
17	0xbdf512c3	-0.11966469
18	0xbd668be1	-0.056285743
19	0xbc90e1e7	-0.017685844
20	0x3db63929	0.08897621
21	0xbdd9d0ae	-0.106355056
22	0x3c32a01e	0.010902433
23	0xbc95b9d9	-0.018277096
24	0x3d2ba916	0.0419093
25	0x3d1f54cd	0.03889923
26	0x3d19ed7b	0.037579995
27	0xbdf8deb0	-0.12151849
28	0xbcf1bcba	-0.029508937
29	0xbc8cc61f	-0.017184315
30	0x3d8a7062	0.067597166
31	0xbdd151c1	-0.102206714
32	0xbd0dc337	-0.03461
33	0xbc487978	-0.012235992
34	0x3bf503af	0.0074772458
35	0xbc9bda6d	-0.019025052
36	0x3d1e0746	0.038581155
37	0xbccdf762	-0.025142375
38	0xbdc1d58b	-0.09464558
39	0x3d19f140	0.03758359
40	0x3dbd59a9	0.09245617
41	0x3df4b156	0.11947887
42	0xbccd3296	-0.025048535
43	0x3d95a011	0.07305921
44	0x3da74236	0.081669256
45	0xbdc129ed	-0.09431825
46	0xbd11b15b	-0.03556953
47	0x3da148b3	0.078751944
48	0x3c2d840b	0.0105905635
49	0xbce0d167	-0.0274436
50	0x3c3a4763	0.011369559
51	0x3de31234	0.11087456
52	0x3daf5e63	0.08562925
53	0x3df2495c	0.118303984
54	0xbde920de	-0.11383222
55	0xbc2619fa	-0.010138029
56	0xbd87d2fe	-0.066320404
57	0x3df908bc	0.12159869
58	0x3d089b2a	0.0333511
59	0xbdb2859e	-0.08716892
60	0x3d2980b2	0.0413825
61	0x3d5e84ee	0.05432599
62	0xbd1ddfa0	-0.038543344
63	0xbd3502fc	-0.0441923
64	0x3dc39279	0.09549422
65	0x3de668fc	0.11250493
66	0xbd0a2423	-0.03372587
67	0xbdc86ae9	-0.097860165
68	0x3d9a526a	0.075352505
69	0x3db47992	0.0881225
70	0x3dcd88c1	0.10035849
71	0x3dca3a23	0.0987437
72	0x3d714c07	0.058910396
73	0x3d0c839c	0.0343052
74	0x3da65a8e	0.08122741
75	0xbd8f050e	-0.06983386
76	0xbde79e90	-0.1130954
77	0x3c5d458a	0.013505349
78	0x3d27a04c	0.040924355
79	0xbd4451f6	-0.047929727
80	0x3d07cde6	0.033155344
81	0xbcc91aac	-0.024548851
82	0x3d9041b6	0.07043783
83	0x3dce53e1	0.100745924
84	0xbc254f8d	-0.010089767
85	0x3c8cb708	0.01717712
86	0xbd533106	-0.051560424
87	0x3d2fe065	0.04293861
88	0x3dc4986d	0.095993854
89	0x3d072a7a	0.032999493
90	0xbc7859cb	-0.015158127
91	0xbd4d7d1a	-0.050168134
92	0x3c11dd99	0.008902931
93	0x3d0a8d51	0.033826176
94	0xbdefe78b	-0.11714085
95	0xbc0e6944	-0.0086920895
96	0xbd2af720	-0.041739583
97	0xbd28a96e	-0.041177206
98	0xbd88fde0	-0.06689048
99	0xbde0e668	-0.109814465
100	0xbd2be399	-0.0419651
101	0xbc9087bc	-0.017642848
102	0x3cf345f9	0.029696452
103	0x3b0c8bdb	0.0021445665
104	0xbdf6577a	-0.120284036
105	0x3de8847d	0.11353395
106	0x3df38dd7	0.11892288
107	0xbdc0f1d9	-0.09421129
108	0xbde16010	-0.110046506
109	0x3ddbede1	0.10738731
110	0xbda1098e	-0.078631505
111	0x3d6bb50d	0.05754571
112	0x3ddc194e	0.10747014
113	0x3c36ffe6	0.011169409
114	0xbd7c7711	-0.061636988
115	0x3dc2ab39	0.095053144
116	0xbca0ea19	-0.019642876
117	0x3da28927	0.07936316
118	0xbd8d4972	-0.06898774
119	0x3d825571	0.06363953
120	0xbd8ff4a9	-0.07029087
121	0x3d1d493f	0.03839993
122	0xbd8609a2	-0.06544806
123	0x3c1db4e8	0.009625651
124	0x3dacebfe	0.084434494
125	0xbd925d3c	-0.07146689
126	0xbcad9bf8	-0.021192536
127	0xbd956485	-0.07294563
128	0xbd7437e6	-0.05962362
129	0x3c9fb3b4	0.019494869
130	0xbd9e9695	-0.07743565
131	0xbdfb2e8f	-0.1226474
132	0xbde20b20	-0.11037278
133	0xbdc172eb	-0.09445747
134	0x3df84568	0.12122613
135	0xbc869744	-0.016429551
136	0x3de766d2	0.11298908
137	0xbd8c496c	-0.068499416
138	0xbc5fee7a	-0.013667697
139	0x3db33cc8	0.087518275
140	0x3da2a086	0.07940774
141	0x3def1039	0.11673016
142	0x3d8a52dd	0.06754086
143	0x3dc93d71	0.09826172
144	0xbd795f2a	-0.06088177
145	0xbcdf21ad	-0.027237738
146	0xbc25f94f	-0.010130241
147	0xbb85194a	-0.0040618526
148	0x3d40dc52	0.047085114
149	0xbdc429b4	-0.09578267
150	0xbd812123	-0.063051485
151	0x3dac76b2	0.08421077
152	0x3ddcf04c	0.107880205
153	0xbde55818	-0.11198443
154	0x3dfc93e0	0.123328924
155	0x3d2ddb26	0.042445324
156	0x3b86e581	0.0041167145
157	0xbdf8875c	-0.12135193
158	0xb99b7d6c	-0.0002965735
159	0xbdb6dcf8	-0.08928865
160	0xbdfc1909	-0.123094626
161	0x3bfb8402	0.0076756487
162	0xbd9151e5	-0.07095698
163	0x3d83a340	0.06427622
164	0xbd59d3b9	-0.05318043
165	0x3c854897	0.016269965
166	0x3b8badb0	0.0042626485
167	0xbd2aa080	-0.04165697
168	0xbdb3d04f	-0.08779966
169	0xbdaa67a3	-0.083205484
170	0xbd842d30	-0.06453931
171	0xbcb6688d	-0.02226665
172	0xbd72d228	-0.059282452
173	0xbd0663dd	-0.03281008
174	0xbd7184a1	-0.058964375
175	0xbdaf8c5e	-0.08571695
176	0xbc102055	-0.008796771
177	0xbd88f634	-0.066875845
178	0x3dff3fb3	0.124633215
179	0x3da59ecc	0.08086929
180	0x3cb81bb3	0.022474146
181	0x3d86772d	0.065657
182	0x3db2e0dd	0.087342955
183	0xbd35f5a7	-0.044423725
184	0xbdd6b576	-0.1048383
185	0x3dbbb40f	0.09165203
186	0x3d67c2c4	0.056582227
187	0xbd7001d4	-0.058595493
188	0x3da4bbbc	0.0804362
189	0x3d9ee21a	0.07757969
190	0xbcfc54c9	-0.030802147
191	0xbd7cb31e	-0.061694257
192	0xbda7351c	-0.08164427
193	0x3df9c77b	0.12196251
194	0x3c919e16	0.017775577
195	0xbcc65d74	-0.024214484
196	0x3c540d8b	0.012942682
197	0xbdc72dbd	-0.09725521
198	0xbb811b8c	-0.0039400514
199	0xbccf3496	-0.02529363
200	0xbd3eaca7	-0.046551373
201	0x3c13a25e	0.009010879
202	0xbdc82e14	-0.09774414
203	0x3d3c01f1	0.04590029
204	0x3d17b2e4	0.037035838
205	0x3d0aea65	0.033914942
206	0xbdddd878	-0.10832304
207	0xbd3b4f47	-0.0457299
208	0xbda52625	-0.08063916
209	0x3dfaeff1	0.122527964
210	0xbd1cd9cd	-0.03829365
211	0xbd228729	-0.03967968
212	0x3def0a83	0.11671927
213	0x3dde28fd	0.10847662
214	0xbde1ddcf	-0.11028635
215	0x3d22577c	0.039634213
216	0x3de3c0c6	0.11120753
217	0x3d96763b	0.073467694
218	0x3dd73173	0.105074786
219	0xbc9444a9	-0.018099146
220	0xbde93f95	-0.113890804
221	0x3df92fe3	0.12167337
222	0x3db2e965	0.08735923
223	0xbdb30c55	-0.087425865
224	0x3d6f625d	0.058443416
225	0xbdba8a94	-0.09108463
226	0xbdd74201	-0.10510636
227	0xbdb40eea	-0.08791907
228	0x3c0267c2	0.007959308
229	0x3dcd64ce	0.100289926
230	0xbd924a7f	-0.07143115
231	0xbd42b5bd	-0.0475366
232	0xbd904ca1	-0.07045866
233	0xbbbbf05d	-0.0057354406
234	0x3db0180f	0.08598339
235	0xbdbacb89	-0.091208525
236	0x3d515efc	0.051115975
237	0xbdaa3584	-0.083109885
238	0x3d78b5ce	0.060720257
239	0xbc8cbfb8	-0.017181262
240	0xbca12c12	-0.019674335
241	0xbcbfdc77	-0.023420556
242	0xbd272eca	-0.040816106
243	0x3dc7ddf0	0.09759128
244	0x3c3aff48	0.011413403
245	0xbdd94ae4	-0.106099874
246	0xbd8088b2	-0.062760726
247	0xbd4c4a4f	-0.049875554
248	0xbd3b5417	-0.04573449
249	0xbdf2f79c	-0.11863634
250	0x3c9ce4be	0.019152042
251	0x3df38f63	0.11892583
252	0x3c58e7dc	0.013238873
253	0xbdba81f8	-0.09106821
254	0x3dca947e	0.09891604
255	0xbc54e13b	-0.012993152

stock_proj.bias f4 [64]
0	0x3d97b5a1	0.0740769
1	0x3d9bbbdc	0.07604191
2	0xbca88492	-0.020571027
3	0xbd91733f	-0.071020596
4	0x3d7ab133	0.061204147
5	0xbcb8cb8b	-0.022557994
6	0x3d463ec4	0.0483997
7	0x3d23e305	0.040011425
8	0xbd3b7be8	-0.045772463
9	0x3d9b8705	0.07594112
10	0xbdae2831	-0.0850376
11	0x3d30f631	0.043203536
12	0xbd8f589f	-0.06999325
13	0x3d3c6af2	0.04600043
14	0xbd9c1eb0	-0.07623041
15	0xbcf7d70d	-0.030253911
16	0xbdc03afa	-0.09386249
17	0x3d9cad1c	0.076502055
18	0x3d66a62c	0.056310818
19	0xbda39936	-0.07988207
20	0x3d8bf4b4	0.06833783
21	0xbd29e4b6	-0.04147788
22	0x3d246faf	0.040145572
23	0xbde6819b	-0.11255189
24	0x3cec76b4	0.028865196
25	0x3cb7b0e1	0.02242321
26	0xbdd9a402	-0.10626985
27	0x3d48e64d	0.049047757
28	0x3dfb0e1b	0.1225855
29	0x3d19172b	0.03737561
30	0x3df57201	0.11984635
31	0x3ba96c60	0.00517039
32	0xbcf41009	-0.029792802
33	0xbdabd43f	-0.08390092
34	0x3d2b8bee	0.041881494
35	0xbda27ef0	-0.07934368
36	0x3dd824ed	0.10553918
37	0x3d32dea7	0.04366937
38	0xbd8d3f05	-0.06896786
39	0xbdef9712	-0.11698736
40	0x3c8f12dc	0.017465048
41	0xbddc5845	-0.107590236
42	0xbd0f5b05	-0.034998912
43	0x3da3f5d1	0.0800587
44	0x3d154f7f	0.036452767
45	0x3d8a0252	0.06738724
46	0xbdd4112a	-0.10354836
47	0x3dde4d28	0.1085456
48	0xbd14bb1e	-0.03631126
49	0x3daecbc6	0.085349604
50	0x3dd78ac2	0.10524513
51	0xbda20356	-0.079107925
52	0xbdca68b0	-0.09883249
53	0xbd9475c5	-0.07249025
54	0x3dac6773	0.08418169
55	0x3d15f14e	0.03660708
56	0x3d9f4e00	0.07778549
57	0xbde2715e	-0.11056779
58	0x3dcb1035	0.099152006
59	0x3de734ad	0.11289344
60	0xbde12fa3	-0.10995414
61	0x3cda4b58	0.026647255
62	0x3d344de5	0.0440196
63	0xbd4dcdfe	-0.050245278

pre_ln.weight f4 [64]
0	0x3f7fe2c4	0.9995539
1	0x3f800000	1.0
2	0x3f7fda27	0.9994225
3	0x3f800000	1.0
4	0x3f8020fe	1.0010068
5	0x3f800000	1.0
6	0x3f7fe849	0.99963814
7	0x3f800000	1.0
8	0x3f8000a8	1.00002
9	0x3f800000	1.0
10	0x3f7fda66	0.99942625
11	0x3f800000	1.0
12	0x3f7f638e	0.99761283
13	0x3f800000	1.0
14	0x3f7fff5e	0.99999034
15	0x3f800000	1.0
16	0x3f8035ed	1.0016457
17	0x3f800000	1.0
18	0x3f800a0e	1.0003068
19	0x3f800000	1.0
20	0x3f7ffc79	0.9999462
21	0x3f800000	1.0
22	0x3f802c36	1.0013492
23	0x3f800000	1.0
24	0x3f80121b	1.0005525
25	0x3f800000	1.0
26	0x3f8002a7	1.000081
27	0x3f800000	1.0
28	0x3f7fca3b	0.99917954
29	0x3f800000	1.0
30	0x3f801d86	1.000901
31	0x3f800000	1.0
32	0x3f7ff68e	0.9998559
33	0x3f800000	1.0
34	0x3f7fd59d	0.99935323
35	0x3f800000	1.0
36	0x3f7fdd0c	0.99946666
37	0x3f800000	1.0
38	0x3f7fd826	0.9993919
39	0x3f800000	1.0
40	0x3f801c5a	1.0008652
41	0x3f800000	1.0
42	0x3f8006a5	1.0002028
43	0x3f800000	1.0
44	0x3f80021f	1.0000647
45	0x3f800000	1.0
46	0x3f7ff5cd	0.9998444
47	0x3f800000	1.0
48	0x3f7ff1f5	0.9997857
49	0x3f800000	1.0
50	0x3f7f9545	0.9983714
51	0x3f800000	1.0
52	0x3f7feb52	0.99968445
53	0x3f800000	1.0
54	0x3f7ff951	0.999898
55	0x3f800000	1.0
56	0x3f7fedae	0.99972045
57	0x3f800000	1.0
58	0x3f7fe8f4	0.99964833
59	0x3f800000	1.0
60	0x3f801ce7	1.000882
61	0x3f800000	1.0
62	0x3f7fd249	0.99930245
63	0x3f800000	1.0

pre_ln.bias f4 [64]
0	0x398e8898	0.0002718612
1	0x00000000	0.0
2	0x39288bcf	0.00016073811
3	0x00000000	0.0
4	0x3a03622a	0.0005011881
5	0x00000000	0.0
6	0xb9d3f9f3	-0.00040431283
7	0x00000000	0.0
8	0xbaccbbdc	-0.0015619951
9	0x00000000	0.0
10	0xbad85ba7	-0.0016506807
11	0x00000000	0.0
12	0xb9f6cc84	-0.00047073152
13	0x00000000	0.0
14	0x3839a66d	4.4262433e-05
15	0x00000000	0.0
16	0xbb072a85	-0.002062471
17	0x00000000	0.0
18	0x3a926d80	0.001117155
19	0x00000000	0.0
20	0x39ea01da	0.00044633338
21	0x00000000	0.0
22	0x3a7ef25b	0.0009725445
23	0x00000000	0.0
24	0x3ac1b1fa	0.0014777773
25	0x00000000	0.0
26	0xbaaa742b	-0.0013004591
27	0x00000000	0.0
28	0x3ab27d09	0.0013617586
29	0x00000000	0.0
30	0x39118abd	0.00013879962
31	0x00000000	0.0
32	0xb9f09a0d	-0.00045891144
33	0x00000000	0.0
34	0x3a153b33	0.00056927203
35	0x00000000	0.0
36	0xb9f46925	-0.00046617645
37	0x00000000	0.0
38	0x3a92b5a8	0.0011193054
39	0x00000000	0.0
40	0x3a71ebf3	0.00092285796
41	0x00000000	0.0
42	0x39dcd4fd	0.0004212036
43	0x00000000	0.0
44	0x3a5209cf	0.0008012326
45	0x00000000	0.0
46	0x3a85873f	0.0010187401
47	0x00000000	0.0
48	0x3a3cac6c	0.0007197324
49	0x00000000	0.0
50	0xba8638d0	-0.001024032
51	0x00000000	0.0
52	0x3a9717ad	0.0011527442
53	0x00000000	0.0
54	0x3a8d90d1	0.0010800605
55	0x00000000	0.0
56	0xbaf52819	-0.0018703967
57	0x00000000	0.0
58	0xb97595a1	-0.00023420762
59	0x00000000	0.0
60	0xbabc8270	-0.0014382135
61	0x00000000	0.0
62	0x38c2e07d	9.292455e-05
63	0x00000000	0.0

regime_proj.weight f4 [64, 3]
0	0xbe630927	-0.2217146
1	0xbe88759a	-0.26652223
2	0x3d018c10	0.031627715
3	0x3e44b494	0.1920951
4	0x3ee44f47	0.44591734
5	0xbb00cda1	-0.0019653814
6	0xbe4066c5	-0.18789203
7	0x3e827657	0.2548091
8	0xbea56da3	-0.3231021
9	0x3ec495ca	0.3839553
10	0xbbbe44bb	-0.005806533
11	0xbb2bcfb3	-0.0026216328
12	0x3d2e1ab9	0.042505953
13	0xbe202e11	-0.15642573
14	0x3e868409	0.2627261
15	0xbe17f28a	-0.14838615
16	0xbcebd3ee	-0.02878758
17	0xbe7c59fe	-0.24643704
18	0x3ec1c471	0.37845185
19	0xbed94c60	-0.42441082
20	0x3f00a2eb	0.50248593
21	0xbebef6c1	-0.37297633
22	0xbdc2cd19	-0.095117755
23	0xbe4b3e5b	-0.19848005
24	0x3ed811b3	0.42201003
25	0xbe65737a	-0.22407332
26	0xbe805aa4	-0.25069153
27	0x3dc69609	0.09696586
28	0x3efe24c3	0.49637422
29	0x3f0f470f	0.559678
30	0xbeaecd09	-0.34140804
31	0x3e759372	0.23982027
32	0x3ec96b90	0.39339876
33	0xbf0e71d2	-0.55642426
34	0xbe1d73ed	-0.15376253
35	0xbeb54e7d	-0.35411444
36	0xbe8941c0	-0.26807976
37	0xbd66c655	-0.056341488
38	0xbecb2eb7	-0.39684078
39	0x3ed5d681	0.41765216
40	0xbed85fc0	-0.4226055
41	0x3d6af357	0.057360973
42	0x3e8495d6	0.25895566
43	0xbe8e0847	-0.2774069
44	0xbe7bdffa	-0.24597159
45	0x3e289b72	0.16465548
46	0xbeb50190	-0.35352755
47	0x3eadfdfa	0.3398283
48	0x3d871a48	0.065968096
49	0xbd9c38b5	-0.076280035
50	0xbf0b0f06	-0.543198
51	0x3f0b8cc4	0.54511666
52	0x3c93b286	0.018029463
53	0xbe98558e	-0.29752773
54	0x3dca7e68	0.09887391
55	0x3f0accb4	0.542186
56	0xbe81fff5	-0.25390592
57	0xbde1a1cd	-0.11017189
58	0xbef0acc8	-0.47006822
59	0xbe554836	-0.20828328
60	0x3e61ad44	0.22038752
61	0x3e96432f	0.29348132
62	0x3f02476e	0.50890243
63	0xbebb1457	-0.36538956
64	0xbd962ba0	-0.073325396
65	0x3eef6faa	0.4676488
66	0xbe05b49c	-0.13057178
67	0x3eb49386	0.352688
68	0x3ee4c134	0.44678652
69	0x3eee271b	0.4651421
70	0xbd0ce69b	-0.03439961
71	0xbe0ddefe	-0.13854596
72	0x3e0d685f	0.13809346
73	0xbea39c7f	-0.31955335
74	0x3ef9e83f	0.48810002
75	0x3e54f558	0.20796716
76	0xbee85cf9	-0.45383433
77	0x3e42c74a	0.19021335
78	0x3d9a27b8	0.07527107
79	0xbe8724bb	-0.2639521
80	0x3ecb936b	0.39760908
81	0xbece8c51	-0.40341428
82	0x3eb04c46	0.34433192
83	0xbec73af8	-0.38912177
84	0x3dfeefd9	0.12448091
85	0x3e3a0a37	0.18167959
86	0xbefa2a89	-0.48860577
87	0xbe7eb4d6	-0.24873671
88	0x3e95b853	0.2924219
89	0xbf0e8cc0	-0.5568352
90	0x3e9f2f39	0.31090716
91	0xbf137bf8	-0.57611036
92	0xbe59e2b5	-0.21277888
93	0x3e60be73	0.2194765
94	0x3d28ac75	0.041180093
95	0xbe57df51	-0.21081282
96	0x3ec9ac0a	0.39389068
97	0x3ec92a38	0.39290023
98	0x3e87d06c	0.265262
99	0x3cf7538d	0.030191207
100	0xbce473b4	-0.027887203
101	0x3eb82576	0.3596608
102	0xbebc23a4	-0.36745942
103	0x3e1f3e9b	0.15551226
104	0x3d810da9	0.063014336
105	0xbe001b7f	-0.12510489
106	0x3eab9530	0.3351226
107	0x3e31e940	0.17374134
108	0xbea49d78	-0.3215139
109	0x3e26623e	0.16248414
110	0xbe4a84e4	-0.19777256
111	0xbd90843e	-0.07056473
112	0x3b6f8987	0.0036550479
113	0xbdc8ff55	-0.09814326
114	0xbecc4af6	-0.3990094
115	0xbde99172	-0.114046946
116	0x3d08c96e	0.033395223
117	0x3f07c24d	0.53030854
118	0xbd99f328	-0.075170815
119	0x3eb64266	0.35597533
120	0x3de8f2e5	0.113744535
121	0x3f00d4f9	0.5032497
122	0xbe5507cd	-0.20803757
123	0xbc1c0c4f	-0.009524419
124	0xbc6df079	-0.014522665
125	0xbec9dd75	-0.3942677
126	0x3dc959f6	0.09831612
127	0x3d28b60f	0.04118925
128	0xbe65cf99	-0.22442473
129	0xbe6bfd9b	-0.23045962
130	0xbed02f70	-0.40661192
131	0x3ea367e7	0.3191521
132	0xbc6197cb	-0.0137691
133	0x3db4246f	0.08796012
134	0x3f08fde5	0.5351241
135	0xbd397769	-0.045279894
136	0xbed4ab4a	-0.41536933
137	0xbe4d1a41	-0.20029546
138	0x3d143dba	0.03619168
139	0xbe3cf547	-0.18452941
140	0x3dbb6b5b	0.09151336
141	0xbed283a4	-0.4111606
142	0x3dd2372e	0.10264431
143	0xbe2638d8	-0.16232622
144	0x3c928b1f	0.017888604
145	0xbe72e3ab	-0.23719661
146	0x3e71aa0c	0.23600024
147	0x3dd24864	0.10267714
148	0x3e8f8bc4	0.2803632
149	0xbcda3132	-0.026634786
150	0x3eebc36d	0.46047536
151	0xbea56d91	-0.32310155
152	0xbe5c0fc6	-0.21490392
153	0xbe7f988c	-0.24960536
154	0xbca58c1b	-0.020208409
155	0x3e86e5dd	0.26347247
156	0x3bdc021b	0.006714118
157	0xbcf7d0ae	-0.030250873
158	0xbf13c78c	-0.5772636
159	0xbf0fb67a	-0.5613781
160	0xbf08b185	-0.53395873
161	0xbdfaaa3e	-0.12239502
162	0xbe9ac344	-0.302271
163	0x3d080422	0.033207066
164	0x3ecfe039	0.40600756
165	0xbf1391d8	-0.57644415
166	0x3e646942	0.22305778
167	0x3e74674e	0.23867533
168	0xbdcd5b75	-0.1002721
169	0xbe8562f3	-0.26052055
170	0xbe02689b	-0.12735216
171	0x3ee834b9	0.45352724
172	0xbc8d1cce	-0.01722565
173	0x3e9d2eb7	0.30699703
174	0x3e9430d8	0.28943515
175	0x3e62b37b	0.22138779
176	0x3e65feee	0.22460529
177	0x3e42f5c4	0.19039065
178	0x3dc81dd7	0.097713165
179	0xbe4ea758	-0.20181024
180	0x3e11c33e	0.14234635
181	0x3e1e2ac2	0.15445998
182	0xbe9b5671	-0.30339387
183	0x3efe2dc4	0.4964429
184	0x3a1ec0d7	0.0006055957
185	0x3cd75542	0.026285771
186	0x3ebac70c	0.36479986
187	0xbd88ebb9	-0.066855855
188	0xbee62f20	-0.4495783
189	0xbedb48ce	-0.42828983
190	0xbf0939ff	-0.5360412
191	0xbecb2292	-0.39674813

regime_proj.bias f4 [64]
0	0xbe28f060	-0.16497946
1	0x3e4955c1	0.19661619
2	0xbed4ab9d	-0.4153718
3	0xbecd37e3	-0.400817
4	0x3e34bfe2	0.17651322
5	0xbe56e496	-0.20985636
6	0xbeb221b5	-0.3479134
7	0x3f0ffb3b	0.5624272
8	0xbed9fbd7	-0.4257495
9	0xbb60e0c0	-0.003431365
10	0x3da4f77b	0.08055016
11	0xbd476e82	-0.048689373
12	0xbf09b299	-0.53788143
13	0xbd003e16	-0.03130921
14	0xbe9fc60c	-0.31205785
15	0x3ed4cd0e	0.41562694
16	0xbe99cdf5	-0.30039945
17	0xbd9432b2	-0.07236232
18	0xbeb674e3	-0.35636052
19	0x3ed334ff	0.4125137
20	0xbe960019	-0.2929695
21	0x3ea41da0	0.32053852
22	0xbed93c90	-0.42429018
23	0x3ef1a3c0	0.47195244
24	0x3eb876de	0.36028188
25	0x3d8aa411	0.067695744
26	0x3e1c2a8d	0.15250607
27	0xbdda8a53	-0.106709145
28	0x3f0c2d46	0.5475658
29	0xbe2477a1	-0.1606126
30	0x3ec8af7d	0.39196387
31	0xbf0597a3	-0.52184504
32	0x3e136abc	0.14396185
33	0xbf115a9d	-0.5677889
34	0xbefdec89	-0.49594525
35	0xbdde1009	-0.10842902
36	0xbee57379	-0.4481466
37	0xbea96a6b	-0.33089003
38	0xbe0092ab	-0.1255595
39	0x3efc1118	0.49231791
40	0x3edc73d0	0.43057108
41	0x3ec937c7	0.39300367
42	0x3ea95bdb	0.33077893
43	0xbd15bdad	-0.036557842
44	0x3e733c0d	0.23753376
45	0xbe15f044	-0.14642435
46	0x3efb5519	0.49088362
47	0x3ebcd9ab	0.36884817
48	0xbedf88fc	-0.43659198
49	0x3ef55ef8	0.47924018
50	0xbeba141d	-0.3634347
51	0x3eb45b81	0.35226062
52	0x3e878c0f	0.26474044
53	0xbcd0ad36	-0.025473218
54	0xbe20c61c	-0.15700573
55	0xbcf1bde3	-0.02950949
56	0xbef71eff	-0.48265836
57	0xbe95c0e8	-0.29248738
58	0x3f1095be	0.5647849
59	0x3e26340b	0.1623079
60	0x3e869d97	0.26292107
61	0xbea19463	-0.31558523
62	0xbeba2642	-0.36357313
63	0x3f0f27c8	0.55920076

transformer.layers.0.self_attn.in_proj_weight f4 [192, 64]
0	0x3e1c68ae	0.15274307
1	0x3d037a53	0.03209908
2	0xbcc0cd05	-0.02353526
3	0x3cf7e5e1	0.030260982
4	0x3d03a2d1	0.032137696
5	0x3e04aa5f	0.12955616
6	0x3d70cbd7	0.058788147
7	0xbdedbcaf	-0.11608254
8	0x3d7902ca	0.060793675
9	0xbe136a08	-0.14395916
10	0x3dc305bc	0.09522578
11	0xbdcb183b	-0.09916731
12	0x3de09742	0.1096635
13	0xbdb54a3a	-0.08852048
14	0xbe060d77	-0.13091074
15	0x3d096f8e	0.033553652
16	0x3c2b103e	0.010440884
17	0x3dca1301	0.09866906
18	0x3d1fc8e5	0.039009947
19	0x3dce8de5	0.10085658
20	0xba1b60f9	-0.0005927231
21	0xbc8ad065	-0.016945073
22	0x3cac26c2	0.021014575
23	0xbd9e8763	-0.07740667
24	0x3d3f3d96	0.046689592
25	0x3d89dcba	0.067315534
26	0x3d90809e	0.07055782
27	0x3dbf41aa	0.09338696
28	0xbe198d83	-0.14995389
29	0xbcfd9c88	-0.030958429
30	0xbe1951c2	-0.14972594
31	0x3d12bcf4	0.03582473
32	0xbdeb4329	-0.11487419
33	0xbd329c74	-0.043606237
34	0xbe0d1989	-0.13779272
35	0xbe161328	-0.14655745
36	0xbd9ccdde	-0.076564535
37	0x3db6ef74	0.08932391
38	0xbdd57082	-0.1042185
39	0x39afa2d6	0.00033499923
40	0xbe166613	-0.14687376
41	0xbdadd452	-0.084877625
42	0x3d7e052f	0.062016662
43	0x3d905ccb	0.07048949
44	0x3d1a5d31	0.03768653
45	0x3dd25e7c	0.10271928
46	0x3c9b6f5c	0.018973999
47	0x3e1b4273	0.15162067
48	0x3e0627cf	0.13101123
49	0xbd18e6ed	-0.037329603
50	0x3d73d20d	0.059526492
51	0xbc586e50	-0.013209894
52	0xbe053d9b	-0.13011782
53	0xbde72129	-0.11285622
54	0x3d16d691	0.03682572
55	0x3d1078b2	0.035271354
56	0x3d82cf1d	0.0638716
57	0x3d5b9af8	0.053614587
58	0xbdc0086e	-0.09376608
59	0xbdbb7ded	-0.09154878
60	0xbdc686be	-0.09693669
61	0x3dbe6331	0.09296263
62	0xbdb69db2	-0.08916797
63	0xbe1c38a5	-0.15255983
64	0xbc82e98e	-0.015980508
65	0xbdd5ad2f	-0.10433423
66	0xbc9948f2	-0.01871154
67	0xbe0a6f4a	-0.13519016
68	0xbe171898	-0.14755476
69	0x3db1d39e	0.08682941
70	0x3d986c3b	0.07442518
71	0xbe176a51	-0.1478665
72	0xbe1320b1	-0.1436794
73	0xbdf4d947	-0.11955505
74	0x3dfd59c5	0.12370638
75	0x3dab06f7	0.08350938
76	0xbd96118c	-0.073275656
77	0xbe11fb40	-0.14256
78	0xbd8f358c	-0.06992635
79	0xbe02e3de	-0.12782237
80	0xbd77ad60	-0.060468078
81	0x3dba1c28	0.09087402
82	0xbd3853eb	-0.045001905
83	0xbd3fea20	-0.04685414
84	0xbdee76e0	-0.11643767
85	0x3e06983f	0.13144015
86	0xbbc0c49f	-0.005882814
87	0xbd8f936d	-0.07010541
88	0x3c99ee92	0.018790517
89	0xbb4f12a2	-0.00315968
90	0xbe0d63b5	-0.13807566
91	0xbdeb1603	-0.11478808
92	0xbe140ece	-0.14458773
93	0x3e0f2dbf	0.13982294
94	0xbe0bf714	-0.13668472
95	0xbdbf7db5	-0.093501486
96	0x3d3e4d38	0.04646036
97	0xbe17934b	-0.14802282
98	0xbe149b6c	-0.14512414
99	0xbd752dd3	-0.059858155
100	0xbca4937e	-0.020089861
101	0xbe02f9a8	-0.12790549
102	0xbe10160a	-0.14070907
103	0xbd078106	-0.03308203
104	0x3c1e56a4	0.009664211
105	0x3dc324a6	0.095284745
106	0xbe06624f	-0.13123439
107	0x3d062932	0.03275413
108	0x3dc2a71c	0.0950453
109	0x3e00ea3b	0.12589352
110	0xbe08f726	-0.1337553
111	0x3dbe2bcb	0.092856966
112	0xbdbb04ed	-0.09131799
113	0x3df3c8f7	0.119035654
114	0x3ddb784d	0.10716305
115	0x3e1bb350	0.15205121
116	0x3db612c5	0.08890299
117	0xbdfa6811	-0.1222688
118	0xbdab7d3f	-0.08373498
119	0xbdfacdb1	-0.12246264
120	0x3dc7b7d5	0.0975186
121	0xbe0488ee	-0.1294286
122	0xbde08a40	-0.10963869
123	0xbdfba1a9	-0.122866936
124	0x3e1c420a	0.15259567
125	0x3dbc81d9	0.09204454
126	0xbccdea8c	-0.025136255
127	0x3d6939d6	0.056939922
128	0x3d686225	0.056734223
129	0xbd2b75e7	-0.041860487
130	0x3c326bc2	0.010889949
131	0xbe1460c8	-0.14490044
132	0x3d256db4	0.040387824
133	0xbcc55fcf	-0.024093537
134	0xbe151096	-0.14557108
135	0xbc6596d2	-0.014013009
136	0xbd09795d	-0.033563007
137	0xbae8fb3e	-0.0017775071
138	0x3dd9fad2	0.10643543
139	0xbbdd2587	-0.0067488584
140	0x3e108998	0.14114988
141	0x3d450a3b	0.04810546
142	0x3c40a611	0.011758343
143	0x3cecf236	0.028924089
144	0x3df84f6e	0.12124525
145	0xbde742e3	-0.112920545
146	0x3d6479be	0.055780165
147	0xbd16475d	-0.03668915
148	0xbdf00437	-0.11719554
149	0x3e0113a2	0.12605146
150	0x3dda214c	0.10650882
151	0x3e121a31	0.14267804
152	0x3de114bc	0.10990283
153	0xbdedd485	-0.116128005
154	0xbd764a02	-0.060129173
155	0xbb0d5f85	-0.0021571827
156	0xbded1bd1	-0.11577571
157	0x3db9208f	0.09039413
158	0xbb2100a5	-0.0024567035
159	0x3d9a6b97	0.075400524
160	0xbdf425a7	-0.11921244
161	0xbda30a26	-0.0796092
162	0xbd9ad567	-0.075602345
163	0xbdfa9d6e	-0.122370586
164	0x3dd1e997	0.10249632
165	0x3e1c17bc	0.15243429
166	0x3df44400	0.119270325
167	0xbc3a2933	-0.011362362
168	0x3d2fa484	0.042881504
169	0x3da56855	0.080765404
170	0x3ca96e84	0.02068258
171	0x3db1121e	0.08646034
172	0x3e0cef39	0.13763131
173	0xbd132679	-0.035925362
174	0xbd287854	-0.04113038
175	0xbe0eeee4	-0.13958317
176	0xbc672d24	-0.014109883
177	0x3e1bdf4a	0.15221897
178	0x3d954173	0.07287874
179	0x3d5c9879	0.053856347
180	0xbdcaaf09	-0.098966666
181	0xbd8dd9e6	-0.069263265
182	0x3d789c6a	0.060696043
183	0xbcdc1c90	-0.026869088
184	0xbd89cc3b	-0.06728407
185	0xbdad0161	-0.08447529
186	0xbde52a31	-0.11189688
187	0x3dde4ab1	0.1085409
188	0x3e1a81bc	0.15088552
189	0x3e0a5b9f	0.13511513
190	0x3d63ac26	0.055584095
191	0xbde6d038	-0.11270183
192	0xbe0fdb06	-0.14048395
193	0x3c5aecf1	0.013362155
194	0x3dfc0ecd	0.123075105
195	0xbcc3bc42	-0.02389348
196	0xbda309a8	-0.07960826
197	0xbe17aab6	-0.14811215
198	0xbe0a7778	-0.13522136
199	0xbd9d8c5a	-0.076927856
200	0xbce78359	-0.028260874
201	0x3d235253	0.039873432
202	0x3db13496	0.08652608
203	0x3d8360b8	0.06414932
204	0x3da32e39	0.07967801
205	0xbd19b605	-0.037527103
206	0x3de2651d	0.11054442
207	0x3c0d94f3	0.008641469
208	0x3e1762e3	0.14783816
209	0xbd968516	-0.07349603
210	0xbda18006	-0.07885747
211	0xbe163694	-0.14669257
212	0xbe00c39a	-0.12574616
213	0xbe1c780c	-0.15280169
214	0xbb986d7c	-0.0046517234
215	0xbdcdd898	-0.100510776
216	0xbde2a2aa	-0.11066182
217	0x3de36d66	0.111048505
218	0x3e0737e4	0.13204914
219	0x3b5e3db0	0.003391128
220	0x3dca1725	0.09867696
221	0x3bdee83c	0.006802587
222	0x3c8da5e7	0.017291022
223	0x3dd1fd5b	0.10253402
224	0xbd949f1c	-0.0725691
225	0x3e0d1694	0.13778144
226	0xbe15106c	-0.14557046
227	0xbe00cfd7	-0.12579285
228	0x3da1f0c0	0.079072475
229	0x3d2e3fa9	0.04254118
230	0xbd2da914	-0.042397574
231	0x3d65d3f1	0.056110326
232	0x3d221cd5	0.039578278
233	0x3db363ed	0.08759294
234	0x3e03b0f7	0.12860475
235	0x3ddf4c25	0.10903195
236	0xbde4da65	-0.11174468
237	0xbd70027c	-0.05859612
238	0x3de5a856	0.11213748
239	0x3d759a68	0.059961706
240	0xbe1ad7ed	-0.15121432
241	0x3da485bc	0.0803332
242	0x3e157ae4	0.1459766
243	0x3d10ed77	0.035382714
244	0xbd0729e2	-0.032998927
245	0x3d8d61fa	0.06903453
246	0xbdaf5195	-0.085604824
247	0x3e0970a2	0.13421872
248	0xbcb86bfb	-0.022512427
249	0x3bca3d2f	0.0061718444
250	0x3cb17236	0.021660905
251	0x3cfcf4b4	0.030878402
252	0xbd828932	-0.06373824
253	0xbd9d4a81	-0.07680226
254	0xbe02c399	-0.12769927
255	0xbe1865b1	-0.14882542

transformer.layers.0.self_attn.in_proj_bias f4 [192]
0	0x3a119da3	0.0005554801
1	0xba2a486c	-0.0006495777
2	0x3a3e9429	0.00072700024
3	0x393f80a3	0.000182631
4	0xb95d555d	-0.00021108003
5	0x3a69f984	0.00089254254
6	0xb884b86a	-6.3286e-05
7	0x393f6749	0.00018253656
8	0x3a85ebc4	0.0010217358
9	0x3aa3db31	0.0012501237
10	0xb955b9af	-0.00020382435
11	0x3aa23511	0.0012375434
12	0xb9b35bb4	-0.00034209865
13	0xb9fc3cc0	-0.00048110448
14	0x398a173d	0.00026338725
15	0x39bd0de9	0.00036059253
16	0xbb13393d	-0.0022464537
17	0x39e7081a	0.0004406579
18	0x3981ad0f	0.00024733736
19	0x3b064969	0.0020490533
20	0x39b8947a	0.00035205839
21	0xb923dafc	-0.0001562647
22	0xba823992	-0.000993537
23	0xbad4a0d6	-0.0016222249
24	0x3ab3f934	0.0013730885
25	0xbad97883	-0.0016591701
26	0xba06a781	-0.00051366544
27	0x39069755	0.00012835611
28	0x3aa197ff	0.0012328624
29	0x3a6a7ea0	0.000894526
30	0xb7c4a8a4	-2.344355e-05
31	0xbb116264	-0.002218389
32	0x390fe0ba	0.0001372126
33	0xba388fda	-0.00070404785
34	0xb9bcd412	-0.0003601616
35	0x39260647	0.00015833332
36	0x3a7065f7	0.00091704674
37	0x3b030f66	0.0019998192
38	0xbaa62ed3	-0.001267875
39	0x3a008b44	0.00049035647
40	0xbac0de5b	-0.0014714705
41	0x3adc3e0a	0.0016803157
42	0x3a1be070	0.00059462246
43	0xbacb261f	-0.0015499032
44	0x3ad4bcbe	0.0016230566
45	0xbad7624f	-0.0016432496
46	0xba9db787	-0.0012032845
47	0xbaab94f0	-0.0013090651
48	0x3a548785	0.0008107352
49	0xbaa2562f	-0.0012385304
50	0x3aed75d9	0.0018116786
51	0xbaaa6245	-0.0012999257
52	0xbac5b4b4	-0.0015083761
53	0x3aabe7d5	0.0013115356
54	0x3a8be53a	0.0010673173
55	0xbae94953	-0.0017798342
56	0x3965db38	0.00021920807
57	0xb91e2223	-0.00015080771
58	0xb9733ab8	-0.0002319616
59	0x3b069aee	0.0020539123
60	0x3a865799	0.0010249495
61	0x3ab6bafc	0.0013941224
62	0xba839025	-0.0010037465
63	0xba751b17	-0.0009350045
64	0x34932110	2.740494e-07
65	0x34096738	1.279667e-07
66	0xb6a3946f	-4.8750585e-06
67	0xb49fd3fc	-2.9770297e-07
68	0x36e9e4c9	6.970575e-06
69	0xb38f225e	-6.665208e-08
70	0x35c8d74d	1.4963822e-06
71	0xb6560436	-3.1890936e-06
72	0xb5970c23	-1.1253909e-06
73	0x365a84d2	3.2561843e-06
74	0xb463d591	-2.1218717e-07
75	0x36cc1ed5	6.083263e-06
76	0xb5dbade0	-1.6367376e-06
77	0xb6f20eb8	-7.2138755e-06
78	0xb61ab25d	-2.305161e-06
79	0x363e8486	2.8389345e-06
80	0x35918759	1.0842733e-06
81	0x36ca22bc	6.0241127e-06
82	0xb3f2a39e	-1.1298765e-07
83	0x34bffbe5	3.57598e-07
84	0x359ae40f	1.1540268e-06
85	0xb610724d	-2.1524204e-06
86	0xb6358c44	-2.7052747e-06
87	0x35906501	1.0758232e-06
88	0xb5c84117	-1.4920105e-06
89	0xb58cf577	-1.0502253e-06
90	0xb5b5e218	-1.3551353e-06
91	0xb60157d8	-1.927363e-06
92	0xb502f232	-4.8781214e-07
93	0xb296e7e9	-1.7567759e-08
94	0xb569a638	-8.7041144e-07
95	0x347a060c	2.3285264e-07
96	0xb78ab807	-1.6536576e-05
97	0xb5e12213	-1.6773723e-06
98	0xb5bb9dec	-1.3978547e-06
99	0x33e27639	1.054545e-07
100	0x36d7bc61	6.4294295e-06
101	0xb503865b	-4.8996816e-07
102	0x3541df7a	7.2223304e-07
103	0xb725e5d6	-9.888279e-06
104	0x360ca220	2.0955995e-06
105	0x3574937a	9.111169e-07
106	0x3244cbbc	1.1455025e-08
107	0x35af1c3e	1.3046736e-06
108	0x3691a40d	4.3404348e-06
109	0xb56e24e8	-8.8715615e-07
110	0xb5f087a8	-1.7920875e-06
111	0x36cc912a	6.096573e-06
112	0x35b1c7ac	1.324564e-06
113	0x35ea6563	1.7463866e-06
114	0x35db4ddf	1.6339435e-06
115	0x35cb366d	1.5140519e-06
116	0xb55d164f	-8.236138e-07
117	0xb5d64061	-1.5962979e-06
118	0xb70d8442	-8.435049e-06
119	0x3534eecc	6.740272e-07
120	0xb5f9d333	-1.8613413e-06
121	0x35a1df37	1.2060399e-06
122	0xb70627e1	-7.996307e-06
123	0xb4ae7f04	-3.2502442e-07
124	0xb60d633e	-2.1068404e-06
125	0x373cfa23	1.1263913e-05
126	0x3620cdf4	2.3961738e-06
127	0xb4b93984	-3.4500783e-07
128	0x3a481cf1	0.0007633707
129	0xba8c63e9	-0.0010710928
130	0x3af4d469	0.0018679026
131	0x3a371f9a	0.0006985605
132	0x3a5b6992	0.0008369918
133	0x3a781e78	0.00094649894
134	0x3a643a3b	0.0008706187
135	0x3a0b03ce	0.0005302996
136	0xba6a2207	-0.0008931462
137	0x393555f3	0.00017293524
138	0x3a65a152	0.00087596953
139	0x3afe65d7	0.0019409013
140	0xba34ce44	-0.0006897191
141	0x3a534a29	0.0008060062
142	0xba88ca6b	-0.0010436302
143	0x39ca2658	0.0003855701
144	0x3aa17291	0.0012317469
145	0xba52d218	-0.00080421707
146	0xba925c49	-0.0011166419
147	0x3a4737af	0.0007599545
148	0x3a3e0bbf	0.0007249675
149	0xba2a9ca4	-0.00065083266
150	0xba89102e	-0.0010457092
151	0xba6c4a42	-0.0009013751
152	0x3a60e851	0.000857954
153	0xb88b0a83	-6.6299945e-05
154	0xba8b0e10	-0.0010609049
155	0x3a005b3e	0.00048964086
156	0x3a549216	0.00081089267
157	0xba297597	-0.00064643606
158	0xb9804eee	-0.0002447287
159	0x399992d5	0.00029291832
160	0xb924d526	-0.00015719663
161	0x39f31f57	0.00046371922
162	0x3a26ed32	0.00063677423
163	0x3a8bebd7	0.0010675144
164	0x39620134	0.00021553488
165	0xba4b8a8e	-0.00077644817
166	0xbacb32a4	-0.0015502763
167	0x390e2ba9	0.0001355844
168	0x37fb1862	2.9932886e-05
169	0xba385f15	-0.00070332113
170	0xb9ff22e7	-0.00048663394
171	0x3a81695e	0.0009873321
172	0xba363dcf	-0.0006951959
173	0x3a842435	0.0010081591
174	0xba0e1d57	-0.0005421242
175	0xba1c6bbc	-0.00059669814
176	0x3a786861	0.0009476003
177	0x390e0931	0.000135456
178	0xba5bfea6	-0.00083921326
179	0xba9c4228	-0.0011921572
180	0xba21d09a	-0.00061727467
181	0x39856b0a	0.00025447487
182	0xba675d3d	-0.0008825844
183	0xba88b210	-0.0010429043
184	0x3a8cefd6	0.0010752629
185	0xba60af0a	-0.0008571005
186	0xba85168b	-0.0010153813
187	0x39aa1eac	0.0003244778
188	0xba668403	-0.0008793475
189	0x3a998256	0.0011711817
190	0x3a82259a	0.0009929419
191	0x3ab25cb0	0.0013607945
