results/model/model_5.pth (torch, 439799 bytes, 36 tensors)

cls_token f4 [1, 1, 64]
00000000: 6282 1cbf 2d32 6a3f 7820 f6be e1c4 9c3e
00000010: dcd7 1040 71eb e7bd 29de cfbe 0af6 8fbf
00000020: e350 0fbe 883d 1d3f eb9a b3bf 4465 d7be
00000030: 3b84 dcbf 90ed 6ebf 27e2 b43e 0d24 babf
00000040: f357 963f 0f26 63bf ec94 b5bf 2b52 4e3e
00000050: 6d5f e7bf 38ea c8bd 8c91 23bf e416 cc3f
00000060: 5dba 2d3f 2a6b d63f c68d b5bd 6d37 d03e
00000070: 29a2 ad3f 69fa b1bf 39c3 adbf 8a8c 44be
00000080: 5aca 8fbe ac69 20bf cf03 18c0 0149 4dbe
00000090: 9138 053d 210e cfbf 9842 9abf 9654 76bf
000000a0: abbe 54bf 8b16 b33e 684e 47bf 7883 5fbf
000000b0: 1b5c 1d40 5b19 3ebe 0ab8 ccbf f88f 0ebe
000000c0: 74e5 d73e 451e c7be a1ab 1140 fa02 dbbf
000000d0: dfaf 3bbf 5d6f da3e ade3 d13f c6c1 e5be
000000e0: 18e4 d73f ac23 91bf 6834 9dbf 64c8 c43e
000000f0: 16d0 f7bf 37c7 41bf f453 0f3e 8494 8ebb
-0.6113645 0.9148281 -0.48071647 0.30618957 2.263175 -0.11324204 -0.40599182 -1.124696
-0.139957 0.61422014 -1.4031652 -0.42069447 -1.7227854 -0.9333124 0.3532879 -1.4542252
1.174559 -0.8872995 -1.4186072 0.20148532 -1.8075997 -0.09810299 -0.6389396 1.5944486
0.6786249 1.6751454 -0.08864932 0.40667287 1.3565112 -1.3904544 -1.3575202 -0.19194236
-0.2808407 -0.6266124 -2.3752325 -0.2004738 0.03252465 -1.6176187 -1.2051573 -0.9622282
-0.83103436 0.34978136 -0.77854013 -0.8730998 2.4587467 -0.1856436 -1.5993664 -0.13922107
0.42167246 -0.3889028 2.2761004 -1.7110283 -0.73315233 0.42663088 1.6397606 -0.448744
1.6866484 -1.1339011 -1.2281618 0.38434136 -1.9360378 -0.756946 0.1399687 -0.0043512005

input_proj.weight f4 [64, 28]
00000000: 2ba9 31be aa9e 273d 092b f93d a41f ff3c
00000010: fc7a 35be 52bf dcbd 9293 df3d be01 2b3e
00000020: cd2f a73d c9e2 9d3d dff2 d53d 8035 3cbe
00000030: fa81 31bd 4805 2b3d 7edf 1ebe 931b 19be
00000040: 699b 0d3e c50b ed3d 8e04 f43d 1eda 97bd
00000050: 6485 263d 1739 bd3d b9c2 13bd da72 f7bd
00000060: 0835 af3d 4ba5 3d3e 0369 fd3d 0627 febd
00000070: 28f1 f1bd 2a07 423d 52d9 023d 3e80 cc3a
00000080: 3d61 00be 532e 2dbe bf93 1abe 0643 b6bd
00000090: 3d31 0a3e fc8c 94bd 18e4 683d e64a 073e
000000a0: ed3e 04bd a11a bf3d 728d ce3c f9b9 2bbe
000000b0: b765 b2bc 3161 00be c9e4 783d e957 3dbe
000000c0: 02af 1fbe 68a7 30be e97e 0c3e 00c0 743d
000000d0: ac5f e53d 5516 6c3c 5158 1d3e 6879 e8bd
000000e0: 18af 07bb 94ee 02be 19ee 0f3e adc4 38be
000000f0: 39e2 e33c b65c 483d 0cb5 1fbe d5c4 863d
00000100: c4c3 2bbe 27a8 173d 0424 fc3c da43 203e
00000110: d47f 2e3d c52d 70bd 565c 373e 47d0 d2bd
00000120: 87e9 fabc f242 fbbd 395c 22be 9809 0cbe
00000130: 6274 673c fbb5 d0bd e37c 9dbd ff7f 6f3d
00000140: a099 19be 66b4 86bd 0d33 bebd 798a a6bd
00000150: fe27 333e 6cee 7d3a fd47 a13d 7bd4 083e
00000160: 5feb 86bc 0fb9 52bd ffbb a73d 2e58 303e
00000170: 6ecc ed3c 508a 603b d29e 413e bcb4 dd3d
00000180: 9e3e 053e 48da 173e 4bdf d33d f736 373e
00000190: 5a80 f63d eb93 993c 20af 1bbe 98e3 193e
000001a0: 0936 01bd 6a95 003e c575 d9bd 26f0 903d
000001b0: 581c 0bbe 7b44 253b e5ad bbbd 6115 bf3d
000001c0: 4e5c ddbd 4d47 4f3d d973 3abc 1b52 21be
000001d0: fc9c 533d 397e cdbd 5a26 1b3d 802d 273d
000001e0: 5530 d33d 8ac4 50bd fd2e 03bd e211 333e
000001f0: 738c cc3d b9d3 e9bd 102f aa3d 0ad1 233e
00000200: a1bc 413d 1f9a 313e 6191 e53d 403d b73d
00000210: 49e4 d63d 9375 02be 84eb 20be efef 9d3d
00000220: d5dc af3d 9395 e83d 05dc 9c3c 1df4 0cbe
00000230: fad7 17be 8fea eebd f716 21bc b813 133e
00000240: e720 a9bc f1a2 023e 8b8d 3dbe ae4d b73d
00000250: 01b2 43bd 5138 12be 71d0 e2bd 0b40 24be
00000260: 6b0c 803c 057d e83d 687c 1f3e 67e4 103e
00000270: 7bdf 34bc 013b 0dbe 7b52 1a3e 4506 07bd
00000280: 5722 f73d d657 d9bd 2eac cebd c759 5bbd
00000290: 38bf c5bd 5cb7 8c3d 1c26 1c3e 7548 143e
000002a0: ea55 bfbc 3058 2ebd 4961 f3bd 8ce9 8cbc
000002b0: e6bb df3c b34b 33be df4f 8d3c 3b84 8a3d
000002c0: dd5a 1cbe 4ea5 2c3e 33ef 2cbe 62b7 11be
000002d0: a8ae fa3d 7148 243d 2547 99bd 7362 393e
000002e0: 834c 11be 602c 0e3e e6de eb3c d86f 87bd
000002f0: 10e4 0d3e 1dec b5bd 5fb5 e4bd e1db 06be
00000300: f2dc 033e 534e e03c 3c12 ab3c de29 05be
00000310: bec3 cb3d b1b2 c83d 1441 143d 3806 843c
00000320: 0c72 37bd 6104 bf3d 8e14 0bbe 0314 8ebd
00000330: 51ab 943d f6f1 01be 4645 08be 6002 89bd
00000340: 34cb b0bd 62f5 ad3d d7c6 dc3d 1724 b53d
00000350: 36da 61bd ddff 40be 2e3a 01be b4ac 433d
00000360: 1d7b 28be 0641 a13d ff99 cb3c d442 0abe
00000370: 6af2 ec3d 1b75 093e 4517 09be eafe 233e
00000380: ac83 fd3d 7000 3e3e 2d64 fbbc 2d50 d7bc
00000390: 7594 223d 07b1 153d 6900 c33d bdcc 8cbd
000003a0: 9080 11be 9f31 09be 3ec0 2ebe c626 ec3d
000003b0: 7eb2 833d c01d 2dbe 9f92 c3bc 55b4 0f3e
000003c0: 4243 adbd b924 d0bd 3ce7 18bd 3d55 8dbd
000003d0: ad06 4abd 213d cf3d 785e 7cbc 212e 093e
000003e0: 9941 13be 9354 3d3e 88d1 89bd 4857 dfbc
000003f0: f3d7 7a3d eef3 353c 0f57 2e3e 885b 00be
-0.17349689 0.0409228 0.121664114 0.031143017 -0.17722696 -0.10778679 0.10916819 0.16699883
0.08163414 0.077092715 0.104467146 -0.18379784 -0.043336846 0.041753083 -0.15514943 -0.14951925
0.13828816 0.115745105 0.11914931 -0.074146494 0.040654555 0.09239405 -0.036074374 -0.12082453
0.08555037 0.18520086 0.12373545 -0.12409787 -0.11813575 0.047370113 0.031945534 0.0015602184
-0.12537093 -0.16912203 -0.15095423 -0.088995025 0.13495345 -0.07253453 0.056858152 0.13212165
-0.032286573 0.09331251 0.02521393 -0.16770162 -0.021777017 -0.12537076 0.06076506 -0.18490566
-0.15594104 -0.1725136 0.13720287 0.059753418 0.111998886 0.014409621 0.15365721 -0.113512814
-0.002070373 -0.12786323 0.14055671 -0.18043776 0.027817832 0.04891654 -0.15596408 0.065805115
-0.16773897 0.037025597 0.030778892 0.15650883 0.042602375 -0.0586374 0.17906317 -0.10293632
-0.030628933 -0.12268628 -0.15855493 -0.13675535 0.014126869 -0.1019096 -0.07689836 0.058471676
-0.1500001 -0.06577377 -0.09287081 -0.0813188 0.17495725 0.0009686712 0.07875059 0.13362305
-0.016469656 -0.051446017 0.08190154 0.17221138 0.029028144 0.0034262128 0.18908241 0.10825488
0.13012168 0.14829361 0.10345324 0.17892061 0.120362 0.01874729 -0.15203524 0.15028226
-0.031545673 0.12556997 -0.10618166 0.07077055 -0.13585031 0.002521782 -0.09164027 0.093302496
-0.10808621 0.050605107 -0.011380159 -0.15753977 0.051663384 -0.10033841 0.03787837 0.040814877
0.10311953 -0.050968684 -0.032027233 0.1748729 0.09987726 -0.11417336 0.08309758 0.15997711
0.04729903 0.17343949 0.112093695 0.089472294 0.10492761 -0.12740164 -0.15714842 0.07711779
0.08587042 0.11356654 0.019147882 -0.13764997 -0.14828482 -0.11665832 -0.009832135 0.14362991
-0.020645572 0.1275747 -0.18511026 0.08950363 -0.04777718 -0.14279296 -0.11074913 -0.16040055
0.015630921 0.113519706 0.15574801 0.14149629 -0.01103961 -0.1379204 0.15070526 -0.032964963
0.12067097 -0.106124565 -0.100914344 -0.053552415 -0.09655613 0.068709105 0.15248913 0.14480765
-0.023356397 -0.04256457 -0.1188379 -0.017201208 0.027311277 -0.17509346 0.01725 0.06763502
-0.15269037 0.16859934 -0.16888122 -0.14230111 0.12240344 0.040108148 -0.07484273 0.18103962
-0.14189343 0.13884115 0.02879281 -0.066131294 0.1385653 -0.08882926 -0.11167406 -0.13169815
0.12877253 0.027381098 0.020882718 -0.13004252 0.09949444 0.09799708 0.036194876 0.016116247
-0.044786498 0.09327007 -0.1358206 -0.06937411 0.072592385 -0.12689957 -0.13307676 -0.06689906
-0.08632508 0.08494069 0.10780113 0.08844774 -0.055139743 -0.18847604 -0.1261985 0.047772124
-0.16453214 0.0787373 0.024853704 -0.13502055 0.11569674 0.13423578 -0.13387783 0.16015211
0.1237863 0.18554854 -0.030687416 -0.026283348 0.03969236 0.03654578 0.095215626 -0.06874988
-0.14209199 -0.13397835 -0.17065522 0.11530833 0.06430529 -0.1690588 -0.023873625 0.14033635
-0.08460094 -0.10163254 -0.037329897 -0.069010235 -0.049322773 0.10119081 -0.0154033825 0.13396503
-0.14380492 0.18489294 -0.06729418 -0.027263299 0.0612411 0.011105521 0.17025398 -0.12534916

input_proj.bias f4 [64]
00000000: 7a1f cebd 0263 f73d f335 043c 5887 333e
00000010: 5675 91bd 503f 30be 0baa 5f3d e2a9 223e
00000020: c0ac 0e3e e05c 403d 74b6 d43d 7a53 093e
00000030: f44e 00be aabd 923d 7c89 303e e723 5ebc
00000040: e029 77bd 07d1 243e ab5a 13be 43cf b2bd
00000050: 05f5 71bc 49f5 acbd ec2f dbbc 28fb 4b3d
00000060: 2d86 35be 2f65 f03d 70c7 333d 115c e63d
00000070: d391 f23b bcca 19bc 2cf7 b93d 8337 813c
00000080: b02e 96bc 00e1 39be 645f 273d ed84 fd3b
00000090: 84c1 d1bd 15fa 86bd f71c 3bbe 22fa ccbc
000000a0: 504b 0bbd d8d0 de3d 9945 27bd 219b 1a3e
000000b0: bc75 f9bd 916c 823d 81b1 fcbd 6a0f 3a3e
000000c0: 61fa 93bd 5830 c6bd 93e7 31be 1dca 50bd
000000d0: aaf6 683d 59e4 023c 33a4 c4bd bf19 83bc
000000e0: e9a6 27bd eb62 2a3e 4f5d ecbd a76c 133e
000000f0: 1c37 023e 95d6 9a3d 0af9 2a3e 5819 bdbd
-0.100645974 0.12079431 0.008069503 0.17532098 -0.07102458 -0.17211652 0.054605525 0.15885118
0.13933086 0.046963573 0.10386363 0.1341075 -0.12530118 0.07165082 0.17239946 -0.0135583645
-0.06034267 0.16095363 -0.14390056 -0.08730938 -0.01476789 -0.08445222 -0.02675625 0.04980007
-0.17726965 0.11738049 0.04389137 0.11248029 0.0074026375 -0.009386715 0.090803474 0.01577354
-0.01833281 -0.18152237 0.040862456 0.0077367933 -0.10241988 -0.06590668 -0.18272768 -0.025021616
-0.03400737 0.108796775 -0.040837858 0.1509824 -0.12180659 0.06368364 -0.12338544 0.18169942
-0.0722549 -0.096771896 -0.17373495 -0.050974 0.056875862 0.007989013 -0.09601631 -0.016003488
-0.040930662 0.16639297 -0.11541235 0.14396916 0.12716335 0.075604595 0.16696563 -0.092333496

stock_emb.weight f4 [5, 64]
00000000: 38cb 45bf 8406 a2bf 84e4 b7bf d081 2140
00000010: 6397 a8bf 4d67 a13e f0b7 11bf 4cd6 4bbf
00000020: 5195 e63f 85ea c8bf a792 bf3f 50c5 7cbf
00000030: d5cb bfbf 1d00 813f 68fa 8f3e 7c25 5c3f
00000040: 2e12 c3be f868 1d3f 9cdf 0240 7152 bc3f
00000050: b51d d4bd 8ba7 49be b22e d43f 885c 033f
00000060: 02b1 633e 21bf fd3f b406 5f3f 946f 0ac0
00000070: faa4 febe 8720 243e b456 833f c3d4 5e3f
00000080: e5d5 f03d 1b62 323e f524 7abf 0e62 bcbf
00000090: 13a9 6b3e 3f01 f43e 49e1 00c0 82ab 4ebf
000000a0: cd1d f4bf 6076 29be 06f6 93be d2aa c6be
000000b0: d4da cbbf 650a 89be 8565 03bf dfbd 513f
000000c0: ea1a 363f dbd7 8ebf ff11 36bf 62ec 17bf
000000d0: 5664 b9bf 8ead 653f 1cf9 7d3f 3ca0 fc3d
000000e0: 1813 213f ddfe 5a3e 01e8 de3e 8916 f4be
000000f0: c58e 843f 24fe 563e 1a09 5e3e c172 f8bf
00000100: f0ef aebf bf2b 04bf 2403 4dbf 587a 5dbc
00000110: be6d a23f a784 65be 7444 a53e 2cc7 6dbf
00000120: 5af4 943f 7fbf 82be 34af 723f 8627 c83e
00000130: 31d0 52bf 4af6 02bf 34e1 c53e 503b 393f
00000140: 7bb9 83bf 0f2a f1bf cbd7 a53d 58e0 8bbd
00000150: e280 a5be 72c1 22c0 aebc 93bf 708e 35bf
00000160: ed81 1e3f a4da febe 4489 7abf 7c28 8f3d
00000170: f675 76bf 9bbc 8fbf d9cb 033f 7318 cfbd
00000180: e420 893d 6263 f43f ee7b e43e 7be5 a6be
00000190: cb7e d4bc 0be6 cf3f de29 afbf d5c5 c6be
000001a0: 3c13 48bf 3bfd 87be fc80 0f3e 93ef 853f
000001b0: f150 25c0 f014 67bf 86b3 3abf af7b 233f
000001c0: 3853 5cbf 3184 99be 75a5 a8bf df94 0bbf
000001d0: e258 e7bd a58e c53e f41c 0e3e 4cae 02be
000001e0: 1e76 94bb e1ea da3e 3926 0b3f 058b 943e
000001f0: 42c1 5bbf 1938 793e 5605 923f ac99 0fc0
00000200: 9275 2fbf 620f 67be 4f66 053e 1322 7dbf
00000210: 6232 6abf be30 443f a420 0f40 9398 2c3f
00000220: 8dae eebd 8fa6 9fbf 28fb ac3f da00 0740
00000230: 9551 a6bf 3ea9 69be eb0d 443e 8f99 ff3f
00000240: a26a 003f d797 2bbf a726 7abf 8cf4 303f
00000250: 929a dabe 8893 8a3f 5e78 243e 6c94 c7bf
00000260: 875b 40bf 0cde d8be 0996 4dbf d034 153f
00000270: 4fcf 49be b5d7 47be f9cc febd 307d 4a3f
00000280: 4895 afbe 5ed1 073f 36f3 90be 0cd8 04bf
00000290: 4a20 5a3f 94bc d2bb 1378 063c 3400 a4be
000002a0: a948 3c3f dac9 a23f 4865 653f 316f 1340
000002b0: 213c 6bbf 4f12 b3be 55e3 5bbf 6a89 523e
000002c0: e7dd d13f 28e4 5ebf b0b8 9f3f ebba d43e
000002d0: 2492 823f 11ec 77bd f9ba 6bbf efd0 bc3d
000002e0: 9be1 18bf ead8 813f d366 3e3f e9bb 7c3f
000002f0: 9951 0f3f e1e9 a7bf b488 d8be 9450 423f
00000300: 5fda cc3f d63d d83e ae72 eabd 72a9 ae3f
00000310: c65d 94be 6525 6abe 210a aabe 07d1 9cbf
00000320: ac3c 133f 0301 fe3d 2c1f 76bf b467 a5be
00000330: 4da4 973f 8528 ae3f 09fe 1bbe aba8 35bf
00000340: c224 c2bf 956b 29bd ea39 9e3f 4048 903f
00000350: 5b62 55bf 2072 bf3f f156 abbe 2012 0fc0
00000360: cfda a43f cd6c 28c0 748b bd3f d2bd 52bf
00000370: 5a51 88bf f7e9 4cbf e29a c53f 116e 86bf
00000380: 4169 dabc 4e8d c83e 423c 1340 9df5 7a3f
00000390: 689e e33e 82cf 473f 7f02 263f f47d f9bf
000003a0: 4cee a93e ffed 84bf bcce 0f40 a5e3 1dbf
000003b0: e22d 88be cbb7 1b3f b6f0 7f3f 21c4 e03f
000003c0: 961c b53e 1d70 853f eb22 1cbf 7ca8 c43f
000003d0: 7908 e53d b875 2ebe 1b48 90bf cbfa ee3d
000003e0: cad3 aabd f194 fcbd 0b54 63bf d8eb 83bf
000003f0: 6b05 8bbe ee94 f5be 1b22 49bf 6ee2 603f
-0.7726321 -1.2658238 -1.4366612 2.5235481 -1.31712 0.31524125 -0.5692129 -0.79623866
1.8014318 -1.569657 1.496663 -0.98738575 -1.498408 1.007816 0.28120732 0.85994697
-0.38099808 0.61488295 2.044898 1.4712659 -0.10357229 -0.19692819 1.657675 0.51313066
0.22235492 1.9823953 0.87119603 -2.1630602 -0.49735242 0.16028033 1.0260835 0.870434
0.11759547 0.17420237 -0.9771264 -1.4717424 0.23013715 0.476572 -2.0137503 -0.8073045
-1.9071594 -0.16549063 -0.28898638 -0.388022 -1.5926156 -0.26765743 -0.5132678 0.81930345
0.7113482 -1.1159624 -0.7112121 -0.59345067 -1.4483745 0.8971795 0.99208236 0.1233525
0.6291976 0.21386285 0.4353638 -0.47673443 1.035607 0.20995384 0.2168316 -1.941002
-1.3666973 -0.5162925 -0.8008292 -0.013517939 1.2689741 -0.22413884 0.32278788 -0.9288204
1.163707 -0.25536725 0.9479859 0.39092654 -0.82348925 -0.5115706 0.3864838 0.7235613
-1.0290979 -1.884096 0.080978 -0.068298995 -0.32324892 -2.543057 -1.1541955 -0.7092047
0.61917 -0.49776185 -0.978657 0.06990144 -0.96273744 -1.1229433 0.5148292 -0.10112085
0.066957265 1.9092829 0.446258 -0.32596955 -0.025939366 1.6242079 -1.3684652 -0.3882281
-0.7815435 -0.26560387 0.14014047 1.0463737 -2.5830653 -0.90266323 -0.7293018 0.638606
-0.8606448 -0.29983667 -1.3175493 -0.54524034 -0.1129625 0.38585392 0.13878232 -0.12761801
-0.004530682 0.42757323 0.543552 0.29012313 -0.85841763 0.24337806 1.1407878 -2.2437544
-0.68538773 -0.22564462 0.13027309 -0.9888012 -0.9148313 0.76636875 2.2363672 0.6742031
-0.11654387 -1.2472705 1.3514147 2.109427 -1.2993647 -0.22818467 0.19145934 1.9968737
0.5016271 -0.67028564 -0.9771523 0.6912315 -0.42696053 1.0826273 0.16061541 -1.559217
-0.7513966 -0.42356908 -0.8030706 0.5828371 -0.19707988 -0.1951588 -0.12441439 0.7909727
-0.3429358 0.53053844 -0.28310555 -0.5189216 0.8520552 -0.0064311717 0.008207339 -0.32031405
0.7354837 1.271785 0.8960767 2.3036616 -0.91888624 -0.34974906 -0.85893756 0.20560232
1.6395844 -0.8706689 1.2478237 0.41548857 1.0200849 -0.060527865 -0.9208217 0.092195384
-0.59719247 1.0144322 0.7437565 0.9872423 0.55983883 -1.3118249 -0.42291796 0.759042
1.6004142 0.42234677 -0.11447655 1.3645461 -0.28977793 -0.22865827 -0.33210853 -1.225129
0.5751445 0.12402537 -0.96141315 -0.32305682 1.1847016 1.3606116 -0.15233625 -0.7096049
-1.5167468 -0.041362364 1.2361424 1.1272049 -0.83353204 1.4956703 -0.3346477 -2.2354813
1.2879275 -2.6316407 1.4808183 -0.8232089 -1.0649827 -0.800445 1.5437891 -1.050234
-0.026661517 0.39170307 2.3005528 0.98031026 0.44456792 0.78051007 0.6484756 -1.9491563
0.3318962 -1.0385131 2.246993 -0.61675483 -0.26597506 0.6082732 0.9997667 1.7559854
0.35373372 1.0424839 -0.6099078 1.5363917 0.11183257 -0.17037094 -1.1272005 0.11668929
-0.08341177 -0.12333096 -0.88800114 -1.0306349 -0.2715257 -0.47965187 -0.78567666 0.87845504

stock_proj.weight f4 [64, 64]
00000000: fbcd c1bd 73ef 8d3d 503a d73d 51f3 27bd
00000010: 7eb8 8f3d 00d9 593d 78f0 b63d ef6b eabd
00000020: db4d b23c b1d2 813d dfbf ab3d 19e8 81bd
00000030: d35f b5bd f2d9 b73d 9ffb 13bd 774b ea3d
00000040: bc3c 203d 8b53 f5bd 9d19 cabd e81b 4abd
00000050: 02d8 5abc 7d53 fcbd 4a05 2cbd 6d0a f63d
00000060: 32cb aebd f185 89bd 1aa7 443c f236 bbbc
00000070: 5a98 763d 50fa f23d 61ef 063d cbcc cbbd
00000080: 4948 4b3d 2188 723d 86f4 c3bd 54e9 c9bd
00000090: 74ae b6bd 0944 363d 8f0d ddbd 35b5 633d
000000a0: dbac 40bd 34e5 75bd bfb2 10bd d418 fbbd
000000b0: 8bc7 c8bd 24c2 41bd 453e fb3d 321c fb3d
000000c0: d417 efbd 45c1 423d 8dca fbbb 489f 29bc
000000d0: c316 cbbd 369b afbd a7e9 edbd 8159 72bd
000000e0: 82ab 463d b264 d5bd 3bd4 d03b 01ec 35bd
000000f0: c1f8 5f3d dd76 06bd 9fe2 e3bd 30b1 60bd
00000100: 6d7e 9cbd b8a0 38bd b919 ed3d 8f72 bcbc
00000110: 16d8 a73d 98de 85ba 9504 2b3d 4ea4 9f3d
00000120: ac77 b43d 136c 4b3d cf7f 963d fe14 5bbd
00000130: 6ef3 8abd ce0b ae3d e68b 873d 0d17 af3d
00000140: 0a3d c63d 42d5 71bc f672 c13d 6898 e5bd
00000150: f7a9 793d 8c54 f0bd 93e6 803d 001a 9abd
00000160: c984 fa3d a6b7 df3d 7d83 913b 2828 4a3d
00000170: ffd0 6c3d 7a84 febd f5ed 1b3d 6d97 c6bc
00000180: 2a96 763d 0183 4a3c 8ec4 e6bd f244 f53d
00000190: aa01 12bd 87fe 61bd a8e5 a33d 810b d93d
000001a0: 7d85 9fbc 059c 573c 8274 07bd 00d3 8abd
000001b0: a8c5 263d ed76 e3bc 9b96 88bd a106 97bd
000001c0: 96fa 66bd 5a1a 8bbd c088 ea3d 5f04 d4bd
000001d0: a3d0 123d 6ca6 f4bd 7839 e23c 8820 313d
000001e0: 75f1 3dbd 7a05 3d3d b5d8 a9bd aaff c53d
000001f0: 857d a43d fe08 c13c 79ac f4bd 1557 9b3a
00000200: 34c7 f3bb ca19 1b3b 641e 00be 2d4e a5bd
00000210: 4c95 6d3c f1e5 ed3d 440f e73c 5fdb d23d
00000220: 26d2 7e3d ec49 87bd f84f cc3d d7de bfbc
00000230: 0b30 9bbd deed c6bc 4351 443d 981f 83bd
00000240: 5bb1 783b 8767 ac3d 4fda a13d 4105 efbd
00000250: 47bc acbc 3fc7 aebd c3fd d6ba 97e4 873d
00000260: 44d3 e93d 7482 d6bd 0f6d 01bd 48d8 95bd
00000270: 5177 bc3d 1239 fbbd a7cd c93d 8b8d ec3d
00000280: dc2a efbd 483c 1b3d c224 9dbd 8451 4e3c
00000290: f866 92bd 0061 f13d 9b01 fdbd 3ffb ebbd
000002a0: f342 e0bd c384 5fbc a1b0 cdbb bfd2 873d
000002b0: 0399 983d 4275 ef3d 07ef 32bd a5fd e8bd
000002c0: 2d2d ea3d d4de 1bbd 77dc fcbd 27ba 803d
000002d0: 8ab9 c63d ee99 7a3d 63f9 efbd 8abb 873d
000002e0: 5125 afbd 95d3 56bd b703 f3bc eb25 90bd
000002f0: 7dc5 e63c 2b67 e83d e06e 913d 2349 063c
00000300: f2ac 853d 7c23 a63d d4e2 293d d24b ae3d
00000310: 5720 84bd 4947 93bd 097b babd 5496 0f3d
00000320: 940d d2bd 4079 ea3d c53c 6dbd 8092 cfbc
00000330: 61f2 e63d feb8 49bd 1601 aebd f3c6 e73d
00000340: bcd4 eabd 1546 0abd ad98 33bd cc3c 3b3c
00000350: 7435 a03d 67a4 e7bd 7d27 8d3d 71b8 3abd
00000360: 6a48 e6bd 4d82 9fbd 625e 4fbd 0053 02bd
00000370: 20fc 61bd 7e7f cd3d 8b1f 9c3d f8fa e4bd
00000380: 11e9 e63d 0768 47bd 7340 803d 454f 093d
00000390: 12c8 cebc 58fa 4ebd 7f45 23bd b0aa f13d
000003a0: d201 b13b bc90 a7bd 8341 c13d a858 a9bc
000003b0: 130a fabd 431a a83d b4b5 79bd d814 b1bd
000003c0: ea17 58bb 0d69 bdbd 3059 8bbc 6208 a73d
000003d0: cfb3 4e3b 3a9b 54bd 247f 60bd b429 9fbd
000003e0: e8d7 72bb 3d92 1bbd 0e78 a8bd bc07 0b3d
000003f0: 7f4e 6c3d 32c6 993d 7571 f63d 3219 f9bd
-0.09463116 0.06930437 0.10509169 -0.04100353 0.07017611 0.053185463 0.089325845 -0.11446368
0.02176564 0.06339014 0.08386206 -0.06343097 -0.08856168 0.08977117 -0.036128636 0.11440175
0.03912042 -0.11978825 -0.098681666 -0.04934302 -0.013357164 -0.123206116 -0.04199723 0.12013707
-0.0853485 -0.067150004 0.012002731 -0.022853348 0.060203888 0.118641496 0.032943133 -0.099511705
0.049629483 0.059211854 -0.095681235 -0.09858957 -0.08919993 0.044498477 -0.10793602 0.055592734
-0.047039848 -0.06003304 -0.035326716 -0.12260595 -0.09803685 -0.047304288 0.12267736 0.12261237
-0.11674467 0.047547597 -0.007684058 -0.010352917 -0.09916451 -0.08574526 -0.11616831 -0.05916739
0.048503406 -0.10419597 0.006372956 -0.044414524 0.05468059 -0.0328282 -0.11127209 -0.05485648
-0.07641301 -0.04507515 0.11577172 -0.023003845 0.08195512 -0.0010213433 0.041752417 0.077950105
0.08811888 0.049663614 0.07348596 -0.053486817 -0.06784712 0.08498345 0.066184804 0.085493185
0.09679611 -0.014760317 0.09445755 -0.1121071 0.060953107 -0.11734876 0.062939785 -0.0752449
0.12232358 0.109237 0.0044407235 0.049354702 0.0578165 -0.12427612 0.03806873 -0.024242127
0.0602018 0.012360335 -0.112679586 0.11976041 -0.03564612 -0.055174377 0.08002788 0.10597897
-0.019472832 0.013159757 -0.033070095 -0.06778526 0.040715843 -0.02776667 -0.06669351 -0.07374311
-0.05639132 -0.067921355 0.11451864 -0.10352396 0.035843503 -0.11945805 0.027615294 0.043243915
-0.04637285 0.0461478 -0.08293287 0.09667905 0.080317535 0.023563858 -0.11946959 0.0011851514
-0.0074395183 0.0023666495 -0.12511593 -0.080715515 0.014500927 0.116161235 0.028205521 0.10295748
0.062212132 -0.06605896 0.0997619 -0.023421688 -0.07577523 -0.024283346 0.04792906 -0.064025104
0.003794751 0.08418184 0.07902967 -0.11670924 -0.021085871 -0.08534097 -0.0016402531 0.06635397
0.11417249 -0.10474101 -0.031598147 -0.07316643 0.09202445 -0.12266745 0.09853678 0.11550435
-0.11678097 0.037899286 -0.076730266 0.012592677 -0.07148546 0.117860794 -0.12353822 -0.11522531
-0.109502696 -0.013642493 -0.0062771593 0.066319935 0.0745106 0.11692287 -0.043684985 -0.11376504
0.11434398 -0.038054302 -0.12346738 0.06285506 0.097033575 0.061181955 -0.117174886 0.06627567
-0.085520394 -0.052447874 -0.029664857 -0.07038482 0.028170342 0.11347803 0.07101226 0.008196148
0.06527127 0.08112237 0.041476086 0.08510555 -0.06451481 -0.07191331 -0.09105498 0.035055473
-0.10256496 0.11448908 -0.057919282 -0.025338411 0.11276699 -0.049248688 -0.08496301 0.113172434
-0.11466357 -0.03375824 -0.043846775 0.011428069 0.078226954 -0.11310654 0.068922974 -0.045586053
-0.11244281 -0.07788525 -0.05062712 -0.031817436 -0.055172086 0.10034083 0.07623204 -0.11180681
0.11274923 -0.048683193 0.06262293 0.033522863 -0.025241885 -0.050531715 -0.0398612 0.11800134
0.0054018283 -0.08181903 0.094363235 -0.020672157 -0.12208953 0.08208134 -0.0609643 -0.08646554
-0.0032973238 -0.092485525 -0.017010301 0.08155896 0.003154028 -0.051905848 -0.05480875 -0.07771626
-0.003705496 -0.03798126 -0.082260236 0.033942923 0.057692047 0.07508506 0.12033359 -0.12163009

stock_proj.bias f4 [64]
00000000: 872a 7fbd cf3d c7bd bd09 4cbd 70d5 42bd
00000010: fd25 ef3d 9316 88bd ec0c 343c d8f4 40bd
00000020: f215 fabd 0fa4 dc3d db00 edbc 0eab a4bd
00000030: 8d09 11bc f40c 81bd 5f18 d6bd 03f1 553d
00000040: 4b3f 623d 7920 f83c 45f7 74bd 7631 d53d
00000050: 03e2 5fbd 64ed a93d 63e3 cf3d f72f b3bd
00000060: db9c f1bb 7537 38bc 0de8 b6bd 8cf1 3e3d
00000070: 02fc 18bc d6fc 943b aefb 5e3d 332f 523d
00000080: 2e24 bb3d f087 393d a5a7 bfbd 5074 ac3d
00000090: 7ab5 b9bc 5e4a 55bd e289 4fbd 4acf 873c
000000a0: 73a1 09bd c41b dcbd 6638 253c b3eb c9bb
000000b0: 7072 abbd 6a07 b8bc 4b33 b33d 4871 b53d
000000c0: 128a 443d 8566 8c3d 21f0 86bc 8259 b13d
000000d0: 33ee b1bb 9dbc 893d dd5b 863d f89d 5fbd
000000e0: 8d5c 8abd 662f 24bc 6625 40bd 082a ca3d
000000f0: 5437 b13d 6881 fa3d 3200 0dbd 16e8 423d
-0.062296417 -0.09728586 -0.049813975 -0.04756683 0.116771676 -0.06644931 0.010989409 -0.0471085
-0.12211217 0.10773479 -0.028931072 -0.080404386 -0.008852375 -0.06301299 -0.10453867 0.0522318
0.055236142 0.030288922 -0.059806127 0.104098246 -0.0546589 0.08297232 0.101507924 -0.08749383
-0.007373435 -0.011243691 -0.08930979 0.046617076 -0.009337427 0.004546742 0.05443924 0.051314544
0.0913776 0.045295656 -0.093581475 0.08420622 -0.022669543 -0.052072875 -0.050668605 0.016578335
-0.033601236 -0.107474834 0.010084247 -0.0061621307 -0.083714366 -0.022464473 0.08750018 0.08859497
0.047983237 0.068554915 -0.016471924 0.086596504 -0.005430007 0.06725428 0.0656049 -0.05459401
-0.06755934 -0.010021066 -0.046910666 0.09871298 0.08653131 0.122317135 -0.034424014 0.047584616

pre_ln.weight f4 [64]
00000000: e8b4 7f3f 0000 803f b3ec 7f3f 0000 803f
00000010: c711 803f 0000 803f 262e 803f 0000 803f
00000020: 4629 803f 0000 803f fc9a 7f3f 0000 803f
00000030: fdfd 7e3f 0000 803f f123 803f 0000 803f
00000040: a1d2 7f3f 0000 803f 8bf9 7f3f 0000 803f
00000050: 7667 803f 0000 803f ef47 803f 0000 803f
00000060: ba96 7f3f 0000 803f d3ac 7f3f 0000 803f
00000070: 643c 803f 0000 803f b718 803f 0000 803f
00000080: eae0 7f3f 0000 803f 37e7 7f3f 0000 803f
00000090: f31c 803f 0000 803f 0425 803f 0000 803f
000000a0: 0519 803f 0000 803f c6bb 7f3f 0000 803f
000000b0: 6aa0 7f3f 0000 803f e7de 7f3f 0000 803f
000000c0: b3e6 7f3f 0000 803f 2fa1 7f3f 0000 803f
000000d0: 6e1b 803f 0000 803f 87a5 7f3f 0000 803f
000000e0: dfdb 7f3f 0000 803f 4615 803f 0000 803f
000000f0: 86eb 7f3f 0000 803f 670c 803f 0000 803f
0.99885416 1.0 0.9997055 1.0 1.0005425 1.0 1.0014083 1.0
1.0012596 1.0 0.9984586 1.0 0.99606305 1.0 1.0010968 1.0
0.9993077 1.0 0.9999015 1.0 1.0031574 1.0 1.0021952 1.0
0.99839365 1.0 0.99873084 1.0 1.001843 1.0 1.0007542 1.0
0.99952567 1.0 0.9996218 1.0 1.0008835 1.0 1.0011296 1.0
1.0007635 1.0 0.99895895 1.0 0.9985415 1.0 0.99949497 1.0
0.99961394 1.0 0.9985532 1.0 1.0008371 1.0 0.9986195 1.0
0.9994487 1.0 1.0006492 1.0 0.99968755 1.0 1.0003785 1.0

pre_ln.bias f4 [64]
00000000: 6687 1ab9 0000 0000 f731 b93a 0000 0000
00000010: 1e9f bb39 0000 0000 d6f2 b03a 0000 0000
00000020: 54f1 a639 0000 0000 b817 253b 0000 0000
00000030: bfc1 963a 0000 0000 d64a 763a 0000 0000
00000040: e085 02bb 0000 0000 71c1 273b 0000 0000
00000050: 1a71 d23a 0000 0000 691d 86ba 0000 0000
00000060: 6801 793a 0000 0000 c5d1 0bbb 0000 0000
00000070: 79bc 0ebb 0000 0000 6b41 2dba 0000 0000
00000080: 89b3 f939 0000 0000 535c 733a 0000 0000
00000090: 1ea3 1dba 0000 0000 0a45 f2ba 0000 0000
000000a0: 7908 1b3b 0000 0000 f87b afba 0000 0000
000000b0: c619 8fba 0000 0000 299d e63a 0000 0000
000000c0: 2f72 9eba 0000 0000 a18c b0ba 0000 0000
000000d0: cf04 73ba 0000 0000 a0fc b73a 0000 0000
000000e0: 4abf f7ba 0000 0000 7878 553b 0000 0000
000000f0: 6477 acba 0000 0000 ee60 60ba 0000 0000
-0.00014737024 0.0 0.001412927 0.0 0.0003578597 0.0 0.0013500105 0.0
0.0003184179 0.0 0.002519114 0.0 0.0011501833 0.0 0.00093953067 0.0
-0.0019916221 0.0 0.0025597478 0.0 0.0016055435 0.0 -0.0010232154 0.0
0.0009498806 0.0 -0.002133475 0.0 -0.002177982 0.0 -0.00066091743 0.0
0.00047626745 0.0 0.0009283472 0.0 -0.0006013381 0.0 -0.001848371 0.0
0.0023656173 0.0 -0.0013388386 0.0 -0.0010917715 0.0 0.0017594445 0.0
-0.0012088473 0.0 -0.0013469645 0.0 -0.0009270431 0.0 0.001403708 0.0
-0.0018901613 0.0 0.0032573026 0.0 -0.001315814 0.0 -0.00085593655 0.0

regime_proj.weight f4 [64, 3]
00000000: a868 5b3e 9ca8 523e 5416 96be a6fe 8fbe
00000010: 1194 aa3d b3d3 f13e 0fcf 373e 054f ef3e
00000020: b49c 84be cdf5 103f 6065 f73d bd1c dd3e
00000030: 7c3a babe b080 ce3e b43a 2c3e d9f4 d4be
00000040: dab0 b5bd fefd db3e 9fb4 3a3d 7bff f13e
00000050: a2c9 ab3e 2f0b 0e3f 6a11 ea3d 5525 b43d
00000060: edb1 efbe 02fe 30be 73eb ec3e eb08 d13e
00000070: b4f5 b73d 6d88 aebe b2c3 1b3e 95b6 013f
00000080: 5e89 3bbd 6e8c 07be 392d e3be a2b5 043f
00000090: a617 31be b95d 3d3e b0f2 13bf 83d3 da3e
000000a0: 92cb b4be d7b9 f83e 7b35 e0be 67c5 99be
000000b0: cc4a 363e ca9e 12bf 4dd2 c9be 18f3 f43d
000000c0: 88bb 50be 39a5 febe f5a5 d03b 7c3f ce3e
000000d0: fd33 f23d 0195 733c 1199 aa3e d306 ec3d
000000e0: f9f6 cb3e 5097 993e fd81 b43e 2982 523d
000000f0: 3897 d6be 0182 903e 9513 80be 5d41 143e
00000100: a043 c23e 372e af3e 33c3 1fbd 1c63 2c3e
00000110: d90e d53d 0e54 c3bd 6dfa 043f a400 0abd
00000120: 93f1 9bbe b4a9 a3be 1fad 483e be5c 863e
00000130: 7023 1ebe 85a6 aebe c949 3e3e 8a31 efbe
00000140: d21f 80be f344 b53e ee0e 3fbe b0b0 fdbd
00000150: 913a 6b3d 1fa7 b0be b7db 103f 5813 b53d
00000160: e17e 95be 886c ad3e c8e8 633e 968e 933e
00000170: 0239 c3be 3db4 a2be dcf6 553e ee02 bb3d
00000180: 662e e2be ab22 063f bd13 dcbd 456c 983e
00000190: e05a aebd 4fdc aa3d 3de1 cb3d debf 873e
000001a0: 88c0 bf3a df23 9d3e a8d4 c1bc 77d6 13bc
000001b0: 959d abbe 2c49 443e d906 0bbe 2e9a efbe
000001c0: 1cf7 66be 082e bbbe a7cc 0c3f d14a e5be
000001d0: 7f77 5bbd 2c2c 69bd 2ebf 833d fc63 103c
000001e0: c2d3 bebe abc7 073d 05ba 0d3f 4940 fd3e
000001f0: 7371 16be 004c babe e247 253e a418 0abe
00000200: 02b8 f2be b268 f9bd 08c5 70be 6127 f3bd
00000210: 6da2 3cbe d936 8bba 889a 90bd 61f9 7c3d
00000220: c064 65be 17a0 993e c28f 91be 2715 fabe
00000230: 181f f83e 8dc9 633e 1fc9 05be 10d7 b1be
00000240: 5d60 8abe ffdf 943e eac4 95bd 026c 523d
00000250: 07ea 7f3d 8ded edbe 47bc 873e de37 b3be
00000260: c2cc 0abc 83bc a23e b81c 10be 11dc 6bbe
00000270: e7d5 e83e 95db 343e 19a8 91be 046c c4be
00000280: 247b 693e ab48 b8be 2968 e43d 1d57 0fbf
00000290: 77a8 dbbd 260c bb3e 3fe9 f63e 908f 8a3e
000002a0: 8e71 293e 1751 b43d 4f88 fdbe cba9 14be
000002b0: 3b5f a7be c7bc e73e 3824 11bf 8fac 753d
000002c0: 351d f0be 3978 6ebd 8cb9 4e3e 38f9 8ebe
000002d0: 3db9 1cbd a86c 463e 7ad6 10bf 7215 cd3e
000002e0: 0001 d5bc 719f 803b ca1d 033f a4a3 09bf
000002f0: 3af2 053f 769f 023f c44f 32bd 2d88 403e
0.21426642 0.20572132 -0.2931391 -0.2812397 0.08329023 0.47231826 0.1795008 0.46739975
-0.25900805 0.5662506 0.120798826 0.43185988 -0.36372745 0.40332556 0.16819268 -0.41593054
-0.088716224 0.42967218 0.04558241 0.4726523 0.3355227 0.55485815 0.11429103 0.08796183
-0.46815434 -0.17284396 0.46273383 0.40827116 0.08982411 -0.3408846 0.1521137 0.50669223
-0.0457853 -0.13237163 -0.4437044 0.5183965 -0.17294177 0.18492784 -0.57792187 0.42739496
-0.35311562 0.48579285 -0.43790802 -0.3003342 0.1780197 -0.5727354 -0.3941826 0.11960429
-0.20384037 -0.4973543 0.00636744 0.4028281 0.11826322 0.014867068 0.33319905 0.11524739
0.39836863 0.29998255 0.35255423 0.05139366 -0.41912246 0.28224185 -0.2501494 0.14478059
0.3794222 0.34214947 -0.039004516 0.16834682 0.104032226 -0.095375165 0.5194462 -0.033692017
-0.30457744 -0.3196541 0.1959729 0.26242632 -0.15443206 -0.3411142 0.18582834 -0.46717483
-0.25024277 0.35404167 -0.18658039 -0.12387216 0.0574289 -0.34502503 0.5658526 0.0884158
-0.29198363 0.33871865 0.22256768 0.28819722 -0.3812943 -0.31778136 0.2089495 0.09131418
-0.44176024 0.5239665 -0.10745952 0.29770103 -0.08513427 0.08342802 0.0995507 0.2651357
0.0014629522 0.3069143 -0.023660973 -0.0090233 -0.33518663 0.19168538 -0.13576831 -0.46797317
-0.22555202 -0.36558557 0.54999775 -0.44783643 -0.053580757 -0.05692689 0.06432949 0.008812901
-0.37270933 0.033149403 0.5536197 0.49463108 -0.14691715 -0.36386108 0.16140702 -0.13485962
-0.47406012 -0.12178172 -0.23512661 -0.11872745 -0.18421336 -0.0010621204 -0.070607245 0.061761264
-0.22401714 0.3000495 -0.2842999 -0.48844263 0.48461223 0.22244854 -0.13065003 -0.34734392
-0.27026644 0.29077145 -0.07312949 0.051372536 0.062479045 -0.464703 0.26510832 -0.3500356
-0.00847167 0.31784448 -0.14073455 -0.23033167 0.45475695 0.17661889 -0.2844856 -0.3836366
0.2280088 -0.3599294 0.111526795 -0.559923 -0.107254915 0.36532706 0.48224828 0.27062654
0.16547224 0.08804529 -0.49518058 -0.14517896 -0.32689843 0.45261213 -0.5669589 0.059979018
-0.46897283 -0.058220122 0.20187968 -0.27924514 -0.038262594 0.19377387 -0.56577265 0.40055424
-0.026001453 0.003925257 0.5121733 -0.5376532 0.52322733 0.5102457 -0.0435331 0.18801947

regime_proj.bias f4 [64]
00000000: 48d4 f93e 6770 8dbe 8d5a 51bd 2ef3 70be
00000010: 38c3 83be 79a9 4fbd 0cce 063f 288a b13e
00000020: 771e 063f 874b d9be 9f3d 063f 786c d63e
00000030: 4cbd 103f a51b a9be 4eb6 b23e ea0c 063f
00000040: 165f 67be be15 80be 5aa8 053f e66a 083f
00000050: dbc5 f2be dd75 aabb 1165 08bf 8de4 263e
00000060: a041 7f3e 5aee 773d b8b4 07bf 2c58 fabe
00000070: 8dec 733e 84bd a43e 1db5 0c3f 34d9 903e
00000080: 2a4c 84be 5abc f23d 0ff2 04bf 8b70 903e
00000090: 1193 9abe b1a9 1d3e e017 f4bd 5324 21bd
000000a0: a9b9 33be 3650 a03e 97bf 56be 4d95 cf3d
000000b0: d3fc 8c3d d8f4 c1be 066e d5be ecd6 01bd
000000c0: 2c65 e03d d9f6 a73e 32b8 053f b38d 2a3e
000000d0: 9b7b 823d 034a 36be 0609 f53e 8c8f 383e
000000e0: 3dab 7abe e416 acbe be65 cc3e 50a7 c93e
000000f0: 24e0 c03e c919 85be 7530 a23e 1134 2dbd
0.4879477 -0.2762482 -0.051111747 -0.23530266 -0.25734878 -0.05069873 0.5265815 0.34675717
0.52390236 -0.42440435 0.52437776 0.4187963 0.56538844 -0.33028904 0.34904712 0.52363455
-0.22594866 -0.25016588 0.5221001 0.53288114 -0.47416577 -0.0052020387 -0.53279215 0.16298123
0.24927378 0.060530044 -0.5301013 -0.48895395 0.23820706 0.3217584 0.54963857 0.28290713
-0.2583936 0.118523315 -0.5193185 0.28210863 -0.30190328 0.15396763 -0.11918616 -0.039341282
-0.17551292 0.31311196 -0.20971523 0.10135899 0.0688416 -0.37882113 -0.41685504 -0.031699106
0.10956797 0.32805517 0.52234185 0.16655616 0.06371232 -0.1780167 0.47858447 0.18023509
-0.24479385 -0.33611214 0.39921373 0.39385462 0.37671006 -0.25996235 0.31677595 -0.042285983

transformer.layers.0.self_attn.in_proj_weight f4 [192, 64]
00000000: 301e b5bb d11c 153e ce8a aa3d faee 16be
00000010: 9f21 d3bd 4423 363a e778 a53d 3400 80bc
00000020: 9e68 903d 4877 0cbe 02b6 b13d 8880 c53d
00000030: a164 00be 64ce e33d 5b05 cc3c dc58 41bd
00000040: 28f5 1c3e ba2f f43d 6a1c a93b dce8 cf3d
00000050: b7dd 3d3d 8f2c bebd 590b 963d c444 893d
00000060: 24ae 063e 7ec5 763d dc94 04bb 45ef cb3d
00000070: baea 84bd 6011 a6bd 8659 5c3d 1137 dabc
00000080: c5fe 3ebc 053c 8ebd efc8 2dbd 6594 263a
00000090: 13a3 1abe d372 09be 1e66 783d f5de 1fbd
000000a0: 1e8c 003e c188 a03d c93e 073d 54a2 923d
000000b0: 7f90 6fbd 1a69 2f3d 37e3 2ebd 39ca a53d
000000c0: 1634 07be 7bcc a33d 0ebb 0c3e eac3 fdbc
000000d0: 39a6 a3bd 6ac3 07be 51ac 40bd 39b1 0ebe
000000e0: 1d7d 42bd 4047 9f3d b335 583d 8516 0a3d
000000f0: dad7 a13c c055 d53c d8e1 b53d b9df 853d
00000100: 15d2 a33d f766 2a3b 41ed 83b9 48b3 d83c
00000110: 5da4 153d c471 8abd 3425 173e 8d6a 6ebd
00000120: e25b 813d 3ac4 d7bd 9f64 d5bc 04b8 0bbe
00000130: f572 fe3d 8575 c6bd 48c5 823d f895 1abe
00000140: a94e f13d 60a2 f83c d6c9 9e3d 0ac0 673d
00000150: e72f 113e b31e 123e a53b edbd 29ce 16bd
00000160: d9c7 11be 0dbb f13d 2389 6a3d 7932 2c3c
00000170: 0a8a 12be 59b2 86bd a611 083e 72d6 2fbd
00000180: b176 45bb 314d ffbd 598a 803d 13b9 9dbd
00000190: ca1a 2b3d b241 bdbd 7c64 223d 580d 69bd
000001a0: 0715 ac3d faab 51bb dad5 ba3d c103 9c3d
000001b0: bf6a bc3d 5ecf 0d3e 97bc a53c 59d4 8a3d
000001c0: e614 1c3e 2d60 823d 07ca a43d 7609 113e
000001d0: 4225 763d 7d2c 163e 2a3d b93d 96bb 07be
000001e0: 9e1a 3f3c 99a0 173e 7288 abbd 6772 80bd
000001f0: f170 ba3d a013 c33c 15c9 98bc 9552 d7bd
00000200: 4f0e c03d cd8f 43bd 8353 c9bc 2801 02be
00000210: 4a8d 09bd f483 883d 60fc 5b3b 2efb 143e
00000220: 7d6e fdbc 17f4 f73d 84b8 e6bd 3ffc 05bd
00000230: a5f5 cf3d 49f0 fe3c cfb2 8ebd 34ca ea3d
00000240: 04c1 453d c380 0bbe 8501 d9bd 045f 93bd
00000250: 2ead 023e 81c5 99bd 1561 14bc 9605 163e
00000260: 3ab9 f3bc 2a21 073e 2fcb 91ba 7f9d 19be
00000270: fef7 d6bd 84aa ed3d cbd1 b43d 12aa 023e
00000280: c906 083e a6f2 6a3d d4c3 29bd b832 063e
00000290: af09 e63d 196b c43d d0a2 adbd 103e 033e
000002a0: 8abd aa3d 2774 183e 3c9b 4b3d 6b57 19be
000002b0: 4758 a1bd 367f bf3c 71c8 103e 19ad 893d
000002c0: 1637 60bd 40c3 3e3c c132 fe3d 9915 1b3d
000002d0: b41f d3bd 1a92 f93d bd72 863d cc10 84bd
000002e0: c44e eb3c 90f0 0c3e 2094 fe3d aeb2 1c3e
000002f0: d96d fc3d 2837 50bd 0352 21bd 67b1 e83d
00000300: 2bce 2bbd 8c9d 0abe 53e1 b7bd 3c5f ae3c
00000310: 1dac b4bd 4bb3 093e be6d 153e 9436 973d
00000320: 393f bb3d 9573 b8bc aac2 06be 8051 d13d
00000330: 3d20 16be 4596 023e c080 4c3d f8a4 ae3c
00000340: 12a2 17be b6fd 6c3d f85a 973d d36b f33c
00000350: 14bf 653c f553 b9bd e68b e3bb 86cb 8c3d
00000360: 9e57 9e3d 7fc8 993d 9c0a 9e3d d0ba 123d
00000370: 83e0 bbbd 0a5a 81bd 694d 54bd dde4 bd3d
00000380: 4c91 4abd 5110 113e d927 e2bd e5e3 6a3d
00000390: f0bd 3ebd 1ea7 d1bd c94c 3bbd a506 d03d
000003a0: 0e0e 89bd 1f0c 04be b0ae c4bd 13cb 16be
000003b0: 751d 0cbe 83c6 a43b 420e b43d abb8 c33d
000003c0: 54b5 703d 2cbf 8bbd 3eee 15be 7b82 b9bc
000003d0: b4f1 6f3d 3540 03be 85a7 b4bb 46ab d93d
000003e0: 47be 1b3e c726 ecbd f92d 123e 7bb7 3abd
000003f0: c9ea f0bd 7075 253d e509 ce3d 3211 813d
-0.0055272803 0.14561774 0.08327256 -0.147396 -0.10309147 0.0006948004 0.08079701 -0.015625097
0.07051204 -0.13717377 0.08677293 0.09643656 -0.12538387 0.1112335 0.024904897 -0.047203884
0.15327895 0.119231656 0.005160858 0.10151836 0.046354022 -0.092858426 0.07326383 0.06702569
0.13152367 0.060246937 -0.0020230329 0.099577464 -0.06490083 -0.08108783 0.053796314 -0.026637586
-0.0116574215 -0.069450416 -0.042427953 0.000635451 -0.1510127 -0.13422708 0.06064426 -0.039030988
0.1255345 0.07838584 0.03301886 0.07159868 -0.05848741 0.042824842 -0.042697158 0.080952115
-0.13203463 0.07997986 0.1374323 -0.030977208 -0.07990689 -0.13258138 -0.047039334 -0.13934793
-0.0474826 0.07777262 0.052785587 0.033712883 0.019756246 0.026041865 0.08880967 0.06536812
0.07999054 0.0026001313 -0.00025163035 0.026452675 0.036533702 -0.0675998 0.14760286 -0.058207083
0.063163534 -0.10535474 -0.026048956 -0.13644415 0.1242427 -0.09690384 0.06385285 -0.15096271
0.11782581 0.030350864 0.07753341 0.056579627 0.1417843 0.14269523 -0.11583642 -0.036817703
-0.14236392 0.11803255 0.05725969 0.0105100805 -0.1431047 -0.06576986 0.13287982 -0.04292912
-0.003013056 -0.12465895 0.06276388 -0.07701316 0.041773595 -0.09241046 0.03964661 -0.05689749
0.08402448 -0.0031993375 0.0912282 0.076179035 0.09200048 0.13848636 0.020231528 0.06778783
0.15242347 0.06366 0.08046346 0.14163765 0.060094126 0.14665408 0.09044869 -0.13255152
0.011664061 0.14807357 -0.08375634 -0.062718205 0.09103573 0.023813069 -0.01865057 -0.10513798
0.09377729 -0.04774456 -0.024575954 -0.12695754 -0.03358201 0.06665793 0.0033567175 0.14548942
-0.030936474 0.12107103 -0.11265662 -0.032711264 0.10154275 0.031120436 -0.06967699 0.114643484
0.048279777 -0.13623337 -0.10595993 -0.07195857 0.12761375 -0.07508374 -0.009056349 0.14650568
-0.029751409 0.13196245 -0.0011123175 -0.15001486 -0.104965195 0.11604789 0.08829077 0.12760189
0.13283838 0.057360314 -0.041446522 0.13105285 0.11232316 0.0959074 -0.0847832 0.12816644
0.08336933 0.14888059 0.04970859 -0.14974754 -0.07878166 0.023376089 0.14138962 0.06722469
-0.054740034 0.011643231 0.12412024 0.037862394 -0.10308781 0.1218607 0.06564853 -0.06448516
0.028724082 0.13763642 0.12430596 0.15302536 0.12325639 -0.05083385 -0.039384853 0.11361962
-0.041944664 -0.13536662 -0.08978524 0.021285646 -0.088218905 0.13447301 0.14592645 0.07383457
0.09142918 -0.022516051 -0.13160196 0.10220623 -0.14660735 0.12752636 0.049927473 0.021318898
-0.14807919 0.057859145 0.07390398 0.0297145 0.014022607 -0.09049217 -0.0069441674 0.068747565
0.077315554 0.07508945 0.07716867 0.03582269 -0.091736816 -0.06316002 -0.051831637 0.09272168
-0.049454972 0.1416638 -0.110427566 0.057346243 -0.046567857 -0.10236953 -0.045727525 0.10157517
-0.06692134 -0.12895249 -0.096036315 -0.14725904 -0.13683112 0.0050285473 0.08791782 0.09556707
0.058766678 -0.068235725 -0.14641663 -0.022645226 0.058580115 -0.12817462 -0.005513134 0.10628371
0.15209304 -0.11530834 0.1427535 -0.045585137 -0.11763532 0.0403952 0.10060481 0.06302108

transformer.layers.0.self_attn.in_proj_bias f4 [192]
00000000: d57b 39ba 9c32 983b 3edb 58ba 884b e2ba
00000010: cac3 9fba 4194 4abb 7970 fcba 5f75 07ba
00000020: 58c8 3bb9 bcdd efba f912 95ba ffc1 233a
00000030: cc45 4739 7f87 1039 3663 8e3a 2b07 b7b8
00000040: fbd6 08b9 1a45 fcba e77b a33a 9cd7 25bb
00000050: af17 513a 0d2d af3a 0b01 c939 6ee5 db3a
00000060: f994 4d3b ba1f d239 c42b 133b f1bf 8cba
00000070: 53bd e5ba 4cd0 073b ddbf 583a d8b5 dcba
00000080: 2510 633a b064 8dba 0ec6 a03a d727 be37
00000090: 7c32 b8ba 736a 263b 2709 613a 1372 02bb
000000a0: c456 fbba aa20 34bb e277 52ba 86ff 69ba
000000b0: db6b e1ba a57d d539 86c0 cfba 3456 2a3a
000000c0: 9911 6b3a 80a2 f5ba efb4 c8ba 98c8 003b
000000d0: d937 0fba 992a 83ba 8d28 ea3a 284c da3a
000000e0: 82af 3cba 9df9 d53a e73a cbba 1e5a a636
000000f0: bf02 133b cb57 d4ba 5541 253b c86c e8ba
00000100: f574 c836 8267 42b4 8e74 85b6 8c02 7636
00000110: bf54 82b6 66ec 23b7 d6e1 1236 2f24 4ab6
00000120: f9a9 1db7 ebcd c136 d828 b0b5 1604 49b6
00000130: 88b2 cfb6 e423 04b7 5284 5536 8488 8635
00000140: e05d 62b7 1876 0737 a8fb 37b7 72ac 5cb7
00000150: 1baa cfb6 371e f3b6 4086 9a36 56c5 18b7
00000160: 570b 2535 0993 3735 0f51 cc36 dab3 e236
00000170: f2a6 7237 70f3 12b7 4567 8bb6 2cb1 24b7
00000180: 3fa9 94b6 1159 2837 07e6 d436 8b0e 6c37
00000190: 7763 20b6 b899 0f36 b1ea 1a37 cf11 2e38
000001a0: 04c4 ce37 3a70 1036 dc9a 8cb7 e05e 1536
000001b0: 4328 1b37 0124 8cb6 67f6 eb36 1bc6 a2b6
000001c0: cb50 f135 55a7 2cb6 cbb2 10b7 97e9 de35
000001d0: 2271 c7b6 8b5a 6bb5 5b96 6db6 61a1 27b5
000001e0: 6ee0 1434 26b6 3c36 0c9c 0936 7142 29b5
000001f0: 6651 1cb6 dc09 b235 384f d936 12b0 32b6
00000200: 5c5d cdba e118 c3ba ba39 143b 9ba6 003b
00000210: da68 caba 4306 a7ba c993 b0ba 4bf6 7b3a
00000220: 6d23 6aba 4b43 89ba 984e aeba 788f f93a
00000230: bcfd 7cba 472f 47bb 0ca4 1d3b dd52 bf3a
00000240: a90b cbba 9c5f a23a 7daf 853a f35c bd3a
00000250: 7f2d fd3a 9c51 9e3a f68b acba 1c72 deba
00000260: 311e 4f3a adc1 1fba 86df 923a 982d a83a
00000270: 2cb2 0abb 5c46 e3b9 1131 e5ba d22c a9ba
00000280: cd27 da3a 4af3 62ba eed7 ce3a c11c acba
00000290: 451b 25bb 5032 51ba 344d 693b 16f2 1dbb
000002a0: 3235 dab9 6421 eaba 21a2 9fba 05c5 dbba
000002b0: 2de5 0f3a 4256 bfb9 fa43 da3a abfe c13a
000002c0: fb14 57ba 4348 b8ba 4afc bfb9 ae99 a23a
000002d0: 6b6b b43a fe76 a33a 51f4 ebba 3494 dc3a
000002e0: b954 beba a4e0 8cba c98e 7aba 13ad 9aba
000002f0: 8905 723a 1311 abba b544 c43a cb0a bfb9
-0.00070756424 0.004644705 -0.0008272416 -0.0017264942 -0.0012189087 -0.003091112 -0.0019259594 -0.0005167331
-0.00017908344 -0.0018300335 -0.0011373452 0.0006246864 0.0001900412 0.00013783386 0.0010863307 -8.727455e-05
-0.00013050057 -0.0019246668 0.0012472839 -0.0025305515 0.00079762464 0.0013364867 0.00038338485 0.0016776749
0.0031369312 0.0004007796 0.0022456506 -0.0010738355 -0.0017527736 0.002072352 0.0008268336 -0.0016838862
0.00086617685 -0.0010787454 0.0012266056 2.2668317e-05 -0.0014053131 0.0025393039 0.00085844327 -0.001990442
-0.0019175638 -0.002748529 -0.0008028728 -0.00089263206 -0.0017198281 0.00040720138 -0.0015850223 0.00064978306
0.0008967161 -0.0018740445 -0.0015312711 0.0019650813 -0.0005463339 -0.0010007202 0.0017864868 0.0016654776
-0.00071977836 0.0016325001 -0.0015505225 4.9576765e-06 0.0022432057 -0.0016200481 0.0025215943 -0.0017732615
5.97408e-06 -1.8105314e-07 -3.9772776e-06 3.665834e-06 -3.8841677e-06 -9.770598e-06 2.188715e-06 -3.0121407e-06
-9.397504e-06 5.7758202e-06 -1.3124909e-06 -2.9953712e-06 -6.1898645e-06 -7.87617e-06 3.1816494e-06 1.0023509e-06
-1.3492507e-05 8.074123e-06 -1.0966243e-05 -1.3153172e-05 -6.1888836e-06 -7.245482e-06 4.6051864e-06 -9.105852e-06
6.148379e-07 6.8386777e-07 6.0891102e-06 6.7562623e-06 1.4463194e-05 -8.758958e-06 -4.154545e-06 -9.816413e-06
-4.4304466e-06 1.0034318e-05 6.344871e-06 1.4070082e-05 -2.3899754e-06 2.1398137e-06 9.233759e-06 4.150142e-05
2.464839e-05 2.1522997e-06 -1.6761413e-05 2.2257955e-06 9.248094e-06 -4.1765165e-06 7.0322308e-06 -4.8510387e-06
1.7979413e-06 -2.5727397e-06 -8.624697e-06 1.6608273e-06 -5.9438325e-06 -8.767608e-07 -3.540327e-06 -6.2447185e-07
1.3865221e-07 2.8120207e-06 2.0505422e-06 -6.305409e-07 -2.3293192e-06 1.3264903e-06 6.4763262e-06 -2.6626553e-06
-0.0015668082 -0.0014884734 0.0022617416 0.0019630555 -0.0015442625 -0.0012742955 -0.0013471778 0.00096115906
-0.00089316705 -0.0010472325 -0.0013298569 0.0019039949 -0.00096508465 -0.003039317 0.0024054078 0.0014596839
-0.0015491146 0.0012388113 0.0010199394 0.0014447257 0.0019315927 0.0012078765 -0.001316427 -0.0016971263
0.0007900922 -0.00060942286 0.0011205531 0.0012830971 -0.0021163328 -0.00043349236 -0.0017485936 -0.0012907034
0.0016643942 -0.0008657469 0.0015780905 -0.0013131128 -0.0025193256 -0.00079802144 0.0035598995 -0.0024100593
-0.00041619834 -0.0017862734 -0.0012179055 -0.001676709 0.0005489167 -0.00036494626 0.0016652339 0.0014800628
-0.00082047255 -0.0014059622 -0.0003661833 0.0012405419 0.0013764923 0.0012471376 -0.0018001889 0.0016828836
-0.0014521099 -0.00107481 -0.000955802 -0.0011800848 0.0009232392 -0.0013051353 0.001497409 -0.000364384

transformer.layers.0.self_attn.out_proj.weight f4 [64, 64]
00000000: 8e2e 3fbd 8813 fbbb 3520 953d 78e4 163d
00000010: fc19 0b3d 9173 fdbd 30f8 763d 9038 e5bd
00000020: 4cb9 d83d 9da9 a13d 969a 263d 9e50 c13c
00000030: a7fc c2bc 05d1 ca3d f50e 7a3d 53d7 da3d
00000040: cabe c23d 8634 013d 9c80 82bd bc3a 98bd
00000050: 9107 393c 5416 b9bd ff7c 4c3a 5f04 8b3d
00000060: 6af7 7a3b 7ccd a63d 57a4 a9bd c1a3 d13b
00000070: 60a3 e83d 88ff 2d3d 8049 863d 79ba b93d
00000080: bc7a a0b7 ed8c 183d af6e 2d3d 413d 13bd
00000090: beba b43d 32e5 62bd 189d 85bc b203 fa3c
000000a0: 9daa 723d 3bc0 e4bd 8ec6 cbbd 3272 903c
000000b0: 6aeb cd3d 623f 0ebb 3602 7a3d 69fe 69bd
000000c0: 6e7a f8bb 3472 b5bd aa7c 04bc 1dbb a6bd
000000d0: a9c5 e53d 6b3d ddbc 26d4 113d ea49 a2bd
000000e0: d500 c5bd 1e50 00bd 740b 63bd 4898 c7bd
000000f0: 6e60 c6bd 5c88 debd 67c9 61bd af15 fabd
00000100: 5070 0a3c 0958 d0bd 3203 efbd dd20 173d
00000110: aca9 9b3d a8aa 65bd baf0 6e3d 56a2 18bb
00000120: a60a 91bc 9261 cd3d d7cc a4bc 7b54 19bd
00000130: 4287 c5bc 22bc e53d 805d aabd bcda 1ebc
00000140: b241 76bd 4fb9 35bc 52f1 02bd f315 833c
00000150: 1950 a83d e8c4 fdbd dbeb b2bc 6f36 c2bd
00000160: b138 32bd b4a4 afbd 065c 853c 42f0 163d
00000170: a99d d63c cd2e b93d 0daf 01bc 0e94 fa3d
00000180: eef0 cabd 06aa 8f3d ceb3 183d fb75 d43d
00000190: 1374 373c d3bb 163d 1279 6abd d0e9 c4bd
000001a0: af50 59bd 67b3 343d a550 503d 2b7d 083d
000001b0: a572 f43c 9545 b03b bb75 e93d affb 67bb
000001c0: fa72 adbd a225 7abc 3b5a c1bc f4e5 97bd
000001d0: 8576 e4bd 4074 dfbc 00ef e53c f058 7b3d
000001e0: 0b07 d43d 53c8 27bc e304 2f3c 32c9 e73d
000001f0: 58c9 dbbc 5e94 7a3b 0a0b 09bc 614d e5bb
00000200: 795f 6abd e0a7 e5bd dc79 dfbd a67f 96bd
00000210: f7ec 3fbc 60fb 2abd 011a d13d e729 efbd
00000220: c7a6 133d 075c 94bb 97e6 91bd 9089 b63d
00000230: 3d43 ec3d 3175 92bc 6585 163c 1cac efbd
00000240: 1eaa 67bd 6387 bcbd 33b4 cdbc 4ba7 b9bd
00000250: 4592 11bd 770b ff3d a2dd 20bd be4c 32bd
00000260: f81d e5bd 622d 583d 5a61 053d 80e7 b5bc
00000270: c626 b4bd 9bb1 623b 63fc edbd 7008 4f3d
00000280: 6d79 623c 7c33 713d 62c0 f3bd 1ce5 de3d
00000290: 0eeb 683d 0101 84bc d4fa e33d 4c25 e2bd
000002a0: 4943 08bc 47e3 b5bd d82c a43d 04cf dd3d
000002b0: 2929 d53d 9821 b73c e3e5 a93c 168e 973d
000002c0: b714 98bd 5a28 313d 79d5 d63b 2db9 f93c
000002d0: d999 f9bd cfb8 d93d a176 473d 8d28 fd3d
000002e0: 7d0a 8c3d bc78 03bc affc 3bbd 7ca4 833b
000002f0: b143 f2bd 07b8 1039 1ee5 fbbd db5f 9c3d
00000300: c4ea dbbd 943f 813a 2952 babc 8525 b0bc
00000310: 4631 663d d72b a43d e0fd 49bd 0163 be3d
00000320: 9f9b 063d 05a1 d03d 43b3 82bd 806a ea3c
00000330: bc94 6b3d fa67 9f3d 546b bcbd 3053 1fbd
00000340: d9c3 08bd 2990 58bc 9fcd f6bc 89d5 c73d
00000350: a8c7 8b3d bd05 5abd 5ddf a03d 0fbf 5cbd
00000360: 1d7c f0bd ce66 b5bd 4dfc 953d eb83 7f3d
00000370: a162 d73c d52f f6bd 0c94 cdbd 3fcb bb3d
00000380: a199 463d b9b4 bcbd 0ae8 ec3d 7e2f 6fbd
00000390: 1b9f 3dbd bcae ac3d 7c5f fcbd bb86 503d
000003a0: 3f23 2a3d 0fb5 5c3d fe7d 803c b66a e6bd
000003b0: ac8b bc3d 0da6 d1bd ba35 ce3d b79c d9bd
000003c0: f0f5 e43c f58b 82bd cbde f83d ee0f 5e3d
000003d0: 941a 18bc b40f 2eba 15dd 5bbc 2ece f83d
000003e0: 5fff f1bd ae76 acbd 85b5 b73d 8762 ff3d
000003f0: 197f 6e3d f104 163b eaae 993c 5ee9 113d
-0.046675257 -0.0076622404 0.07281534 0.03683898 0.033960328 -0.12375558 0.060295284 -0.11192429
0.105822176 0.07893679 0.04067477 0.023598012 -0.023802115 0.099031486 0.06104942 0.10685601
0.095090464 0.03154423 -0.063721865 -0.07433078 0.011293308 -0.09037462 0.00078006083 0.06787943
0.0038294443 0.08144662 -0.082832985 0.006397695 0.11359286 0.04248002 0.06556988 0.0906877
-1.9130639e-05 0.037243772 0.042341884 -0.03594709 0.08824681 -0.05539436 -0.01631026 0.03051934
0.05924474 -0.111694776 -0.09949981 0.017632578 0.10054667 -0.002170526 0.061037265 -0.05712739
-0.007582954 -0.08859673 -0.008086363 -0.08141158 0.11219341 -0.027006825 0.03560271 -0.07924254
-0.09619299 -0.031326406 -0.055430844 -0.09745842 -0.09686361 -0.10865852 -0.055123713 -0.12211167
0.008449629 -0.101730414 -0.11670531 0.036896575 0.07600722 -0.056070954 0.058335043 -0.002329012
-0.017705273 0.10028376 -0.020117206 -0.037434082 -0.024112348 0.11217524 -0.08318615 -0.009695705
-0.060121246 -0.011091544 -0.031968422 0.016001677 0.082184024 -0.123910725 -0.02184098 -0.09483039
-0.043511096 -0.085763365 0.016279232 0.03685022 0.026198225 0.0904213 -0.0079152705 0.122352704
-0.09909235 0.07014851 0.03728085 0.103740655 0.011197108 0.036800217 -0.057244368 -0.09614909
-0.05305546 0.044116404 0.05085816 0.033322494 0.029839823 0.0053793886 0.113994084 -0.0035397818
-0.08469196 -0.015267761 -0.023602596 -0.07416907 -0.11155418 -0.027277112 0.028068066 0.061364114
0.10352906 -0.010240632 0.010682317 0.11317672 -0.026829407 0.0038235406 -0.008364448 -0.0069977497
-0.057219956 -0.1121366 -0.10911915 -0.07348566 -0.011714212 -0.041743636 0.10210038 -0.11677914
0.036047723 -0.004527572 -0.0712406 0.08912957 0.11536262 -0.017878147 0.009187077 -0.11702749
-0.05655872 -0.092055105 -0.02511034 -0.09065112 -0.035539884 0.124533586 -0.039273866 -0.04353022
-0.11187357 0.052777655 0.032563545 -0.022205114 -0.08796458 0.0034590724 -0.116204046 0.050545156
0.0138228955 0.05888699 -0.119019285 0.10883543 0.05686479 -0.01611376 0.11131826 -0.1104227
-0.008316823 -0.0888124 0.08016366 0.10830501 0.10408241 0.022354886 0.020739501 0.074001476
-0.07425826 0.043251373 0.0065562096 0.030483807 -0.12187547 0.106309526 0.048697118 0.1236125
0.06837938 -0.008024391 -0.045895275 0.004017411 -0.11829317 0.00013801466 -0.1229956 0.076354705
-0.10738137 0.0009860867 -0.022744255 -0.021502266 0.056199335 0.08016174 -0.04931438 0.09296227
0.032863256 0.10186962 -0.06381848 0.028615236 0.05751489 0.07783504 -0.09200159 -0.038897693
-0.0333899 -0.013217964 -0.030127345 0.097575255 0.06825191 -0.05322813 0.07855103 -0.053893145
-0.11742423 -0.08857499 0.07323513 0.062381666 0.026292147 -0.12020842 -0.10038003 0.091696255
0.048486356 -0.092141576 0.115676954 -0.0583949 -0.046294313 0.084317654 -0.123229 0.05090974
0.04153752 0.05388361 0.015685078 -0.11250822 0.09206328 -0.1023675 0.10068841 -0.10625594
0.027949303 -0.06374351 0.121518694 0.05421441 -0.0092836805 -0.0006639913 -0.013419409 0.12148701
-0.11816286 -0.08421074 0.08970169 0.124699645 0.05822668 0.002289113 0.018760163 0.035622947
