results/model/model_21.pth (torch, 440417 bytes, 36 tensors)

cls_token f4 [1, 1, 64]
1.5659839 -0.11984821 0.017688818 -0.9695686 1.2463979 -1.513032 -0.5867957 -0.67207474
0.00038659814 -1.478016 1.1958412 0.94889665 0.21582483 1.0484713 -0.41231942 2.0114992
-0.10981876 0.26811922 -0.03851352 0.17602012 0.51705164 1.5810307 1.0708102 1.1247936
0.4128092 0.3091038 0.020829529 -0.6046766 0.34841532 0.5825181 0.84056073 -0.72553015
0.41320282 1.7878944 1.0675808 0.3154419 -0.37133443 1.6129459 0.8527463 2.3172562
0.71307945 -0.17550366 1.1848105 -0.7096358 -0.08685986 1.067027 -0.3886881 0.06314756
0.8209595 -2.3404517 1.3645744 0.9694708 0.34987274 1.1964247 -1.2282476 -0.43651655
-0.8259716 -0.24453077 -0.10831707 -1.4748074 0.5136338 -0.020241344 0.16495949 -0.19332595
00000000: 2972 c83f fa72 f5bd 24e8 903c a635 78bf
00000010: f789 9f3f 08ab c1bf 3e38 16bf 170d 2cbf
00000020: 53b0 ca39 a12f bdbf 5311 993f e4ea 723f
00000030: 2f01 5d3e 4f34 863f 881b d3be 67bc 0040
00000040: a8e8 e0bd ec46 893e 5ac0 1dbd 9e3e 343e
00000050: 7f5d 043f 375f ca3f 4f10 893f 3df9 8f3f
00000060: ba5b d33e da42 9e3e b0a2 aa3c 16cc 1abf
00000070: 7e63 b23e e81f 153f fd2e 573f 58bc 39bf
00000080: 528f d33e b9d9 e43f 7da6 883f 9a81 a13e
00000090: 8c1f bebe 0375 ce3f 954d 5a3f ed4d 1440
000000a0: 608c 363f 3bb7 33be dfa7 973f b1aa 35bf
000000b0: 95e3 b1bd 5794 883f 2002 c7be 8253 813d
000000c0: 672a 523f f6c9 15c0 60aa ae3f 3d2f 783f
000000d0: 8522 b33e 7224 993f 3837 9dbf 197f dfbe
000000e0: e072 53bf 4666 7abe 57d5 ddbd 7dc6 bcbf
000000f0: 817d 033f 2dd1 a5bc 24eb 283e 3df7 45be

input_proj.weight f4 [64, 28]
0.0723954 -0.18514279 -0.12524095 -0.022459434 0.18023649 -0.15180403 -0.061779067 -0.1749195
0.18400487 -0.06654282 -0.12856904 -0.116427556 -0.1785193 -0.052016646 0.10885719 -0.05494716
0.15590723 0.12998609 0.11931557 0.09684003 -0.07452142 -0.086672656 0.16424926 0.14954789
0.12726921 -0.07887472 0.0787082 0.17197932 0.11486435 0.036706675 0.06007908 0.026343374
0.10634931 -0.16548243 0.047753986 -0.09836722 -0.09641376 -0.072522044 -0.12437033 0.11424152
-0.112233475 -0.037953224 -0.17434211 -0.107581526 -0.082127586 0.122684345 0.18767962 -0.115422696
-0.09004716 -0.118867435 -0.039516013 -0.12298266 0.14765997 0.01725415 -0.015729731 -0.054649845
-0.0685606 -0.1482045 -0.112961866 -0.05552833 0.043628626 -0.1525309 0.005633021 -0.11986485
0.036466345 -0.081963375 -0.08154231 -0.15951885 -0.04455601 -0.1456026 -0.16281508 0.09622733
0.1645652 -0.014096136 0.16455764 0.17411302 -0.086953 0.14344218 0.10155509 0.18221875
-0.18462612 -0.18766984 -0.17236085 -0.06580512 -0.015217417 -0.17563331 0.10230074 -0.15544268
-0.11224879 -0.008772444 -0.16955318 0.17790864 -0.18754055 -0.18388802 -0.15292543 0.13993132
0.18867886 -0.10591825 -0.14130422 -0.17723924 -0.020582166 -0.058495156 0.11544027 -0.11349739
0.02524656 0.15764898 -0.05479842 0.082882136 -0.083194405 -0.14410321 -0.1736891 -0.0076574334
-0.1690209 0.054516815 0.005873584 -0.04324997 0.11384249 0.113385096 0.10770833 0.15499961
0.17490421 0.13896435 0.13142234 -0.040081304 -0.15469356 -0.1116188 -0.019179711 0.02717931
-0.078566425 -0.11049691 0.039058037 0.09069657 -0.16871448 0.123623975 -0.12189079 -0.17592464
-0.13088758 0.038945384 0.14423852 0.14133993 0.0807069 -0.07623024 0.0708097 -0.017755065
0.14967184 -0.1658747 0.06400031 -0.08161342 -0.06282645 0.006769342 0.143804 -0.11605187
-0.17603196 0.13668257 -0.18107376 0.040434662 0.18659261 -0.078363776 0.17452095 0.001983762
0.08524941 0.100373365 0.064065434 0.13079818 -0.14348395 -0.00061135006 -0.042903904 -0.121968105
0.017360553 0.17160578 -0.15221566 0.1323462 -0.17369637 0.16645336 0.12093824 -0.16233902
0.1794212 0.1565679 0.08607448 -0.11740289 -0.14135343 -0.0345299 -0.041436758 -0.052157983
0.14881018 -0.18845771 0.1799842 0.007539277 0.14450684 0.07460806 0.0633489 0.01795736
0.041184623 0.009659899 0.06574361 0.16047397 0.14428829 0.081414856 -0.07773638 -0.13614656
0.14522596 -0.16332258 -0.1796649 -0.02390008 0.18288298 0.06872901 -0.09212224 0.09151012
0.057964604 0.10014062 -0.037390053 0.06499678 -0.11414898 0.12883803 0.07695085 -0.18351509
-0.16053581 0.1064504 -0.13542664 0.16953288 -0.09439798 -0.07372809 0.014033787 -0.15259334
-0.061635192 0.008421044 -0.08657689 0.11385145 -0.1271086 0.13862047 -0.043734033 0.053140964
0.11146636 -0.18735181 -0.15820456 -0.17537712 0.17128329 -0.12747517 -0.1143934 0.1403519
0.12522171 0.03370244 -0.08893946 -0.008577346 0.16270077 -0.14083548 0.0921837 -0.008483682
0.06866488 0.021065287 -0.12402037 -0.12930405 -0.1627486 -0.17217454 0.1597405 -0.056392435
00000000: 0a44 943d 1296 3dbe 2a3f 00be d9fc b7bc
00000010: ea8f 383e 8472 1bbe 0c0c 7dbd 191e 33be
00000020: c66b 3c3e 9a47 88bd 9aa7 03be 9271 eebd
00000030: c3cd 36be 680f 55bd 85f0 de3d 4610 61bd
00000040: 25a6 1f3e 131b 053e b95b f43d 1154 c63d
00000050: b09e 98bd 6f81 b1bd f530 283e 1523 193e
00000060: dc52 023e 1289 a1bd c431 a13d 591b 303e
00000070: 003e eb3d bd59 163d 7b15 763d 0fce d73c
00000080: abcd d93d 3a74 29be af99 433d c174 c9bd
00000090: 9474 c5bd 7086 94bd dfb5 febd 75f7 e93d
000000a0: aada e5bd d774 1bbd bd86 32be b453 dcbd
000000b0: 8232 a8bd ee41 fb3d 162f 403e bc62 ecbd
000000c0: a56a b8bd c570 f3bd 8bdb 21bd 55de fbbd
000000d0: 2d34 173e 9358 8d3c a3db 80bc 84d8 5fbd
000000e0: 8069 8cbd ecc2 17be 8d58 e7bd ad71 63bd
000000f0: eeb3 323d 0f31 1cbe 3495 b83b b47b f5bd
00000100: bc5d 153d 6adc a7bd a8ff a6bd e958 23be
00000110: 5d80 36bd d918 15be ffb8 26be d612 c53d
00000120: c883 283e 7bf3 66bc cc81 283e af4a 323e
00000130: 6a14 b2bd 82e2 123e 1dfc cf3d 8d97 3a3e
00000140: a10e 3dbe 862c 40be 5d7f 30be d6c4 86bd
00000150: 7952 79bc 38d9 33be 0d83 d13d 5e2c 1fbe
00000160: b2e2 e5bd 4cba 0fbc 599f 2dbe af2d 363e
00000170: a10a 40be 244d 3cbe 7c98 1cbe 284a 0f3e
00000180: 0835 413e abeb d8bd 0eb2 10be 347e 35be
00000190: ee9b a8bc 9e98 6fbd f36b ec3d 5271 e8bd
000001a0: e0d1 ce3c bc6e 213e 4f74 60bd 1cbe a93d
000001b0: d461 aabd cb8f 13be 8edb 31be 35eb fabb
000001c0: d113 2dbe 064d 5f3d 3277 c03b e126 31bd
000001d0: 4026 e93d 7236 e83d 2f96 dc3d 38b8 1e3e
000001e0: 171a 333e ac4c 0e3e 9493 063e 4b2c 24bd
000001f0: fd67 1ebe 6698 e4bd c51e 9dbc 25a7 de3c
00000200: 6fe7 a0bd 344c e2bd 52fb 1f3d 20bf b93d
00000210: 7dc3 2cbe 912e fd3d e1a1 f9bd 9725 34be
00000220: 6507 06be 3285 1f3d 43b3 133e 6abb 103e
00000230: a949 a53d 9a1e 9cbd ad04 913d 1273 91bc
00000240: 9343 193e 0fdb 29be 9812 833d f024 a7bd
00000250: 27ab 80bd 5bd1 dd3b 5b41 133e 9aac edbd
00000260: b941 34be 84f6 0b3e 666b 39be d19e 253d
00000270: 2212 3f3e 307d a0bd 9fb5 323e 0102 023b
00000280: 3e97 ae3d 8d90 cd3d bd34 833d f5ef 053e
00000290: 75ed 12be 0243 20ba 01bc 2fbd 6aca f9bd
000002a0: b837 8e3c 6db9 2f3e 6cde 1bbe c385 073e
000002b0: 76dd 31be c072 2a3e 78ae f73d 333c 26be
000002c0: 31ba 373e 5653 203e d147 b03d ed70 f0bd
000002d0: f4be 10be 396f 0dbd 97b9 29bd 9ca3 55bd
000002e0: b261 183e 0ffb 40be c74d 383e 0a0c f73b
000002f0: 9af9 133e 1ccc 983d 11bd 813d 501b 933c
00000300: 35b1 283d 8e44 1e3c 96a4 863d 4a53 243e
00000310: 4fc0 133e d5bc a63d 4034 9fbd 016a 0bbe
00000320: 1db6 143e 093e 27be 13fa 37be 1aca c3bc
00000330: ad45 3b3e ccc1 8c3d 96aa bcbd a869 bb3d
00000340: 4b6c 6d3d 8616 cd3d 5026 19bd 081d 853d
00000350: f1c6 e9bd 1eee 033e 6898 9d3d 61eb 3bbe
00000360: 8063 24be ab02 da3d 48ad 0abe 079a 2d3e
00000370: ba53 c1bd c1fe 96bd f8ed 653c 6e41 1cbe
00000380: 2f75 7cbd 6bf8 093c 394f b1bd f32a e93d
00000390: c228 02be 86f2 0d3e 7522 33bd 57aa 593d
000003a0: 7a48 e43d 27d9 3fbe 6000 22be 0f96 33be
000003b0: e364 2f3e da88 02be 1647 eabd 69b8 0f3e
000003c0: 1f3a 003e 920b 0a3d e425 b6bd ff87 0cbc
000003d0: 089b 263e 2d37 10be cfca bc3d 24ff 0abc
000003e0: 2ca0 8c3d 1c91 ac3c 64fe fdbd 4868 04be
000003f0: 92a7 26be 864e 30be 0393 233e c1fb 66bd

input_proj.bias f4 [64]
-0.12014635 0.12289097 0.03688781 -0.10440303 0.14388554 0.13134599 0.055545066 -0.16323355
0.024116946 -0.11317547 -0.00083430496 -0.06411802 -0.061636828 0.090119906 -0.1610921 -0.018180467
0.16340986 0.16474262 -0.13071936 0.13649067 0.10088684 0.14030519 0.032000754 0.031842746
-0.016040357 -0.064713195 0.022951834 -0.15385386 0.09138426 0.15678272 -0.104285054 -0.10711884
0.11371229 -0.12036269 -0.15417232 -0.023302956 0.06902674 0.07760429 0.09420605 -0.16388717
-0.10736409 -0.04812249 -0.18365312 -0.14594059 0.09214058 0.013991273 0.1352918 -0.17900187
-0.030386847 0.070557505 0.12946032 0.1864366 -0.1798576 0.015528256 0.10639293 0.053664345
0.18111429 0.13499598 -0.1488056 -0.10690082 -0.037321527 0.11518711 0.02973311 0.11863511
00000000: 4a0f f6bd 43ae fb3d ac17 173d 41d1 d5bd
00000010: bb56 133e 907f 063e 3983 633d b226 27be
00000020: e790 c53c 8ac8 e7bd 42b5 5aba 4f50 83bd
00000030: e676 7cbd c990 b83d 54f5 24be 34ef 94bc
00000040: ea54 273e 4ab2 283e 4cdb 05be 36c4 0b3e
00000050: c29d ce3d 2aac 0f3e 3913 033d 8a6d 023d
00000060: 1167 83bc 5a88 84bd 7c05 bc3c de8b 1dbe
00000070: ac27 bb3d a68b 203e 6793 d5bd 1f61 dbbd
00000080: fde1 e83d b780 f6bd 59df 1dbe d7e5 bebc
00000090: e45d 8d3d ffee 9e3d 1aef c03d 0ad2 27be
000000a0: b4e1 dbbd 171c 45bd 900f 3cbe 7371 15be
000000b0: 33b4 bc3d a73b 653c ef89 0a3e 444c 37be
000000c0: d6ed f8bc 7480 903d 3f91 043e 3ce9 3e3e
000000d0: 972c 38be 3a6a 7e3c 89e4 d93d 25cf 5b3d
000000e0: 0676 393e 633c 0a3e 7f60 18be d1ee dabd
000000f0: 75de 18bd 38e7 eb3d da92 f33c f7f6 f23d

stock_emb.weight f4 [5, 64]
0.08542412 0.53345025 0.7444246 -0.11276854 -2.046682 -0.90453404 -0.39233315 -1.1671345
0.48057994 1.7885927 1.7557838 -0.91492647 -0.6609091 -0.42646044 1.8201612 0.1266444
1.1275948 -1.2853589 0.9353089 -2.113246 -0.3235025 0.25324282 -0.5689098 -0.38255462
1.2544436 -1.3972495 2.1899636 -0.9780626 0.6939647 -0.32757363 -0.83328784 -1.0757664
-1.036105 -0.19294095 -0.041666005 -0.2606613 1.4671953 0.21523416 0.33734006 -0.4578229
0.52211756 1.0314363 1.4001101 -1.3156633 0.9344991 -0.36420178 -0.8191279 0.3430745
0.6601639 -0.7438207 -0.31473565 -1.1977859 0.49447587 0.55745924 -0.8339333 -0.15836152
-0.8085229 -0.77645886 -0.92799777 -2.1647942 1.3059047 -0.22127338 0.90477 -0.57801324
0.5182965 0.094604984 -0.9301541 -0.8797125 1.6849605 0.5631028 -0.65242225 1.1957611
-1.3387575 0.45820168 0.15670925 -0.67623335 1.3218648 0.5655326 -0.6002682 -1.0553074
-0.8196989 0.9082729 0.43625084 -0.083961785 -0.65812075 -2.5327635 -0.38349673 0.14771532
1.0534834 0.43406424 0.07225479 -0.566049 2.007214 -1.1308011 -1.0367342 -1.8685923
0.93550533 -0.3517969 -0.7961319 0.8658334 -0.2761658 -0.40927917 0.73313 1.8757966
0.49989775 -0.34934413 -0.4726781 1.0628356 -1.1273842 1.8990961 0.15429889 -0.6275552
-1.6235557 -1.5295388 -0.05247329 -0.2458952 -0.510414 -1.666733 -0.20191872 1.8059205
-0.6029601 0.18968995 -1.4460055 1.3857621 -0.9992471 0.08013214 -0.67185986 0.26369357
2.6463997 -0.5885616 0.12889037 -1.5458058 -1.6426167 0.8081873 -0.12652944 -0.3460848
-0.47534227 -0.08881869 -0.9532641 -1.386376 0.85175896 0.3641229 0.30439106 -1.5208606
1.506353 -0.9501733 0.0466719 -0.55734944 1.5181926 0.5130008 -1.5506667 -0.6760004
1.6450809 -0.030230906 -1.1975714 -0.6905339 -0.64032704 0.09999661 1.3980212 -1.293504
0.71741784 -0.12728299 -0.56878453 0.012935741 -0.2776634 -1.6274036 0.8785714 2.7249055
1.074699 0.9974843 0.1762821 0.5903758 -2.0615873 0.039302766 0.32466695 0.8032906
0.1912302 -0.9936638 0.26849836 1.2431426 -1.9011434 -0.93481475 0.19197349 -0.96172595
0.130261 -0.3621315 0.9481055 -0.098614536 1.364416 -1.0791335 0.53321767 0.20067716
-0.77123255 -0.26984745 0.62412137 -0.40536377 -0.24945363 -1.901188 -1.2936643 0.64208776
1.9013741 0.4798506 -0.4710773 -0.38118953 1.3712491 2.9930613 0.45969945 -0.020312632
-0.2518814 -0.5138566 -0.86962503 -0.0826304 1.2196093 1.259958 -0.01700519 -0.53330964
-2.1699214 -0.18980388 0.90420806 -1.508412 -0.32033855 -0.730846 0.20530887 -0.6119424
1.3533117 0.036473274 0.96572787 0.521801 0.14534813 0.74395776 -0.94081825 -0.8626538
0.7877995 -0.105668046 -0.19323811 -1.4992034 0.6451099 -0.3936165 0.44345197 0.10614111
-0.21850434 0.6688961 -0.5487112 -0.969173 0.538104 2.5005429 0.45674232 -0.006766609
0.13766564 0.4704724 0.12626116 0.9938285 0.7586367 0.571426 0.66518426 -1.0671875
00000000: d7f2 ae3d 3290 083f 9c92 3e3f 31f3 e6bd
00000010: d6fc 02c0 8b8f 67bf e4df c8be aa64 95bf
00000020: 930e f63e 9bf0 e43f 86bd e03f 9f38 6abf
00000030: 5731 29bf 0659 dabe 0bfb e83f 12af 013e
00000040: 0755 903f a486 a4bf 6770 6f3f 6c3f 07c0
00000050: 1fa2 a5be 0ba9 813e 13a4 11bf 33de c3be
00000060: 9c91 a03f 12d9 b2bf 5d28 0c40 5062 7abf
00000070: aca7 313f bbb7 a7be 5a52 55bf b7b2 89bf
00000080: 179f 84bf 5092 45be f9a9 2abd 6675 85be
00000090: 0ecd bb3f 5866 5c3e d6b7 ac3e c367 eabe
000000a0: 7fa9 053f 1b06 843f cf36 b33f a867 a8bf
000000b0: 553b 6f3f a878 babe 5eb2 51bf 76a7 af3e
000000c0: 8000 293f 096b 3ebf 0825 a1be 0c51 99bf
000000d0: f12b fd3e a6b5 0e3f a77c 55bf 8629 22be
000000e0: 5bfb 4ebf 02c6 46bf 4391 6dbf fd8b 0ac0
000000f0: e327 a73f 7d95 62be 029f 673f adf8 13bf
00000100: 14af 043f 42c0 c13d 941e 6ebf d734 61bf
00000110: c9ac d73f 8127 103f 2505 27bf b30e 993f
00000120: 685c abbf 6999 ea3e 6478 203e a11d 2dbf
00000130: de32 a93f bfc6 103f 2dab 19bf 5014 87bf
00000140: cad7 51bf 9384 683f 455c df3e 28f4 abbd
00000150: 9a7a 28bf cc18 22c0 af59 c4be af42 173e
00000160: 8bd8 863f ab3d de3e 52fa 933d 96e8 10bf
00000170: 3276 0040 17be 90bf b5b3 84bf 082e efbf
00000180: 477d 6f3f b91e b4be 4dcf 4bbf 42a7 5d3f
00000190: 9b65 8dbe 0a8d d1be 68ae 3b3f 1a1a f03f
000001a0: 99f2 ff3e 3cdd b2be dd02 f2be ff0a 883f
000001b0: 204e 90bf 9515 f33f 8700 1e3e 75a7 20bf
000001c0: acd0 cfbf edc7 c3bf 3cee 56bd f4cb 7bbe
000001d0: 7eaa 02bf 8257 d5bf c8c3 4ebe 6728 e73f
000001e0: 985b 1abf 153e 423e b516 b9bf a760 b13f
000001f0: a8ce 7fbf 521c a43d 02ff 2bbf d802 873e
00000200: 9d5e 2940 f9ab 16bf d6fb 033e f7dc c5bf
00000210: 4441 d2bf 5de5 4e3f ef90 01be 0732 b1be
00000220: 1060 f3be 93e6 b5bd 1e09 74bf c574 b1bf
00000230: e00c 5a3f 516e ba3e 25d9 9b3e 8fab c2bf
00000240: 2dd0 c03f 8f3e 73bf 092b 3f3d 74ae 0ebf
00000250: 2354 c23f 0554 033f 3f7c c6bf 5d0e 2dbf
00000260: 0392 d23f cea6 f7bc 054a 99bf d4c6 30bf
00000270: 79ec 23bf 06cb cc3d 5cf2 b23f 8a91 a5bf
00000280: b2a8 373f 7956 02be dd9b 11bf 6ef0 533c
00000290: e629 8ebe c34e d0bf 0eea 603f da64 2e40
000002a0: bd8f 893f 225b 7f3f 4b83 343e de22 173f
000002b0: 0cf1 03c0 f0fb 203d bf3a a63e 74a4 4d3f
000002c0: d9d1 433e c060 7ebf 9e78 893e 4c1f 9f3f
000002d0: ab58 f3bf 0550 6fbf b394 443e ac33 76bf
000002e0: 2463 053e 4d69 b9be 0bb7 723f 6bf6 c9bd
000002f0: 2fa5 ae3f 0c21 8abf f480 083f 507e 4d3e
00000300: 7f6f 45bf 7229 8abe 6bc6 1f3f d78b cfbe
00000310: c670 7fbe 215a f3bf cb96 a5bf dd5f 243f
00000320: 3a60 f33f faae f53e 0b31 f1be 462b c3be
00000330: 1785 af3f 518e 3f40 ba5d eb3e ad66 a6bc
00000340: 99f6 80be 1b8c 03bf bf9f 5ebf 213a a9bd
00000350: 281c 9c3f 4e46 a13f 784e 8bbc fb86 08bf
00000360: fedf 0ac0 f35b 42be 2e7a 673f a513 c1bf
00000370: 6a03 a4be b918 3bbf 7d3c 523e 42a8 1cbf
00000380: 5139 ad3f 0065 153d f139 773f c094 053f
00000390: 24d6 143e 0474 3e3f 77d9 70bf e1d6 5cbf
000003a0: 3aad 493f 7d68 d8bd 36e0 45be e6e5 bfbf
000003b0: ec25 253f 1a88 c9be 230c e33e 8360 d93d
000003c0: 9abf 5fbe c63c 2b3f 5678 0cbf b91b 78bf
000003d0: 2fc1 093f e508 2040 21da e93e 6eba ddbb
000003e0: 39f8 0c3e c2e1 f03e 9b4a 013e 8b6b 7e3f
000003f0: 0436 423f f948 123f 8449 2a3f 9a99 88bf

stock_proj.weight f4 [64, 64]
0.09105694 -0.00068940414 -0.07474388 0.024127327 0.051712833 0.09637525 -0.0663162 -0.11257524
-0.12193674 0.098933674 0.053071734 -0.103974134 0.075325176 -0.051212844 0.108989954 0.058110204
0.11657265 -0.051382646 -0.12256344 -0.087407075 -0.04141046 -0.035033762 0.06694098 0.046295945
-0.021057403 0.031248212 -0.030616093 0.09665007 -0.07035752 -0.042525515 -0.119798824 0.030145986
0.118869506 0.03678559 0.057342686 0.059448004 0.02015831 -0.081460245 -0.016406398 -0.05473917
-0.09007742 0.07160358 0.0626636 0.034340706 -0.044701293 0.033589397 0.086716205 -0.036392342
-0.058414403 0.04443209 -0.012117467 0.11639864 0.09273398 0.08062706 -0.0039213034 -0.051868603
0.08641268 0.04716618 -0.10578831 -0.03439258 0.028097808 -0.040343802 0.101413675 -0.022662286
-0.06349937 -0.10003452 -0.10307421 -0.020871922 0.03721068 -0.077722535 0.072247036 -0.03596758
-0.11110406 -0.016316582 -0.012188891 0.1198223 0.101619445 -0.094526984 0.10017632 0.1007359
0.0034743086 0.02694983 0.092885606 -0.07218388 0.0104697095 -0.049422204 0.10702413 -0.11011599
-0.11228593 0.0896677 -0.11575734 -0.063023165 0.036528066 -0.12282701 0.117210254 0.11938943
-0.085981764 0.04759754 0.05319484 -0.036257695 -0.017225392 0.019848788 -0.022446346 0.07103258
0.10631002 -0.036878265 0.070771605 0.02502944 -0.08635851 -0.10777829 -0.060825773 -0.0027126144
0.0076696677 0.12163176 -0.04456889 0.027936563 -0.10707176 -0.110775255 -0.026574768 -0.10172558
-0.09838268 0.014006413 -0.1160192 0.0037405659 -0.026428068 0.10812668 0.017721778 0.07194521
0.03751753 -0.0141772 0.03354037 0.09381049 -0.017201142 -0.09473586 0.06611141 -0.013551631
0.104776315 -0.021214066 0.029785482 -0.08377665 -0.0755821 -0.022712013 -0.036344755 0.09035485
0.010139486 -0.0621983 0.081929766 0.10130632 -0.077520475 0.08997966 0.04610915 0.03690813
-0.08710338 0.04086101 0.0990494 -0.11645687 0.052984633 0.09106049 0.094796784 -0.0012876848
-0.050327342 0.10372677 0.0060872766 -0.030031655 -0.014739364 0.049473308 -0.019584192 -0.0836635
0.042261977 -0.032965068 -0.010417176 -0.034072615 0.07331365 0.119878985 0.088614285 0.123507
-0.09490794 0.09450423 0.005335791 -0.065507725 -0.07452124 0.0728573 -0.08966887 0.07890297
0.03424215 -0.07938516 0.091430314 0.100280955 -0.019648224 0.04573822 0.11824621 0.06982012
-0.09295397 0.116094366 0.00035101396 -0.039883517 -0.039535627 -0.029696383 0.027434783 -0.06498678
-0.06427803 -0.055937637 -0.020432845 0.011386062 -0.08896537 -0.07838466 -0.08253025 -0.0052109654
-0.00117884 -0.09856418 0.02211893 0.095646545 -0.028309153 0.049781222 -0.085343815 0.09281406
-0.112883344 -0.08433732 0.102516085 0.06181682 0.060925025 0.04348992 0.08647619 0.11076735
-0.024888942 -0.081241995 -0.102034606 -0.08413088 -0.06161309 -0.026845587 0.035267886 0.06745063
0.10882556 0.01937619 0.08667783 0.022695638 -0.018585674 -0.012512285 -0.06369918 0.021802217
-0.07702503 0.0331422 -0.03503968 0.08422026 -0.036678348 -0.07887541 -0.11735546 0.11144196
-0.079434335 0.11063931 0.012932199 -0.07947753 -0.07616852 -0.0018384793 0.077290185 -0.07714086
00000000: 107c ba3d 21b9 34ba 5213 99bd aca6 c53c
00000010: d6d0 533d 6360 c53d cad0 87bd d98d e6bd
00000020: f8b9 f9bd bd9d ca3d bf61 593d 64f0 d4bd
00000030: 1644 9a3d 8fc4 51bd 2036 df3d f704 6e3d
00000040: a4bd ee3d 9c76 52bd 8a02 fbbd 7b02 b3bd
00000050: 049e 29bd 907f 0fbd 5a18 893d d1a0 3d3d
00000060: 9380 acbc 40fc ff3c 9ace fabc 79f0 c53d
00000070: 9a17 90bd 3c2f 2ebd 1659 f5bd b7f4 f63c
00000080: db71 f33d 7dac 163d 2ae0 6a3d c07f 733d
00000090: 0a23 a53c a1d4 a6bd b666 86bc 2e36 60bd
000000a0: 837a b8bd e6a4 923d c655 803d d7a8 0c3d
000000b0: b418 37bd 0995 093d 4498 b13d 2310 15bd
000000c0: f143 6fbd 6cfe 353d 5788 46bc 6962 ee3d
000000d0: 50eb bd3d cd1f a53d 477e 80bb 2c74 54bd
000000e0: 22f9 b03d 5331 413d 8ba7 d8bd 3cdf 0cbd
000000f0: 602d e63c 8b3f 25bd f9b1 cf3d 42a6 b9bc
00000100: f50b 82bd e6de ccbd 9218 d3bd 98fb aabc
00000110: 3a6a 183d fe2c 9fbd 41f6 933d be52 13bd
00000120: 878a e3bd 5aaa 85bc eab3 47bc 6565 f53d
00000130: db1d d03d 5d97 c1bd 3e29 cd3d a04e ce3d
00000140: 3ab1 633b e4c5 dc3c cf3a be3d 24d5 93bd
00000150: 2589 2b3c f06e 4abd 782f db3d 7e84 e1bd
00000160: 2af6 e5bd b3a3 b73d 2f12 edbd 4a12 81bd
00000170: 749e 153d ba8c fbbd ee0b f03d 7282 f43d
00000180: 3517 b0bd a3f5 423d d5e2 593d f382 14bd
00000190: 441c 8dbc ed99 a23c 66e1 b7bc 8879 913d
000001a0: 11b9 d93d aa0d 17bd b4f0 903d 8a0a cd3c
000001b0: bbdc b0bd ddba dcbd 7224 79bd 1ec6 31bb
000001c0: d651 fb3b 121a f93d de8d 36bd 38db e43c
000001d0: 7048 dbbd 23de e2bd 54b3 d9bc 8055 d0bd
000001e0: dc7c c9bd 277b 653c 799b edbd 4824 753b
000001f0: ad7f d8bc 8571 dd3d 432d 913c 0358 933d
00000200: fbab 193d 7d47 68bc a161 093d b71f c03d
00000210: 69e9 8cbc e004 c2bd 6b65 873d a907 5ebc
00000220: f794 d63d 1fc9 adbc af00 f43c 1893 abbd
00000230: caca 9abd 8b0e babc 3dde 14bd f70b b93d
00000240: 1620 263c a5c3 7ebd cbca a73d b079 cf3d
00000250: 0ec3 9ebd 4247 b83d f3dc 3c3d fb2c 173d
00000260: 4263 b2bd e05d 273d 69da ca3d f180 eebd
00000270: 6a06 593d ec7d ba3d d124 c23d 88c7 a8ba
00000280: 0b24 4ebd b36e d43d c777 c73b f204 f6bc
00000290: 607d 71bc 86a4 4a3d 076f a0bc c557 abbd
000002a0: e51a 2d3d 6106 07bd ceac 2abc ba8f 0bbd
000002b0: 7825 963d 1d83 f53d 687b b53d 3df1 fc3d
000002c0: 185f c2bd 6f8b c13d dcd7 ae3b ea28 86bd
000002d0: 989e 98bd 3536 953d 50a4 b7bd e197 a13d
000002e0: 7f41 0c3d b094 a2bd d13f bb3d 1a60 cd3d
000002f0: 50f5 a0bc 0058 3b3d 122b f23d dafd 8e3d
00000300: a75e bebd e2c2 ed3d 4c08 b839 e65c 23bd
00000310: 1cf0 21bd d445 f3bc e9be e03c ca17 85bd
00000320: 33a4 83bd dd1e 65bd c862 a7bc 9b8c 3a3c
00000330: 7a33 b6bd 2388 a0bd 9f05 a9bd bfc0 aabb
00000340: 4e83 9aba 04dc c9bd c232 b53c 56e2 c33d
00000350: 99e8 e7bc 65e7 4b3d bdc8 aebd 4c15 be3d
00000360: 622f e7bd 0bb9 acbd f4f3 d13d a233 7d3d
00000370: 858c 793d 7d22 323d 6e1a b13d fed9 e23d
00000380: e5e3 cbbc 3462 a6bd 85f7 d0bd d04c acbd
00000390: 025e 7cbd 47eb dbbc 0f75 103d 8e23 8a3d
000003a0: efdf de3d d1ba 9e3c 2584 b13d 34ec b93c
000003b0: fc40 98bc 5400 4dbc b774 82bd 909a b23c
000003c0: 4dbf 9dbd 1ec0 073d c485 0fbd ac7b ac3d
000003d0: 093c 16bd 6e89 a1bd 0f58 f0bd af3b e43d
000003e0: 78ae a2bd dd96 e23d 93e1 533c 1ec5 a2bd
000003f0: 3efe 9bbd 21f9 f0ba 514a 9e3d 07fc 9dbd

stock_proj.bias f4 [64]
0.115994126 -0.08678214 -0.01988736 -0.007892324 -0.0029094727 -0.011214676 -0.11888125 0.11951718
-0.074394554 0.0046590706 0.029895982 -0.12255882 0.063457884 -0.012689871 -0.025815953 -0.07262566
-0.03222148 0.06947669 -0.11653501 -0.055779066 0.10150907 0.0057792035 -0.04939578 -0.014931276
-0.1127514 0.056180514 0.11165205 0.041612938 -0.025704281 -0.09455369 0.124550596 0.1010015
-0.046148583 0.102479234 0.06636914 -0.075372174 -0.0516096 -0.07566637 0.10773975 -0.07873773
-0.076711826 -0.07577913 0.10953207 0.019012172 -0.10855994 0.12087951 -0.006741574 0.052216712
0.076111846 0.037241034 0.071087845 -0.023038885 -0.07769105 0.007697483 -0.017288158 0.05750363
-0.09689205 -0.07724338 0.07737328 -0.043740366 0.02940921 0.062619895 0.123059005 -0.0131488135
00000000: 548e ed3d d6ba b1bd d1ea a2bc ce4e 01bc
00000010: daac 3ebb c3bd 37bc 0378 f3bd 6cc5 f43d
00000020: 2c5c 98bd 1eab 983b 6be8 f43c 1e00 fbbd
00000030: 35f6 813d 2de9 4fbc fa7b d3bc c3bc 94bd
00000040: acfa 03bd cb49 8e3d e8a9 eebd 9778 64bd
00000050: fde3 cf3d 795f bd3b 3b53 4abd 50a2 74bc
00000060: 35ea e6bd 8a1d 663d d4a9 e43d 5472 2a3d
00000070: c991 d2bc 5da5 c1bd 6214 ff3d e0d9 ce3d
00000080: 4c06 3dbd a2e0 d13d 8bec 873d ba5c 9abd
00000090: 9764 53bd f8f6 9abd a8a6 dc3d 3f41 a1bd
000000a0: 171b 9dbd 1732 9bbd 5a52 e03d 6abf 9b3c
000000b0: ac54 debd ad8f f73d 6ce8 dcbb 31e1 553d
000000c0: 87e0 9b3d 0e8a 183d 8196 913d 0bbc bcbc
000000d0: 7c1c 9fbd 2b3b fc3b e59f 8dbc ed88 6b3d
000000e0: 576f c6bd c731 9ebd e275 9e3d 1929 33bd
000000f0: 95eb f03c dc3e 803d 5c06 fc3d 1f6e 57bc

pre_ln.weight f4 [64]
1.0015417 1.0 1.000465 1.0 0.9993279 1.0 1.003439 1.0
1.0049742 1.0 1.0015608 1.0 1.002364 1.0 0.99795794 1.0
1.0016592 1.0 0.997113 1.0 1.0001903 1.0 1.000369 1.0
0.9984774 1.0 0.99991196 1.0 1.0013652 1.0 0.9997918 1.0
1.0010571 1.0 0.9990279 1.0 1.0027281 1.0 1.0037143 1.0
0.99768597 1.0 0.9987193 1.0 0.9989002 1.0 0.99767166 1.0
1.0001734 1.0 1.0008948 1.0 0.9985368 1.0 1.0004963 1.0
0.9982071 1.0 1.001251 1.0 1.0006498 1.0 0.9987854 1.0
00000000: 8532 803f 0000 803f 3d0f 803f 0000 803f
00000010: f4d3 7f3f 0000 803f b070 803f 0000 803f
00000020: ffa2 803f 0000 803f 2533 803f 0000 803f
00000030: 774d 803f 0000 803f 2c7a 7f3f 0000 803f
00000040: 5e36 803f 0000 803f cc42 7f3f 0000 803f
00000050: 3c06 803f 0000 803f 170c 803f 0000 803f
00000060: 379c 7f3f 0000 803f 3bfa 7f3f 0000 803f
00000070: bc2c 803f 0000 803f 5bf2 7f3f 0000 803f
00000080: a422 803f 0000 803f 4bc0 7f3f 0000 803f
00000090: 6559 803f 0000 803f b679 803f 0000 803f
000000a0: 5968 7f3f 0000 803f 11ac 7f3f 0000 803f
000000b0: ecb7 7f3f 0000 803f 6967 7f3f 0000 803f
000000c0: af05 803f 0000 803f 521d 803f 0000 803f
000000d0: 1ca0 7f3f 0000 803f 4310 803f 0000 803f
000000e0: 808a 7f3f 0000 803f fe28 803f 0000 803f
000000f0: 4b15 803f 0000 803f 66b0 7f3f 0000 803f

pre_ln.bias f4 [64]
-0.0016514738 0.0 -0.0017716037 0.0 0.00051044277 0.0 0.0019705973 0.0
-0.0017268137 0.0 6.7084795e-05 0.0 0.0021850413 0.0 -0.00017660459 0.0
-0.00033397833 0.0 -6.171151e-05 0.0 -0.00035207445 0.0 -4.463627e-05 0.0
-0.00026273483 0.0 -0.00028788223 0.0 0.00060555135 0.0 0.00052427565 0.0
-0.0014718657 0.0 -0.0019372368 0.0 0.001367715 0.0 0.0006520731 0.0
0.0034808826 0.0 -9.569406e-05 0.0 -0.0020899216 0.0 0.000506233 0.0
0.00015327623 0.0 -0.00053785025 0.0 0.000403491 0.0 -1.8631566e-05 0.0
0.00052027684 0.0 0.00021257356 0.0 7.676126e-05 0.0 0.00047572682 0.0
00000000: 4476 d8ba 0000 0000 2835 e8ba 0000 0000
00000010: 3ccf 053a 0000 0000 2325 013b 0000 0000
00000020: 4156 e2ba 0000 0000 e0af 8c38 0000 0000
00000030: e932 0f3b 0000 0000 ef2e 39b9 0000 0000
00000040: d019 afb9 0000 0000 1d6b 81b8 0000 0000
00000050: a296 b8b9 0000 0000 d437 3bb8 0000 0000
00000060: acbf 89b9 0000 0000 e6ee 96b9 0000 0000
00000070: ddbd 1e3a 0000 0000 8b6f 093a 0000 0000
00000080: 9eeb c0ba 0000 0000 e1ea fdba 0000 0000
00000090: e644 b33a 0000 0000 e3ef 2a3a 0000 0000
000000a0: 851f 643b 0000 0000 5baf c8b8 0000 0000
000000b0: 11f7 08bb 0000 0000 b9b4 043a 0000 0000
000000c0: c6b8 2039 0000 0000 85fe 0cba 0000 0000
000000d0: a58b d339 0000 0000 fc4a 9cb7 0000 0000
000000e0: 3063 083a 0000 0000 48e6 5e39 0000 0000
000000f0: e3fa a038 0000 0000 f96a f939 0000 0000

regime_proj.weight f4 [64, 3]
0.010850804 -0.55256927 0.058157418 -0.3428373 -0.56105554 -0.32130116 -0.34100246 -0.29254496
0.091900885 0.42249113 -0.5513632 -0.1112815 0.38318062 0.26599154 -0.20078772 0.387784
0.27165464 0.56296855 -0.23213536 -0.27561828 0.5616699 0.48993698 0.47981218 -0.12759548
0.10209938 0.41272286 -0.23852862 -0.4363821 -0.37733355 0.0021322833 0.14817293 0.22270447
0.46570978 -0.131914 0.16149218 0.40639016 -0.39161947 -0.028088337 -0.2644213 -0.2832994
-0.49640685 -0.102034375 0.4768251 -0.2676546 0.067597955 -0.34024328 -0.42322344 0.13287269
-0.5266592 0.040622048 0.11073973 -0.43236834 -0.48714155 0.3298123 -0.106345125 0.32774568
-0.27298737 -0.26909566 0.042246133 0.4281861 -0.12938099 -0.3510088 0.30872837 0.57698184
-0.51095945 -0.36999887 0.04785722 0.3185092 0.3296134 -0.48982355 -0.041122556 0.42475826
0.27863294 -0.3508694 0.084856614 -0.0010113909 0.31341273 -0.10629509 -0.21330327 -0.34717909
0.18683423 0.5345007 0.03849865 -0.3200878 -0.11763073 0.42860717 0.21878338 -0.3929352
0.5387552 -0.18351105 0.09453089 0.49884328 -0.08748403 0.54836893 0.020403048 0.39857063
0.45920274 -0.33262566 0.4826227 -0.3592659 0.4213681 -0.43406764 0.013247788 -0.4185823
-0.33487427 0.25531968 0.54937035 0.28870168 -0.038104348 0.3181097 -0.10387737 -0.24890913
0.16687414 0.48736194 0.058660395 0.03225568 -0.2972393 -0.20499837 0.31012866 0.15909982
-0.069236085 -0.085726604 -0.4352789 0.16223936 0.27625826 0.21992518 -0.53547114 -0.380539
-0.32883948 0.36476842 0.10842434 0.2734916 -0.34333736 -0.3292277 -0.43523586 0.39082092
-0.025699928 -0.21355814 0.3091821 0.13323079 0.40619102 -0.1452853 0.20879851 0.09326889
0.39075506 -0.019297637 -0.08625306 0.11845862 -0.008433535 -0.48914313 -0.05480576 -0.260657
-0.3277764 -0.4443802 0.22749792 -0.46848634 -0.04012644 -0.43339944 0.36431977 0.43075255
-0.04637587 0.48155951 0.3702372 -0.064313345 0.25543487 -0.46629858 0.18668446 0.2926898
0.067105904 -0.28210288 -0.37251794 0.39121848 -0.5769151 0.21655749 0.08605309 0.24833831
-0.1822919 0.25170192 2.7530206e-07 0.32257727 -0.25889143 0.19010934 -0.20151775 0.22705929
-0.40582764 -0.3952758 -0.1492527 -0.11753577 0.16367222 0.10991758 -0.14698803 -0.3715657
00000000: 92c7 313c 2e75 0dbf 7936 6e3d 5f88 afbe
00000010: 56a1 0fbf 9681 a4be e097 aebe 74c8 95be
00000020: 8836 bc3d c250 d83e 2426 0dbf 8ee7 e3bd
00000030: 4030 c43e 0b30 883e 4c9b 4dbe a08b c63e
00000040: 5116 8b3e b51e 103f e4b4 6dbe d71d 8dbe
00000050: 99c9 0f3f 05d9 fa3e f1a9 f53e 64a8 02be
00000060: 7b19 d13d 6950 d33e d940 74be 7a6d dfbe
00000070: dd31 c1be c7bd 0b3b a5ba 173e a40c 643e
00000080: 8371 ee3e 7714 07be 355e 253e 5f12 d03e
00000090: 5982 c8be 8319 e6bc 3b62 87be 9e0c 91be
000000a0: 0a29 febe 66f7 d0bd 6b22 f43e 060a 89be
000000b0: cc70 8a3d 5e34 aebe beb0 d8be c70f 083e
000000c0: 23d3 06bf 4e63 263d 83cb e23d 625f ddbe
000000d0: 9e6a f9be 28dd a83e 79cb d9bd 48ce a73e
000000e0: 00c5 8bbe e8c6 89be 480a 2d3d 353b db3e
000000f0: 737c 04be 6db7 b3be a511 9e3e 15b5 133f
00000100: 3dce 02bf 7e70 bdbe ef05 443d a313 a33e
00000110: 16c3 a83e 27ca fabe 2070 28bd ea79 d93e
00000120: faa8 8e3e 27a5 b3be 4ec9 ad3d a690 84ba
00000130: a277 a03e 3db1 d9bd 2c6c 5abe 75c1 b1be
00000140: 7951 3f3e 0ad5 083f c3b0 1d3d 8ce2 a3be
00000150: 61e8 f0bd 6672 db3e c008 603e cd2e c9be
00000160: dceb 093f 52ea 3bbe 6999 c13d 6368 ff3e
00000170: d42a b3bd e861 0c3f 4b24 a73c 7311 cc3e
00000180: 9f1c eb3e e94d aabe 531a f73e b3f1 b7be
00000190: 8fbd d73e 1d3e debe 400d 593c 6b50 d6be
000001a0: a474 abbe 43b9 823e 89a3 0c3f b5d0 933e
000001b0: 4e13 1cbd 46df a23e a9bd d4bd 09e2 7ebe
000001c0: 0ee1 2a3e 8187 f93e e245 703d 881e 043d
000001d0: c02f 98be 18eb 51be 2fc9 9e3e 10eb 223e
000001e0: a6cb 8dbd 6e91 afbd e0dc debe 1322 263e
000001f0: b971 8d3e 1134 613e a314 09bf 02d6 c2be
00000200: a65d a8be edc2 ba3e 950d de3d 1707 8c3e
00000210: eac9 afbe 8890 a8be 3cd7 debe ae19 c83e
00000220: a888 d2bc fcae 5abe 1e4d 9e3e a76d 083e
00000230: 45f8 cf3e abc5 14be 47cf 553e c303 bf3d
00000240: 0c11 c83e 1416 9ebc 72a5 b0bd 6f9a f23d
00000250: cf2c 0abc f870 fabe 017c 60bd d674 85be
00000260: 4fd2 a7be cd85 e3be 37f5 683e 71dd efbe
00000270: 9f5b 24bd 88e6 ddbe 1f88 ba3e 998b dc3e
00000280: a0f4 3dbd f88e f63e bb8f bd3e b7b6 83bd
00000290: 5cc8 823e b0be eebe 362a 3f3e 70db 953e
000002a0: d26e 893d ca6f 90be acba bebe ca4d c83e
000002b0: b5b0 13bf 3fc1 5d3e 9a3c b03d 664c 7e3e
000002c0: baaa 3abe 13df 803e 3acd 9334 d928 a53e
000002d0: 6b8d 84be 06ac 423e ab5a 4ebe 3b82 683e
000002e0: a4c8 cfbe 9761 cabe b3d5 18be 98b6 f0bd
000002f0: b199 273e 781c e13d 0884 16be dc3d bebe

regime_proj.bias f4 [64]
-0.23968162 0.010133387 0.472409 -0.33495066 -0.51328015 -0.19144243 0.5018575 -0.3188973
0.50415117 0.07871836 -0.5146534 0.11852531 0.44524118 0.43328393 0.0033520828 0.5515073
0.3530685 0.55725795 -0.38952658 0.26331726 -0.5214777 0.45922792 0.38265792 -0.03518553
0.46650404 0.211216 0.04332092 0.3074486 0.13430122 0.5559598 0.3918761 -0.28951088
-0.55121315 -0.16907208 -0.53816414 0.26071414 -0.22924915 -0.120881625 0.12722132 -0.14545852
0.18465735 -0.08532554 0.4624768 0.560714 0.3979393 -0.021728627 0.09029753 0.10727275
-0.1364774 -0.4004214 0.28308508 -0.5115649 -0.48276776 0.4169964 -0.19630253 -0.40965042
-0.1005426 -0.2861497 0.5314779 0.4312745 -0.020138644 0.1953553 0.0876037 -0.27961832
00000000: 196f 75be 8106 263c 98df f13e a77e abbe
00000010: 5466 03bf 7c09 44be bc79 003f 8246 a3be
00000020: 0d10 013f 1737 a13d 53c0 03bf 66bd f23d
00000030: a7f6 e33e 64d7 dd3e 9eae 5b3b 952f 0d3f
00000040: 65c5 b43e 75a8 0e3f 0770 c7be 85d1 863e
00000050: 907f 05bf ec1f eb3e bdeb c33e b41e 10bd
00000060: 9ed9 ee3e 0249 583e 4771 313d e769 9d3e
00000070: 4286 093e 6253 0e3f fca3 c83e c53a 94be
00000080: 4e1c 0dbf 3b21 2dbe 20c5 09bf 537c 853e
00000090: 4ac0 6abe c990 f7bd 4e46 023e 14f3 14be
000000a0: d116 3d3e 28bf aebd c2c9 ec3e f48a 0f3f
000000b0: b3be cb3e 3c00 b2bc e9ed b83d d1b1 db3d
000000c0: bbc0 0bbe 0904 cdbe 87f0 903e ebf5 02bf
000000d0: 562d f7be 8d80 d53e 8803 49be b3bd d1be
000000e0: 47e9 cdbd 3782 92be f00e 083f 03d0 dc3e
000000f0: ccf9 a4bc 380b 483e 9269 b33d 222a 8fbe

transformer.layers.0.self_attn.in_proj_weight f4 [192, 64]
-0.004289084 0.10252655 -0.08796887 0.14091076 -0.024965357 0.08234291 0.12124696 -0.0022793123
-0.00083747046 0.1273505 0.042126287 0.073109455 0.0045342124 -0.07305633 -0.005442805 -0.14787433
0.06698617 -0.07840214 -0.12586243 -0.073744394 0.003814548 -0.028782576 -0.076291844 -0.081367254
0.12081684 0.0026958897 0.13696755 -0.14428876 -0.011449161 0.1453874 -0.029280536 -0.06174047
0.14706159 -0.1380664 0.10646642 0.09618705 -0.08018167 -0.13372304 0.13254371 0.01618961
-0.15223762 -0.12697296 -0.11553026 0.10343092 -0.035730183 0.08561453 0.109801546 0.0745301
-0.043348975 -0.025812443 -0.016908312 0.10401359 -0.022310013 0.054198883 0.08448083 -0.12758216
-0.10790292 0.11406592 0.08603917 0.047166854 0.021900687 -0.03828381 0.076478034 -0.09665288
0.092093036 0.02551836 0.049112745 0.016503967 -0.014508679 0.0917202 0.037851717 -0.08977559
-0.12671208 0.07898293 -0.10074021 0.055620823 -0.14031556 0.09482555 -0.05890565 0.15240844
-0.11257448 0.104214564 0.046743903 -0.0020595992 -0.039302673 0.09104781 -0.02471524 -0.038075503
-0.067435354 0.13934389 -0.043144315 -0.024574282 -0.12736854 -0.13306308 0.050855856 -0.13164102
-0.06627087 -0.0145532675 0.14084855 -0.023591293 0.06809391 -0.121676534 0.07974109 -0.010053846
0.0951838 0.1438068 0.047374643 -0.006445432 0.1413261 0.14418623 0.12145079 0.0060878024
0.021549907 -0.013165583 -0.03383375 -0.118757226 -0.052341517 -0.023161758 -0.14290698 0.005031814
-0.057431463 -0.13835812 0.056153934 0.061640535 0.07426492 -0.09472063 -0.059465878 0.09338589
0.06511942 -0.13625298 -0.07572681 -0.08074268 0.09147555 -0.15231502 -0.09707059 -0.037298795
-0.11953634 0.06784108 0.105110995 0.0888161 0.13670996 -0.096954174 -0.009781718 0.06767926
0.03494925 -0.08680694 0.06780373 0.10231255 0.13920316 0.018803775 0.057843525 -0.11588114
0.023704613 -0.08693754 0.08655104 -0.077233 0.13058303 -0.1305337 -0.09087588 -0.100396805
-0.013028168 -0.048532274 0.00039743373 0.06728141 -0.11521878 -0.07436775 -0.025438003 -0.09083816
0.10900429 -0.03641173 0.15265828 0.13387747 -0.12746514 -0.040096175 -7.694248e-05 -0.03685968
0.14755969 -0.03742629 0.09825135 0.0040250826 -0.001375284 -0.04336185 0.075728536 -0.0099418815
0.05300992 -0.0020043561 -0.08172999 -0.07264826 -0.022318838 -0.1478782 0.116464026 -0.106144786
0.07069038 0.05507963 -0.14400186 -0.120937675 0.023792582 0.0063881995 0.11351975 -0.011523802
0.13451673 0.10036508 -0.021508869 -0.03433271 -0.063106075 -0.027470976 -0.044951886 -0.0955278
0.021128763 -0.122797966 0.021458346 -0.13248955 -0.11601525 0.035655297 -0.095568046 0.0072515947
-0.055206638 -0.11944697 0.06552536 0.097938545 0.010064673 0.12694468 -0.14970724 -0.02404105
0.03279946 0.07267096 0.11582323 0.032523412 0.03817335 -0.10854814 0.051131245 0.06785609
-0.0016040831 0.0036473963 -0.106497936 0.1515224 0.14364496 -0.063668996 0.1310545 -0.015475318
0.03305411 -0.10640985 0.14437921 -0.015704047 0.14150089 -0.0035280588 0.005927579 0.031061817
0.05325041 0.070887014 -0.12941776 -0.0500749 -0.13183448 -0.11160422 -0.057934873 -0.12866369
00000000: 728b 8cbb 71f9 d13d 0629 b4bd e94a 103e
00000010: 2684 ccbc 66a3 a83d 5350 f83d 8460 15bb
00000020: b189 5bba 2b68 023e 9d8c 2c3d 69ba 953d
00000030: bb93 943b 8f9e 95bd 8f59 b2bb 5e6c 17be
00000040: 0c30 893d 4d91 a0bd 15e2 00be 4d07 97bd
00000050: 7ffd 793b 70c9 ebbc e63e 9cbd e0a3 a6bd
00000060: d26e f73d 86ad 303b 3941 0c3e 6fc0 13be
00000070: 4395 3bbc 6fe0 143e bcdd efbc 93e3 7cbd
00000080: 5097 163e 4761 0dbe 110b da3d b7fd c43d
00000090: 4a36 a4bd b1ee 08be 8ab9 073e 13a0 843c
000000a0: 2ee4 1bbe 3305 02be 219b ecbd 97d3 d33d
000000b0: d059 12bd ac56 af3d a2df e03d 3da3 983d
000000c0: b28e 31bd 9e74 d3bc 4d83 8abc 1405 d53d
000000d0: 7dc3 b6bc a6ff 5d3d 4904 ad3d e6a4 02be
000000e0: 35fc dcbd 659b e93d 4e35 b03d 0832 413d
000000f0: 1269 b33c 7ccf 1cbd 84a0 9c3d f2f1 c5bd
00000100: 469b bc3d e10b d13c 722a 493d 5433 873c
00000110: cfb5 6dbc cdd7 bb3d 670a 1b3d 44dc b7bd
00000120: d0c0 01be cdc1 a13d e250 cebd a9d2 633d
00000130: e2ae 0fbe e633 c23d 0d47 71bd f510 1c3e
00000140: 738d e6bd 726e d53d 8976 3f3d 57fa 06bb
00000150: d7fb 20bd 4677 ba3d 9d77 cabc 0ff5 1bbd
00000160: 8c1b 8abd 2ab0 0e3e 18b8 30bd 0150 c9bc
00000170: e66c 02be b041 08be 3b4e 503d e7cc 06be
00000180: 06b9 87bd d470 6ebc 9a3a 103e 8742 c1bc
00000190: d274 8b3d 8c31 f9bd 4c4f a33d e3b8 24bc
000001a0: b9ef c23d 1742 133e ea0b 423d 3434 d3bb
000001b0: cab7 103e 8ea5 133e 31bb f83d 307c c73b
000001c0: 6e89 b03c 75b4 57bc 4295 0abd fd36 f3bd
000001d0: 0f64 56bd babd bdbc 3556 12be eae1 a43b
000001e0: 413d 6bbd c0ad 0dbe ab01 663d c97a 7c3d
000001f0: 3518 983d e4fc c1bd 7e92 73bd 1a41 bf3d
00000200: 555d 853d e785 0bbe a816 9bbd 6b5c a5bd
00000210: 8857 bb3d 78f8 1bbe f2cc c6bd 9fc6 18bd
00000220: 78cf f4bd 44f0 8a3d 6f44 d73d 37e5 b53d
00000230: b2fd 0b3e e98f c6bd 8043 20bc 6d9b 8a3d
00000240: f226 0f3d d6c7 b1bd afdc 8a3d 3e89 d13d
00000250: 468b 0e3e 600a 9a3c 55ed 6c3d 1753 edbd
00000260: 2d30 c23c 4f0c b2bd ac41 b13d 562c 9ebd
00000270: 8fb7 053e a0aa 05be 221d babd d79c cdbd
00000280: 1974 55bc c7c9 46bd a75e d039 d6ca 893d
00000290: d3f7 ebbd 1e4e 98bd 5c63 d0bc 5b09 babd
000002a0: a43d df3d 7724 15bd 7452 1c3e 2d17 093e
000002b0: 3986 02be e33b 24bd 2e5c a1b8 2dfa 16bd
000002c0: e319 173e 4f4c 19bd 0138 c93d d7e4 833b
000002d0: e042 b4ba 329c 31bd 9017 9b3d 46e3 22bc
000002e0: ee20 593d 845b 03bb 0e62 a7bd 9cc8 94bd
000002f0: ffd5 b6bc 626d 17be b184 ee3d 7062 d9bd
00000300: 1ec6 903d 2e9b 613d 3975 13be 2cae f7bd
00000310: a9e8 c23c 1a54 d13b 0b7d e83d 54ce 3cbc
00000320: c1be 093e 358c cd3d 5e33 b0bc 75a0 0cbd
00000330: c23d 81bd d00a e1bc 781f 38bd 14a4 c3bd
00000340: 3a16 ad3c 807d fbbd 6ac9 af3c 57ab 07be
00000350: 6799 edbd 4a0b 123d 2eb9 c3bd c99e ed3b
00000360: 5b20 62bd 9da0 f4bd 2932 863d 0194 c83d
00000370: 4ce6 243c c9fd 013e db4c 19be bcf1 c4bc
00000380: ba58 063d 83d4 943d bb34 ed3d 4537 053d
00000390: a95b 1c3d 7d4e debd ff6e 513d 22f8 8a3d
000003a0: 1940 d2ba 2809 6f3b 971b dabd b028 1b3e
000003b0: aa17 133e e464 82bd 2733 063e 308c 7dbc
000003c0: bf63 073d 68ed d9bd 25d8 133e c6a5 80bc
000003d0: 9ce5 103e 0137 67bb 233c c23b 5a75 fe3c
000003e0: 1a1d 5a3d 362d 913d 1786 04be 571b 4dbd
000003f0: 9eff 06be c190 e4bd 1e4d 6dbd 6ac0 03be

transformer.layers.0.self_attn.in_proj_bias f4 [192]
-0.0023228698 0.00324668 0.0012945377 0.0021549086 -0.003672195 -0.0014903749 -0.0010194863 0.0028218832
-0.0016024883 -0.0025775204 -0.0028971403 0.0025515843 0.002020102 -0.00222518 -0.00028367943 0.0022991037
-0.0016594273 -0.0025552441 0.0017570275 0.000781162 0.0014940659 0.00082117494 0.0017912246 0.003339116
0.0034150279 0.00036127146 -0.0011986144 0.00022224069 0.0011472077 -0.0015781805 -4.3268676e-05 0.0008906945
0.00040164657 0.00092024443 0.003898616 0.0022441642 0.0032644651 0.00046528675 0.0021373995 0.0055321897
0.0014110135 -0.0012173027 0.0033765354 -0.0018229202 0.0037041875 0.0046292357 -0.0028927366 0.00021201969
-0.0012522761 0.0020337668 0.0014024919 0.0021149549 -0.004007089 -0.0043373443 0.0043372265 -0.0016031069
-0.0013271868 0.0031441469 0.0031147983 -0.0029297376 -0.0030277378 0.0018902135 -0.0024686458 -0.001815495
-3.1176216e-06 6.5409376e-06 1.6226091e-05 -9.808398e-06 -1.0973239e-06 1.5647495e-06 1.3140482e-05 -3.1491024e-06
1.7510287e-05 -5.2899445e-06 -1.0504303e-05 1.3339333e-05 2.3477636e-05 4.446122e-07 -7.1265235e-06 -7.99028e-06
-2.14318e-06 6.9500345e-07 -1.3524719e-05 -5.076547e-09 7.9060305e-07 4.0221958e-06 3.233406e-06 -8.83584e-06
-3.5821558e-06 -1.2723275e-06 1.3839131e-05 -2.1962605e-06 -7.079552e-06 -2.0971487e-07 1.0198472e-06 -5.5579344e-06
2.4001681e-06 -2.6487993e-07 -3.7665657e-06 9.2999834e-08 4.198483e-06 2.9631751e-06 -1.5788671e-06 7.5413226e-07
2.3465495e-06 -4.1833272e-07 -6.893893e-07 3.1986506e-06 -1.7960225e-06 -1.0306064e-06 -6.74567e-06 -1.3312986e-05
-8.094309e-06 7.649352e-06 -6.5725544e-06 1.1428526e-05 -8.295108e-06 1.3552947e-05 3.7996313e-06 -1.2545514e-05
5.011524e-06 1.08863005e-05 -1.0490172e-06 -4.2333854e-06 2.1222154e-06 -1.1441943e-05 -1.7611653e-06 -3.620739e-07
0.00049136666 7.808031e-05 -0.00095283147 0.0012542283 -2.6114716e-05 -0.00024995668 -0.00065781525 -0.00091857073
0.001740894 0.0005969429 8.449908e-05 -0.0005061435 -0.0022497084 0.0005040025 9.022209e-05 0.0007148145
8.6872815e-06 0.0003258854 8.682871e-06 -0.0007895907 0.0010722849 -0.0004239964 0.0005442147 0.0001867372
0.00036141215 0.0009363878 0.00011951267 0.00030953696 0.0010674131 -0.0005445814 -0.0008126785 9.513391e-05
-0.00070636335 -0.0003580323 -0.00014760536 0.0006682938 0.0011235477 -0.0017995225 -0.00025911012 0.0003544686
0.00040804627 5.096006e-05 0.0011863472 -0.0011464187 0.00021656806 -0.00046042004 -0.000100149446 0.0012128412
-0.00021904636 0.0011698793 7.8994686e-05 -0.0016219893 -0.0014290112 0.00032086734 0.00010745301 -6.576255e-05
0.00044871782 0.00016127706 0.00026011857 -0.00034031726 -4.454585e-05 0.00043202742 0.00010007696 -0.00018093886
00000000: 4a3b 18bb 40c6 543b 7aad a93a 5e39 0d3b
00000010: 35a9 70bb af58 c3ba 49a0 85ba 58ef 383b
00000020: 960a d2ba 9eeb 28bb f3dd 3dbb 7b38 273b
00000030: b063 043b 53d4 11bb cfba 94b9 8fac 163b
00000040: 2481 d9ba e275 27bb 0f4c e63a e5c6 4c3a
00000050: 88d4 c33a 1e44 573a 86c7 ea3a 12d5 5a3b
00000060: a9ce 5f3b 0969 bd39 d31a 9dba 4809 6939
00000070: e75d 963a f3da ceba 637b 35b8 7f7d 693a
00000080: 1794 d239 8f3c 713a ec7f 7f3b d412 133b
00000090: a3f0 553b bbf1 f339 9d13 0c3b 5f47 b53b
000000a0: c2f1 b83a e78d 9fba dd48 5d3b 0def eeba
000000b0: f4c1 723b d8b0 973b 1194 3dbb 9a51 5e39
000000c0: 6a23 a4ba f248 053b d2d3 b73a 0e9b 0a3b
000000d0: e64d 83bb 4820 8ebb 4b1f 8e3b 571f d2ba
000000e0: 00f5 adba 080e 4e3b a521 4c3b d700 40bb
000000f0: 036d 46bb 0ac1 f73a 01c9 21bb e7f5 edba
00000100: 5538 51b6 3a7a db36 441d 8837 c08e 24b7
00000110: c347 93b5 6204 d235 f175 5c37 2b55 53b6
00000120: 0ee3 9237 4780 b1b6 a33b 30b7 00cc 5f37
00000130: d7f1 c437 09b3 ee34 5f20 efb6 fe0d 06b7
00000140: 8dd3 0fb6 4690 3a35 3ae8 62b7 c86d aeb1
00000150: d439 5435 66f6 8636 7efd 5836 a53d 14b7
00000160: f864 70b6 d7c4 aab5 9d2e 6837 7863 13b6
00000170: e38c edb6 fc2d 61b4 afe1 8835 4b7e bab6
00000180: 9312 2136 d234 8eb4 1bc5 7cb6 33b7 c733
00000190: b2e0 8c36 f6da 4636 76e9 d3b5 936f 4a35
000001a0: 6a79 1d36 3697 e0b4 790e 39b5 66a8 5636
000001b0: dd0e f1b5 5e53 8ab5 dd58 e2b6 d75a 5fb7
000001c0: cbcc 07b7 b755 0037 d089 dcb6 25bd 3f37
000001d0: 382b 0bb7 7761 6337 2bfd 7e36 937a 52b7
000001e0: aa28 a836 4ea4 3637 f5cb 8cb5 810c 8eb6
000001f0: 626b 0e36 c5f6 3fb7 2e61 ecb5 0f63 c2b4
00000200: 0fcf 003a 0cbf a338 70c7 79ba eb64 a43a
00000210: ed10 dbb7 9e0c 83b9 3c71 2cba 3dcc 70ba
00000220: b62e e43a 297c 1c3a 1935 b138 b7ae 04ba
00000230: d86f 13bb 091f 043a 9e35 bd38 6462 3b3a
00000240: 97bf 1137 99db aa39 a6ac 1137 89fc 4eba
00000250: e98b 8c3a d54b deb9 a1a9 0e3a e3ce 4339
00000260: eb7b bd39 ec77 753a e0a2 fa38 5949 a239
00000270: 71e8 8b3a 3dc2 0eba ee09 55ba a182 c738
00000280: 3e2b 39ba 48b6 bbb9 83c6 1ab9 7030 2f3a
00000290: 0144 933a f5dd ebba 2cd9 87b9 f8d7 b939
000002a0: 0bef d539 f3bd 5538 357f 9b3a 6e43 96ba
000002b0: 8c16 6339 8864 f1b9 5307 d2b8 33f8 9e3a
000002c0: cfaf 65b9 a356 993a f3a9 a538 ee98 d4ba
000002d0: a94d bbba 163a a839 6558 e138 00ea 89b8
000002e0: e341 eb39 7b1c 2939 8660 8839 9c6c b2b9
000002f0: bed6 3ab8 bd81 e239 69e0 d138 68ba 3db9

transformer.layers.0.self_attn.out_proj.weight f4 [64, 64]
0.080841325 0.0663907 -0.11296428 -0.11650433 0.082454324 0.11930175 0.1193389 -0.09646846
0.03848434 -0.052301552 0.096100315 0.04278859 0.019545047 0.11570773 -0.07088056 0.005225189
0.016075443 -0.041818935 0.0895284 0.051001675 -0.038888074 0.11749007 -0.049295634 -0.0096501205
0.03561303 -0.11462641 -0.1223248 -0.10139981 0.033124622 0.04116462 -0.009119354 0.00020862717
-0.0705736 -0.06813915 0.059438344 -0.09473451 -0.026676979 -0.07052754 -0.0648245 0.06046593
-0.045856573 -0.121403396 -0.02040449 -0.10142242 0.11839371 0.049620055 -0.05565748 -0.101502836
0.09182669 -0.057559486 0.12520184 0.07442793 0.00448448 -0.039315335 -0.115043156 0.022383457
-0.035141602 -0.10764411 -0.07622486 -0.04292102 0.042243913 0.07680247 -0.07194812 -0.0054909745
0.076754905 -0.018531606 -0.056542918 0.09504004 0.1104531 0.009532188 -0.03662073 -0.02019411
0.027416978 0.103189886 0.043731913 0.07624209 0.08408016 0.021433631 0.03107743 -0.07550528
-0.11139396 0.038266595 -0.04769489 0.058887526 0.053249884 0.09046379 0.09981257 -0.11383765
0.04009815 0.019910378 -0.054457847 -0.07162851 0.03948976 0.0070981076 0.036437225 -0.10315739
0.101398215 -0.047815483 -0.03679263 0.03706678 0.03314147 -0.082219526 0.1191849 0.0017031626
-0.10653795 0.005299287 0.104096115 -0.06157915 0.039507423 0.052673 0.060311947 0.03567013
0.039959602 0.013777751 -0.072010145 -0.006792176 -0.008046902 0.019194776 -0.09667678 0.11463066
-0.040551435 -0.008133815 0.114108205 -0.06593314 0.023052584 -0.03361816 -0.12426423 -0.11454923
0.05339571 0.019848213 0.084541686 -0.067727424 0.03968068 -0.05610111 0.07954311 0.023322769
0.08229038 -0.09206271 0.049008816 0.08201032 0.04701262 0.118042074 0.092589654 0.040246982
-0.03137784 -0.054610685 -0.05172736 0.05746023 -0.08970471 0.07952044 -0.09813367 0.12047315
0.02162454 0.11855352 -0.11019993 0.051741328 -0.06801695 0.043381162 0.10616437 0.03120354
-0.0020581775 0.011252318 -0.060458858 -0.021533966 -0.08599216 -0.054147027 -0.00341114 0.03181469
0.015252217 0.0049235397 -0.05215238 -0.09461188 0.075474165 0.09456056 -0.11639202 -0.024478106
0.031244008 0.038035877 0.030867439 -0.054131392 0.10141203 0.022292923 -0.11772967 -0.024795737
-0.0959809 0.12237394 -0.037583064 0.09739827 0.12620956 0.036651935 0.038454942 0.09598972
-0.07091071 -0.052119423 -0.074064456 -0.039768405 -0.102878734 0.08787549 -0.013868153 0.0059242253
0.10167655 0.06130907 0.06108433 -0.087114275 -0.05161374 0.11684371 0.08749885 -0.0737571
0.028231852 0.042882185 -0.057643406 0.08001997 0.08245337 0.064509034 -0.0442378 -0.020774651
-0.06809281 0.07478771 -0.025752531 -0.07788394 0.07318756 0.009093992 -0.05010692 0.060007386
0.094084784 0.029757777 0.117705144 -0.027477657 -0.036786683 -0.060028702 0.07967377 0.048695624
0.080385566 -0.039351482 -0.03386464 0.114142604 0.032125384 0.0033612691 -0.017380323 -0.115515746
-0.042804055 -0.11746988 -0.09910744 0.046357956 0.12054127 0.093206085 0.11752846 -0.06497412
-0.021082621 0.00877463 0.088688806 0.09283077 -0.11699701 0.043106064 0.06644399 -0.012290634
00000000: 2390 a53d d9f7 873d d159 e7bd d299 eebd
00000010: d0dd a83d 7a54 f43d f467 f43d 4291 c5bd
00000020: c1a1 1d3d 273a 56bd 3ed0 c43d 1743 2f3d
00000030: ef1c a03c 2df8 ec3d d429 91bd 1038 ab3b
00000040: a6b0 833c 554a 2bbd aa5a b73d 22e7 503d
00000050: 1a49 1fbd a29e f03d 38ea 49bd 8a1b 1ebc
00000060: f8de 113d 40c1 eabd 6d85 fabd b4aa cfbd
00000070: afad 073d 3c9c 283d 5869 15bc eec2 5a39
00000080: e488 90bd 8a8c 8bbd 9f75 733d 2b04 c2bd
00000090: ae89 dabc be70 90bd b5c2 84bd 1fab 773d
000000a0: 1ad4 3bbd 58a2 f8bd 5127 a7bc 8fb6 cfbd
000000b0: 6778 f23d 663e 4b3d 19f9 63bd b8e0 cfbd
000000c0: a20f bc3d 7fc3 6bbd e934 003e ac6d 983d
000000d0: 8bf2 923b 1e09 21bd bf9b ebbd 835d b73c
000000e0: a4f0 0fbd 8474 dcbd c81b 9cbd f4cd 2fbd
000000f0: f407 2d3d 9d4a 9d3d 8959 93bd a2ed b3bb
00000100: ad31 9d3d 98cf 97bc 8c99 67bd 5aa4 c23d
00000110: 3c35 e23d e52c 1c3c 9eff 15bd 1e6e a5bc
00000120: 9299 e03c 3855 d33d 3c20 333d d024 9c3d
00000130: 3832 ac3d 9595 af3c 1896 fe3c 83a2 9abd
00000140: 8422 e4bd 6fbd 1c3d b85b 43bd 0c34 713d
00000150: 8d1c 5a3d 1445 b93d 886a cc3d b723 e9bd
00000160: f53d 243d 171b a33c 310f 5fbd f8b1 92bd
00000170: 04c0 213d 3e97 e83b 333f 153d 2f44 d3bd
00000180: dea9 cf3d 2bda 43bd deb3 16bd 56d3 173d
00000190: 5abf 073d b662 a8bd 3617 f43d a73c df3a
000001a0: 9230 dabd a4a5 ad3b 5830 d53d 6b3a 7cbd
000001b0: 89d2 213d a5bf 573d a909 773d d81a 123d
000001c0: aeac 233d 13bc 613c 0e7a 93bd e790 debb
000001d0: 27d7 03bc 5d3e 9d3c 7afe c5bd 7bc3 ea3d
000001e0: 4319 26bd b143 05bc 90b1 e93d f407 87bd
000001f0: c6d8 bc3c 32b3 09bd 3f7e febd c998 eabd
00000200: 76b5 5a3d b898 a23c 3124 ad3d adb4 8abd
00000210: 3588 223d 47ca 65bd 80e7 a23d 640f bf3c
00000220: dc87 a83d 608b bcbd 78bd 483d 07f5 a73d
00000230: 4e90 403d 0bc0 f13d a59f bd3d 05da 243d
00000240: 0d86 00bd 74af 5fbd 11e0 53bd 6b5b 6b3d
00000250: 1ab7 b7bd 9ddb a23d 4efa c8bd a0ba f63d
00000260: f325 b13c 30cc f23d 80b0 e1bd b7ee 533d
00000270: 784c 8bbd 72b0 313d b56c d93d 919e ff3c
00000280: 7de2 06bb a45b 383c b5a3 77bd 0068 b0bc
00000290: a81c b0bd 46c9 5dbd 6f8d 5fbb 1f50 023d
000002a0: 6fe4 793c a555 a13b bc9d 55bd e0c3 c1bd
000002b0: 3392 9a3d f8a8 c13d f05e eebd 4f86 c8bc
000002c0: 6ff3 ff3c 82cb 1b3d b6dd fc3c e1b8 5dbd
000002d0: 1cb1 cf3d a69f b63c 411c f1bd 6e20 cbbc
000002e0: a291 c4bd 309f fa3d b3f0 19bd bf78 c73d
000002f0: 143d 013e 5720 163d ee82 1d3d 4296 c43d
00000300: a239 91bd 2d7b 55bd 1baf 97bd 32e4 22bd
00000310: 16b2 d2bd 11f8 b33d 4037 63bc 0120 c23b
00000320: cc3b d03d 381f 7b3d 9033 7a3d f868 b2bd
00000330: ee68 53bd c14b ef3d 9932 b33d f60d 97bd
00000340: 7c46 e73c 3ba5 2f3d 7e1b 6cbd 83e1 a33d
00000350: 50dd a83d 501d 843d b232 35bd 9a2f aabc
00000360: 3e74 8bbd 4d2a 993d f9f6 d2bc 9d81 9fbd
00000370: 5ce3 953d f8fe 143c ea3c 4dbd 4eca 753d
00000380: 86af c03d 95c6 f33c 650f f13d d318 e1bc
00000390: a2ad 16bd a8e0 75bd 002c a33d 1075 473d
000003a0: 30a1 a43d 052f 21bd a6b5 0abd 99c3 e93d
000003b0: e895 033d bd48 5c3b 2e61 8ebc 8593 ecbd
000003c0: 4e53 2fbd 0c94 f0bd d7f8 cabd d7e1 3d3d
000003d0: 57de f63d d5e2 be3d c3b2 f03d 2711 85bd
000003e0: 76b5 acbc 77c3 0f3c 7aa2 b53d 0f1e be3d
000003f0: 219c efbd fc8f 303d c913 883d a85e 49bc
