results/model/model_5.pth (torch, 439799 bytes, 36 tensors)

cls_token f4 [1, 1, 64]
00000000: 3ef9 bc3e fe7c 573f b53e 27be 0c1d acbe
00000010: f887 333f 81f0 8dbf 8cc8 803f 6789 583d
00000020: 470e c73e 8aaf 10c0 5999 d1be 2fd8 35be
00000030: 788f 1c3f 5b7b a6bf 2d8f 3c40 acdf c2bf
00000040: 5029 0abe 288d bd3f 6830 36bf 6695 ed3e
00000050: 6c54 bcbe a616 183e 58d9 c73d 6ee6 d3bf
00000060: 5b0d 273e db6b 74bf 388e 283f 315a 473f
00000070: 2060 bdbd 6259 063f 9f2c d6be 04e7 02bf
00000080: 7032 1fbf d64f aebe b47b b0bf 3fb8 3d3e
00000090: 300b 613e 4aff 753f 568d 76be b2a3 84bf
000000a0: cc55 12bf 03fb c23d 514e f63f d75a 90bf
000000b0: 1f2f 60bf e1f8 9b3f a668 d0bf bfeb 61bf
000000c0: a8bd 80bf bf32 763d 6683 d5bf fcaa 88be
000000d0: 38ff 2bbf f092 48be c2dc 55be 9881 0f40
000000e0: ff5f 553d 6e9f cb3d 1284 7ebf e1ed 833f
000000f0: 88fe 87bf e5b9 5a3e 62e3 9ebf c90d 06bf
0.36908907 0.841751 -0.16332515 -0.3361591 0.70129347 -1.1089021 1.0061202 0.052865412
0.3887808 -2.260714 -0.40937307 -0.17758249 0.61156416 -1.3006395 2.9462388 -1.5224509
-0.13492322 1.4808702 -0.7116761 0.46403044 -0.3678316 0.1485239 0.09758252 -1.6554697
0.16313688 -0.95477074 0.6584201 0.77871996 -0.0924685 0.5248014 -0.41830918 -0.5113375
-0.62186337 -0.34045285 -1.3787751 0.18527316 0.21976924 0.96092665 -0.24077353 -1.0362456
-0.57162166 0.09520533 1.924265 -1.1277722 -0.875719 1.2185327 -1.6281936 -0.88250345
-1.0057878 0.06010699 -1.6680725 -0.2669295 -0.6718631 -0.19587302 -0.20884994 2.2422848
0.052093502 0.09942518 -0.99420273 1.030697 -1.0624552 0.21359976 -1.2413142 -0.52364784

input_proj.weight f4 [64, 28]
00000000: d098 5b3c 2568 3d3e c152 2c3c dbd6 ca3d
00000010: 379e 933d e066 ebbd 339b 973d 485e 71bd
00000020: da6a 933d a219 8cbd c962 19be 1a8a 3bbd
00000030: 7be4 47bd d541 01bd dd5f e03d 7896 a0bc
00000040: 93d3 4abd 0147 0c3e 4b6d fe3d 00dc abbd
00000050: 0806 8c3d 5327 f73d 3987 303d 227e 3abe
00000060: 275f 193e 7ab0 173e 229e cc3d f678 0fbe
00000070: 1ee0 1cbe a959 04bd 7f05 00be b729 63bc
00000080: 9178 b4bc 8f94 3cbe 541c c83d 81c4 4bbc
00000090: 107d 9a3d 8b9f 933d 95a3 cb3d aa21 6bba
000000a0: 9162 06be 77d5 303e 7fca 383d cb5a 473d
000000b0: 5539 2d3e 0280 2ebe 8272 993d a984 d93c
000000c0: 010d cfbc 33bf 2b3d 8ab1 c03c 1ce7 2f3e
000000d0: e70d e1bd c2bc ae3a 72f9 333e 775b 3ebe
000000e0: 81a3 ec3d d63c a23d e7f9 013e bf05 553d
000000f0: 1204 353e 6aff 0f3e 1490 0fbe 16d5 e0bd
00000100: cb3e dabd 42fd 98bd de2a 22bd 3dcb 9c3d
00000110: a298 f0bd 4ae9 0c3e 65be 14be a667 8ebb
00000120: 2a5f cc3d 4dc9 32be 2293 33be e1a1 02be
00000130: c0e0 66bb d164 e13d 1a6c 233d 32ec d73d
00000140: 1726 5cbc 28b0 fd3d 72c0 163e d4c3 af3c
00000150: a34e 2a3d ed7a 93bd b89d 83bc dc12 a5bd
00000160: 9c56 303e 7524 19be 930b 1a3e f51e 05be
00000170: ef4b 0a3e cc5b 2fbe dd06 4d3d 8f7c 803d
00000180: b5a2 34be 3e49 acbd 29aa d43c 3ccb 0c3e
00000190: a31c 1dbd d9ce 133e db71 fe3d 316b 213e
000001a0: 60dd c8bd a05e 06be 222e 09be 1207 5abd
000001b0: 1d17 763d cd1f 763d 979f 283e 6ac2 6fbd
000001c0: a3ca 623d 9962 0cbd c478 333e 4084 1f3c
000001d0: 9c17 04bd 50a5 2e3e be2d 75bd 1947 a7bc
000001e0: a639 febc 3eef efbd 4d82 4ebd 762e 9b3d
000001f0: 516c 09be 9fe4 23bc 7dad d0bc a5b4 023d
00000200: 0a06 133d d8ac 7bbd fc64 ba3b 4a5c d6bd
00000210: 08c4 99bd 481e edbd 20b9 2dbe 21c3 35be
00000220: 2194 163e 5e61 e8bd a69c 0e3e 71cd 103e
00000230: 4df4 173e 90e5 2dbe 0efd 0d3e 8295 fc3d
00000240: b6e1 59bd 2167 34bd f0d6 573b 4d87 1ebe
00000250: b61f b13d 7cd5 14be 4595 1f3e 1dea 563c
00000260: 2c32 06be 58ea da3c ca99 babd 78dd 50bd
00000270: 1755 3cbe 9242 0b3e 1f4b a13d 5323 a2bd
00000280: ea9d e6bd 9338 263e 2136 1b3e a78d 8fbd
00000290: da52 04be 4326 8bbc fea0 d43d b06f 2cbe
000002a0: 3025 2bbd 7131 a5bd 8a34 583d 1d23 73bd
000002b0: d35f 9cbd 16d3 da3d 39ee 47bd 7608 19be
000002c0: 1fb3 353e 5fef 8ebc 27f0 a6bc 54f9 0fbd
000002d0: b5a5 66bd f93f 3a3e 128e f73d 8fb6 f0bd
000002e0: 289d 403d daaa e73d e9b1 2b3e 8c9a acbd
000002f0: 5401 193d d5df ce3b dd94 35bd 7640 a6bb
00000300: 01b7 9bbd 2845 a53d 81ad 2ebd ef02 be3d
00000310: bf97 c63d a16d 293e dfad 39be 0c7e 933d
00000320: f9e2 afbd 8175 8d3d 6c15 413d b0f1 33bd
00000330: d68a 213e 4c2c 28be a9cc 953d 0f4c 323d
00000340: 4ec1 35be ecc8 1c3e e8c2 c43d a608 a8bd
00000350: 99c0 cd3d cece 623d 8ab6 ccbc 505b 3dbe
00000360: d02c abbd 1dff 2dbe 1649 02be e563 be3d
00000370: 9424 35bd de82 0e3e b4fb 31be 7966 cc3d
00000380: cc85 5bbd 9067 153e 0ec6 09be 5daf 0fbe
00000390: 4729 04be 953a e6bc 8620 103e 07ad 293e
000003a0: 68aa 153e 156c 80bd ed59 9f3d af9c fbbc
000003b0: 8320 0bbe 2a17 683d ce2e 36be d3c7 67bd
000003c0: 39e3 1bbc 02c0 fa3d b2ed cdbd 27c9 bb3b
000003d0: a5ea ba3d f5d4 eabc bd5c 9c3d a376 72bd
000003e0: f0ff 3ebc ba90 8f3c cceb 003e 67bb 6d3d
000003f0: 3c23 c4bd 53ca ecbd 95de 1cbe 41b4 60bd
0.013403133 0.18496759 0.010517777 0.09904262 0.072079115 -0.11494231 0.07402649 -0.058927804
0.07198115 -0.068408266 -0.1497909 -0.045786 -0.04880188 -0.031556923 0.109557845 -0.019603
-0.04951818 0.13698961 0.1242319 -0.08391571 0.06837088 0.120680474 0.04309771 -0.18212178
0.14977704 0.14813414 0.09991099 -0.14010987 -0.15319869 -0.03231207 -0.12502097 -0.013864926
-0.022030147 -0.18416046 0.09771028 -0.012436987 0.07543385 0.07208165 0.0994331 -0.0008969555
-0.13123538 0.1726893 0.04511499 0.04867057 0.16916402 -0.17041019 0.07492544 0.026552515
-0.025274755 0.04193039 0.023522157 0.17178005 -0.1098898 0.0013331401 0.17575625 -0.18589579
0.115546234 0.0792176 0.12692986 0.052007433 0.17677334 0.14062276 -0.14019805 -0.10978143
-0.10656508 -0.0747018 -0.039591663 0.07655952 -0.117478624 0.13760868 -0.14525755 -0.004345852
0.099790886 -0.17459603 -0.17536595 -0.12757064 -0.0035229176 0.11005557 0.039898016 0.105430976
-0.013436816 0.12387115 0.1472185 0.021455683 0.0415789 -0.072011806 -0.016066417 -0.08060238
0.17220539 -0.14955314 0.15043478 -0.1300009 0.13505529 -0.17124861 0.050055373 0.06273758
-0.17640193 -0.08412407 0.025960045 0.13749403 -0.03835739 0.14434375 0.1242406 0.15763547
-0.09807849 -0.13122034 -0.13396505 -0.0532294 0.060080636 0.06008892 0.16467129 -0.058535017
0.05536903 -0.034273718 0.17526537 0.009736121 -0.03224908 0.17055249 -0.059858076 -0.020419644
-0.031033348 -0.11715554 -0.050417233 0.07577221 -0.13420226 -0.010003238 -0.02547335 0.031910557
0.03589443 -0.061444134 0.005688308 -0.104668215 -0.07508093 -0.11578041 -0.16965151 -0.17750217
0.14704944 -0.11346696 0.13926944 0.1414087 0.14839287 -0.16982102 0.13866064 0.12333204
-0.05319377 -0.044043664 0.003293451 -0.154813 0.086486265 -0.14534563 0.15584286 0.01311734
-0.13105077 0.026723072 -0.09111364 -0.05099246 -0.18391834 0.13599613 0.07875656 -0.07916894
-0.112605885 0.16232519 0.15157367 -0.0700944 -0.1292223 -0.016986018 0.10382269 -0.1683948
-0.04178351 -0.08066071 0.05278448 -0.05935966 -0.076354645 0.10684793 -0.04881117 -0.14944634
0.1774411 -0.017448125 -0.020378185 -0.035149887 -0.056310374 0.18188466 0.12087645 -0.1175357
0.047024876 0.11311884 0.16767086 -0.08427915 0.037354782 0.006313304 -0.04433142 -0.0050736023
-0.076032646 0.08069831 -0.042645935 0.09277903 0.09696912 0.16545726 -0.18132733 0.07201776
-0.085882135 0.06907178 0.04713957 -0.043931663 0.15775618 -0.16423148 0.073144265 0.043529566
-0.17749521 0.1531102 0.09607488 -0.082047746 0.10046501 0.055373006 -0.024989385 -0.18491864
-0.08358157 -0.16991849 -0.12723193 0.09296397 -0.044224337 0.1391711 -0.17381173 0.099804826
-0.053594396 0.14590287 -0.13454458 -0.1403174 -0.12906371 -0.028104106 0.14074907 0.16569911
0.14615786 -0.06270615 0.07780824 -0.030714361 -0.13586621 0.056662716 -0.17791292 -0.05658705
-0.009514623 0.12243654 -0.100551024 0.0057307663 0.09126786 -0.028665999 0.07634876 -0.059195172
-0.0116577 0.017525066 0.1258995 0.05804005 -0.09577033 -0.11562028 -0.15319283 -0.054859404

input_proj.bias f4 [64]
00000000: 2033 3cbd 1bba 1bbd 2b1f 1d3d 5267 17be
00000010: fd06 d63d 4fdd b4bd 0a8e 8b3d c2e3 9dbd
00000020: 758e 6d3d 5406 e1bd fa4d 3d3d 8784 35bc
00000030: 772d 91bc 1629 e9bd 0b5a f8bc 3ac3 3cbd
00000040: 9cd2 033c 2551 cb3d dd0a 01be ab77 b0bd
00000050: c610 f03d ae07 ea3c a422 2dbe 5f82 b13c
00000060: 8600 bf3d 51a8 383e 2e8a cb3d e62e 6f3d
00000070: c291 803d 18a4 163e f6d6 1e3e c11f fc3d
00000080: 3974 1f3e 53ed adbd 12d2 583c dea3 ca3d
00000090: eb74 c13c c4aa 253d 91f3 2a3e 8ffd b03d
000000a0: 079d aebd ce9e 51bd 9da7 d23d 2034 fbbd
000000b0: ad58 8f3c 654e 393e c05e 343d 4e3b 0dbe
000000c0: 50ad c3bd d556 37be 6578 3abe 6200 283e
000000d0: 276b 423e a86e f4bd 74c5 6abd 59c7 b6bd
000000e0: f77c b7bd 1fb1 073d e981 753d ecaa 97ba
000000f0: fc10 0abe 5650 d83c 5265 4cbd 19ff 643d
-0.045947194 -0.03801928 0.038359802 -0.14785507 0.10450552 -0.08831274 0.06814201 -0.07709457
0.057997186 -0.10987535 0.046216942 -0.01107896 -0.017721875 -0.1138479 -0.030316373 -0.04608462
0.008045819 0.099275865 -0.126018 -0.08616575 0.11721949 0.028568115 -0.16907746 0.021668611
0.09326272 0.18032958 0.09938465 0.058394335 0.06277801 0.14711034 0.15511689 0.12310744
0.15571679 -0.084925316 0.013233678 0.098945364 0.023615321 0.040446058 0.16694476 0.086421125
-0.08526044 -0.05117684 0.10285876 -0.122658014 0.017498339 0.18096311 0.044035673 -0.13792154
-0.09554541 -0.17904218 -0.1820999 0.16406396 0.18986188 -0.119351685 -0.057317212 -0.08924741
-0.08959382 0.0331279 0.059938345 -0.0011571324 -0.13483042 0.026405495 -0.049901314 0.055907343

stock_emb.weight f4 [5, 64]
00000000: 2f3c 3c3f e8cd 8dbe 1856 603f 0f1a a2bf
00000010: 211e 8c3d f886 993f 0c5d 413f d14e 1a3d
00000020: 47ec 4cbf 8953 36be da14 d4bf 8cba bcbd
00000030: 529c 80bf bd93 a03f ff85 e03f d38d c23e
00000040: e2df 75bc fb99 05bf ce97 473d fff5 663f
00000050: 6ef2 cd3f ee76 843f d803 2cbf a347 afbe
00000060: f845 e03e 3afb b6bf 61de d9be 71d5 a5bf
00000070: 4828 88bf 7221 d6bf a9aa a9bf b929 1bbf
00000080: aadd 9c3f 5ea3 c7bf 4f6d 6ebe 6649 fa3e
00000090: 2450 8c3f c7a7 11c0 c53a 25bf 2ea0 a0be
000000a0: 2118 293f 7c90 dc3b 8653 fe3f 3b54 da3e
000000b0: 53bb aabf 03d4 663f afb3 a2bf 6910 0fbf
000000c0: 389a a8bf 8b51 c7be 448e 9dbf 370b 96bf
000000d0: fa96 92bf 6df3 60bf 761c 263f af2a 0cbf
000000e0: 26b7 873f 4071 5bbf 599b 8ebe 3a43 5bbf
000000f0: 93c2 babf 35bb b3bf 277b 6bbf 2532 2fbf
00000100: 16f9 2fbf b6b2 8dbf bdd7 d03e 4053 e13e
00000110: bf33 963e 722b ef3b 0aa4 1bc0 ef0c e1bd
00000120: ddec e23e f989 563e 8fde e23c 156a b33f
00000130: 588f 1ebf 832e 4cbf bb14 54bf 6e17 bfbe
00000140: 5b97 bcbf f7ff 83bf c05d ba3e 721c ab3e
00000150: c439 40bd 0488 6fbf 2ec9 1dbf 52c1 22bf
00000160: 4556 843f f84a dfb9 ce2d fcbd 935e 95be
00000170: e245 99be 3aa7 efbe ecfd 6a3f 5b47 d9be
00000180: e273 943f 9285 fbbe 6475 33bf dba4 43bf
00000190: 1893 8839 02e7 e03d 66c4 03bf 89b7 4dbd
000001a0: c6fe b0bf 5012 07c0 cc9f b73f bf25 a9bc
000001b0: 82ca 703f 0a14 573e ed11 fbbf 2473 6e3e
000001c0: 580b 353f 69a7 923f 9424 8ebe 0866 7dbf
000001d0: e88a 413f 42a8 033f 0043 3b40 2b7e 623f
000001e0: 9b86 b5bf 36dd 0cbf f7c2 a5bf 6ca1 92be
000001f0: 6ae1 563e c348 3cbe 32b7 ea3f 7e10 a2bf
00000200: 4a31 36be 2c6d 6dbf d310 2cbe e437 533f
00000210: 12cb 9b3c f2b6 293f c482 2c3f 3caf 31bf
00000220: eb7e 1b3f 2d6d d53f 4c1b 9abf e3de 5a3f
00000230: 3003 9ebf 294d a33f 3a96 0f3e 2dad aa3e
00000240: 7ad1 8bbf 21c6 31bf 78ce 0f3e 5914 b5bd
00000250: 36bd a13f 2ab9 9dbf d401 d63f 1a61 95bf
00000260: 4b9f c2be 4dbb ddbe ea92 eebe 11c6 943f
00000270: 8730 ab3e bf2e bbbe 4b73 d8bf 876c 5a3e
00000280: e2f2 67bd 0d50 15c0 6219 84bf 36aa 7fbe
00000290: f1af 50bf 7d21 b8be a0dd b03e 2cea 83be
000002a0: ae6a b4bf 04f2 8fbe 0efe 1240 26c2 01bf
000002b0: f70d 47bf c704 103f d352 a3bf b4c8 89be
000002c0: b9f9 4cbf 0026 13c0 39e9 f1bf 23e6 113f
000002d0: 9c4a 4b3e 3206 5940 9cb6 c83e 15f6 823f
000002e0: 7851 ac3e 176f c63f 0b31 e3bf 5498 f1be
000002f0: c156 2cbf 4706 18bf 1907 57bf 15a7 233f
00000300: 566e 93bf a777 dbbf f4bd 323f 7902 91bf
00000310: 7d9c f3bf 9671 173f 331f 43bd e98a 81bf
00000320: 530b 063e 69c2 35bf 9ec3 09be a99e 863f
00000330: de2f 4e3f 39fc 3b3f f5c0 6f3e e216 913f
00000340: 6c4b 9e3e 7bc4 6bbf f735 a13e a98e b43d
00000350: 1e7f 3cbf f00a 98bf 59b7 97be 11b9 4b3f
00000360: 7611 e03f 1eff 023f baac 09be ec97 debe
00000370: 0672 11be 65ce cc3e 3a6d 8b3e 5610 ca3f
00000380: afe3 88be 5e7f 7d3f a7f6 f3be 7fac 92be
00000390: cd96 4dbf 391b 443f 5c19 1540 8e2b 813f
000003a0: 8b93 0a3f 65d2 1fbf cf73 353f 92c9 813f
000003b0: b2c4 dcbe 6dd3 c93f fc37 99bf 3d17 f4be
000003c0: f2d6 a43f 2537 5d3c e49c 0ebf 9170 c0be
000003d0: 324a 003f f8c5 873f 67bb 13bf a26e 153f
000003e0: dcf4 3cbf 1818 3f3f 20c7 b8bf 77e1 d0be
000003f0: 3d47 cf3e a0de 663f f192 5cbf c9f7 7dbf
0.7352933 -0.27696157 0.8763137 -1.2664202 0.06841684 1.1994314 0.75532603 0.03767282
-0.8004803 -0.17805304 -1.6568863 -0.092152685 -1.0047705 1.2545086 1.7540892 0.37998828
-0.015006991 -0.5218808 0.048728757 0.9021911 1.6089609 1.0348794 -0.67193365 -0.34234342
0.43803382 -1.4295418 -0.42552474 -1.2955762 -1.0637293 -1.6728957 -1.3255206 -0.6061054
1.2255147 -1.5596731 -0.23283885 0.48884124 1.0961957 -2.2758653 -0.645428 -0.31372207
0.6605244 0.006731091 1.9869239 0.42642388 -1.3338417 0.90167254 -1.2711085 -0.55884415
-1.3172064 -0.389294 -1.2309041 -1.1722172 -1.1452324 -0.8787144 0.6488718 -0.5475263
1.0602767 -0.8571968 -0.27852896 -0.85649455 -1.4590629 -1.4041506 -0.9198479 -0.6843589
-0.6873945 -1.1070163 0.40789595 0.44008827 0.29336354 0.0072988803 -2.4318871 -0.10988795
0.44321337 0.2095107 0.027694015 1.4016749 -0.61937475 -0.7975847 -0.8284413 -0.37322563
-1.473369 -1.0312489 0.3639965 0.3342014 -0.04693009 -0.9356692 -0.616351 -0.63576233
1.0338827 -0.0004258973 -0.12313424 -0.29173717 -0.2993613 -0.4680727 0.91793704 -0.42437252
1.1597865 -0.49125344 -0.70101 -0.76423424 0.00026049535 0.10981561 -0.51471555 -0.05022386
-1.3827751 -2.1104927 1.4345641 -0.020647882 0.94059 0.21003738 -1.9614846 0.2328611
0.70720434 1.145734 -0.27762282 -0.9898381 0.7560258 0.51428616 2.9259644 0.8847377
-1.4181703 -0.5502504 -1.2950124 -0.2863878 0.20984426 -0.18387131 1.8337157 -1.2661283
-0.1779224 -0.9274471 -0.16803293 0.8250716 0.01901773 0.6629478 0.6738703 -0.6940801
0.60740536 1.6673943 -1.203958 0.8549635 -1.2344723 1.2757922 0.1402215 0.33335248
-1.0923302 -0.69442946 0.14043605 -0.08841772 1.2635868 -1.2322133 1.6719308 -1.1670258
-0.38012156 -0.43306962 -0.46596462 1.1622945 0.3343546 -0.36559102 -1.6910185 0.21330462
-0.056628115 -2.333011 -1.0320246 -0.24967274 -0.81518465 -0.3596305 0.34544086 -0.25764596
-1.4095056 -0.2811433 2.2967563 -0.5068687 -0.77755684 0.5625729 -1.2759651 -0.26910937
-0.80068547 -2.2991943 -1.8899299 0.56991786 0.1985268 3.3910031 0.3920182 1.0231348
0.33655906 1.5502652 -1.7749342 -0.4718653 -0.67319876 -0.5938458 -0.83995205 0.6392682
-1.1518047 -1.714589 0.69821095 -1.132888 -1.9032131 0.59157693 -0.047637176 -1.0120517
0.13090257 -0.7099977 -0.13453528 1.0517169 0.8054179 0.73431736 0.23413451 1.1335108
0.30916917 -0.9209668 0.31486484 0.08816273 -0.73631465 -1.1878338 -0.2963207 0.79579264
1.7505329 0.5117053 -0.13444796 -0.43475282 -0.14203653 0.40001217 0.2723177 1.5786235
-0.2673621 0.9902247 -0.47649118 -0.2864723 -0.8030823 0.7660404 2.3296728 1.0091417
0.5413138 -0.6243041 0.70879835 1.0139639 -0.43118817 1.5767647 -1.197021 -0.4767398
1.2878096 0.013501917 -0.55708146 -0.3758588 0.50113213 1.060729 -0.5770783 0.5837194
-0.73811126 0.7464614 -1.4435768 -0.40797016 0.40484038 0.9018345 -0.86161715 -0.99206215

stock_proj.weight f4 [64, 64]
00000000: 4b66 9dbd 201a 96bd ffe4 60bd 542b 573d
00000010: bc30 d93d 7458 5a3d 9141 e73d b8e4 31bd
00000020: 968a d03d 3a6d a03d 9746 f13d 5662 be3d
00000030: 5726 073b 11ac f9bd 6897 fcbd 5e4a abbc
00000040: 319b aa3d 9900 6dbc fc3c 82bd d8e3 353d
00000050: 6b9c 10bd 3eec dd3c 0388 e13d 4ef3 3dbb
00000060: 50fd cebd 203d c8bd 99e7 633d ae6d a63d
00000070: fd1b 373d 5e84 64bd 9a5c 853d ffe0 dcbd
00000080: 8e07 ccbd 3abf c0bb 25d0 af3d aae1 27bd
00000090: 43a6 4d3d c091 b6bc 9c77 2bbd 2f4d 0c3c
000000a0: 222d 3a3d 598f 71bd 9aee 6c3d 619d 3cbd
000000b0: 29de 593c ba8b 443d e997 9fbc 4ad3 863c
000000c0: c3ed cb3d ad7c 8f3c e9d2 b63d e3f2 413d
000000d0: 5aab b0bd 93e1 bebd 4724 96bc 09c3 293d
000000e0: 90e9 213d 584d f3bd e6cb d0bd 9194 0abd
000000f0: cd1d b8bd d025 b5bd e7e2 22ba 1039 b6bd
00000100: 4673 e4bd ce96 8a3d e8bb f3bd 6563 d83d
00000110: 250f 34bc 8ba6 3bbd a6b4 ebbc 3c69 e73d
00000120: 3293 a83d cf54 d0bd 7bf0 b8bd 4e29 68bc
00000130: c434 cd3d 9c2f e83d 9328 4e3c 6511 113c
00000140: a91b cc3c f535 dbbc cf95 c53d a93b a6bd
00000150: f55c 7c3d fa0c b13c d924 78bd 627b b63d
00000160: e7ae 44bd 0351 f83c 97fb cdbd f381 623d
00000170: c721 aa3c 0ea6 bb3d 7850 483b dc21 673b
00000180: ac46 17bd 54a3 3abd 35ec fabd 21d6 d0bd
00000190: 9dd1 d73c 841b 10bc 1921 753d 204a 013d
000001a0: 0b51 b93c d0af c93d b739 38bd f4b3 123d
000001b0: 42f8 ed3d ec3a b83d b83c b93d f9f1 213d
000001c0: 893f c43d a8d8 4bbd fa5d 463d 66e7 c2bc
000001d0: 599c 7ebd 62f8 8c3c 3ff8 d7bc 8ba0 df3d
000001e0: 1b10 aabd db09 c9bd 307e 3e3d 9062 c13d
000001f0: 8cd4 dcbd e33a 9f3d 186d f13d 9bc0 f0bd
00000200: 0d73 e4bd ef50 b43d c3b5 4d3c ce4f 19bd
00000210: 94c3 bcbd d7a2 143d 82c5 a1bd d0b0 df3c
00000220: e0f9 c2bd f91f 7b3d e6d3 a13c 9682 693d
00000230: f561 89bd 197f a43d 6593 bdbd 8e31 c13d
00000240: a91f 46bd b19b 9d3d 1a9b aabd c57d d53d
00000250: c17b c83d dbfa e0bd 60aa d8bd c7d9 fa3d
00000260: c92b 043d a4a3 eb3c 21d6 75bd e31d e4bd
00000270: 4068 95bd 1461 00bd 6f48 34bd a19b 313d
00000280: 95f9 e4bd 2477 4239 34e5 e5bc be2a 2e3d
00000290: aa00 85bd d09a f0bd 716e aa3d 8a39 7a3d
000002a0: bd34 b13c 94e4 6bbc eaa3 873d 0252 ea3d
000002b0: dc73 a0bd 9f6b a83c 7b78 863d b354 97bd
000002c0: 9c57 ea3d 194c 42bd 9466 75bd a05a c83d
000002d0: 7ca6 333d e7ab b53d 3307 71bb aa9a e7bd
000002e0: 87e8 f53d afcd bfbd 04bd 5fbd 5d79 d63d
000002f0: 7492 ffbc 17e5 fabd b147 91bc 3373 9f3b
00000300: 5b99 ffbc 0de5 a4bc 7b41 963d 54cf 49bd
00000310: e529 c23d c03d f23d b161 d83d acf5 d7bd
00000320: 2cea 133d 8b47 41bd 8707 3a3d 2b2f e33a
00000330: 3dde 3f3d 01fc 843c 453b fe3c a6cd a73c
00000340: aa49 ccbc 8515 69bd 0d8a 513d 5c73 11bd
00000350: c743 ddbd cff2 e2bd 351e 393d 8a62 b0bd
00000360: 2eb6 b03d 552c 983c ef64 be3d abe0 023d
00000370: fca0 013e 9751 ab3d 1b25 5fbc e5f0 35bd
00000380: 250d b1bc 8719 e73d 30f4 41bd fa99 df3d
00000390: 1a14 373d a427 cbbd 7cce f33c 192b 923d
000003a0: cb6b 8dbd 57d7 f5bd bd88 053d cca2 e4bd
000003b0: e543 e73d a415 3838 c0ee f33b 2b9a 8b3d
000003c0: a5a4 c43c 193c f3bd 4bdf 803d bde0 253d
000003d0: 03ab e43d 7389 da3c 3e11 a5bd 7a38 c53d
000003e0: 0d80 4f3c 77d8 fabd b25c 153d 9453 48bd
000003f0: e544 5cbd c9f9 683d 8978 fd3a 2aa6 bdbc
-0.076855265 -0.07329202 -0.054905888 0.052531555 0.106049985 0.05330701 0.11291803 -0.043431014
0.10182683 0.07833333 0.11781042 0.092961 0.0020622218 -0.12191022 -0.12333566 -0.020909484
0.08330382 -0.0144654745 -0.06359288 0.04440674 -0.03530542 0.027090188 0.1101227 -0.0028984132
-0.10106909 -0.09777284 0.05564079 0.081263885 0.044704426 -0.055790298 0.06511803 -0.10785102
-0.099623784 -0.005882171 0.08584622 -0.040986694 0.050207388 -0.022286296 -0.041862115 0.008563324
0.0454532 -0.058974598 0.057844736 -0.046048526 0.013297596 0.047984816 -0.019481616 0.016458172
0.09957459 0.017515505 0.08926947 0.047350775 -0.08626433 -0.093203686 -0.018327845 0.041445766
0.039529383 -0.118799865 -0.101951405 -0.03383309 -0.08990059 -0.08845103 -0.00062136207 -0.088976026
-0.11154799 0.06767045 -0.11901075 0.10565833 -0.010989939 -0.045813125 -0.028772663 0.11299369
0.082312 -0.10172426 -0.09030243 -0.014170004 0.1001983 0.11337206 0.012582916 0.008854245
0.024915533 -0.026759127 0.09647714 -0.08116848 0.06161209 0.021612633 -0.060582016 0.08910252
-0.048018362 0.030312067 -0.100577526 0.05529971 0.02076806 0.09162532 0.0030565541 0.0035267984
-0.036932632 -0.045565918 -0.12252084 -0.10197092 0.026345069 -0.008795623 0.059846018 0.03156483
0.022621652 0.09847987 -0.044976916 0.035816148 0.11619617 0.089956135 0.09044784 0.039537404
0.09582431 -0.049767166 0.048429467 -0.02379198 -0.062160823 0.017208282 -0.02636349 0.10919293
-0.08303853 -0.09816333 0.04650706 0.094426274 -0.107827276 0.077749036 0.11788386 -0.117554866
-0.11154757 0.08804499 0.012555542 -0.037429623 -0.09216991 0.03628811 -0.07899 0.02730599
-0.09520316 0.06130979 0.019754361 0.057009302 -0.06708137 0.080320545 -0.09256629 0.0943328
-0.048370037 0.076957114 -0.083303645 0.10424379 0.09789229 -0.10985347 -0.105793715 0.12248569
0.03226832 0.028764553 -0.060018662 -0.11138513 -0.07295275 -0.03134258 -0.04401439 0.04336131
-0.111804165 0.00018545665 -0.028063394 0.04252123 -0.06494267 -0.11748278 0.08321846 0.06109003
0.021631593 -0.014397759 0.06623061 0.11441423 -0.078345984 0.02055913 0.065659486 -0.07389202
0.114424914 -0.047435854 -0.05991228 0.0978291 0.043859944 0.088706784 -0.0036777973 -0.11308797
0.12007242 -0.09365403 -0.05462362 0.10472367 -0.031197764 -0.12250727 -0.01773438 0.0048660277
-0.031201055 -0.020128751 0.07336708 -0.04926999 0.09480647 0.11828184 0.10565508 -0.10544905
0.036111996 -0.04718737 0.045417335 0.0017332783 0.046842802 0.016233446 0.031034121 0.020483803
-0.02493747 -0.05690529 0.051157046 -0.035510406 -0.10803943 -0.11081468 0.045194823 -0.08612545
0.08628498 0.018575827 0.09296595 0.03195254 0.12659067 0.083651714 -0.0136196865 -0.044419188
-0.021612713 0.11284166 -0.047352016 0.109180406 0.044696905 -0.0991967 0.029761545 0.071371265
-0.069053255 -0.120039634 0.032601107 -0.111638635 0.11292247 4.3889173e-05 0.0074442327 0.068165146
0.02400429 -0.11876697 0.0629259 0.04049753 0.111654304 0.026676869 -0.08059929 0.09629913
0.012664807 -0.12248319 0.036465354 -0.04890783 -0.05377664 0.05687884 0.001933829 -0.023150522

stock_proj.bias f4 [64]
00000000: 3618 bebd e88d cb3c 58f9 80bd bafa fcbd
00000010: 9762 b13d 9c11 a63c 0aa2 b43c 76ac 9d3d
00000020: 8f55 203b 3117 1fbd 9ca4 883d 8488 4b3d
00000030: 420a ec3d 4499 49bd e275 a73c 25e3 ebbd
00000040: fdd3 59bd 05aa 983d c70f 82bc c651 4fbd
00000050: 35da ae3d 6c3a f53d a294 de3d 4b07 723c
00000060: 8441 073d 62e0 12bd 0480 34bd f80c debd
00000070: 7ca5 debd 5123 953d d269 f4bd 4ce5 243d
00000080: e112 93bd 97f3 49bd 8ffa 1e3d db0a 933d
00000090: 0101 b9bd b3bb 8cbd 5da8 c1bd c714 9abd
000000a0: 2fbc a53c f6d3 7f3b a369 843c 52a1 e43c
000000b0: 3c74 c23b 4bbf 79bd 22c4 fc3c da7e 6fbc
000000c0: 38dc 6f3d b696 7fbc 39ee e9bd 54cc 7f3d
000000d0: 798d 003e 5618 cf3d f6ee 783d e809 f638
000000e0: 580a 1bbd b249 063d 8fa9 a33d 1bbc e73d
000000f0: 85bf eabd 1ca1 79bd f0c1 78bd 3602 463d
-0.092819616 0.02484794 -0.062975585 -0.1235251 0.08661383 0.020272069 0.022049922 0.0769891
0.002446506 -0.038840476 0.06672022 0.04969074 0.11525394 -0.04921843 0.020441953 -0.11517934
-0.053180683 0.07454304 -0.015876664 -0.050615095 0.085377134 0.11974034 0.10868193 0.014772247
0.033021465 -0.03585852 -0.044067398 -0.10842317 -0.108714074 0.07282127 -0.11934246 0.040257737
-0.07181335 -0.04930457 0.03881317 0.07179805 -0.090333946 -0.06871738 -0.09455941 -0.07523494
0.020231334 0.003903625 0.016163653 0.027908955 0.0059342664 -0.060973447 0.030855242 -0.014617646
0.058559626 -0.015599897 -0.114223905 0.06245072 0.12553968 0.101120636 0.060774766 0.00011732039
-0.03785166 0.032785125 0.07991325 0.11315175 -0.11462311 -0.06094466 -0.06073183 0.048341952

pre_ln.weight f4 [64]
00000000: 28f8 7f3f 0000 803f 2331 803f 0000 803f
00000010: 5efc 7f3f 0000 803f e3f1 7f3f 0000 803f
00000020: 4231 803f 0000 803f 7f36 7f3f 0000 803f
00000030: 4fe7 7f3f 0000 803f 4812 803f 0000 803f
00000040: 8bf7 7f3f 0000 803f 7ca3 7f3f 0000 803f
00000050: 8ea5 7f3f 0000 803f 750b 803f 0000 803f
00000060: be03 803f 0000 803f b705 803f 0000 803f
00000070: 7cdb 7f3f 0000 803f 77d8 7f3f 0000 803f
00000080: c714 803f 0000 803f 4500 803f 0000 803f
00000090: 6726 803f 0000 803f 8a01 803f 0000 803f
000000a0: 3a9f 7f3f 0000 803f 2cd9 7f3f 0000 803f
000000b0: 8f9a 7f3f 0000 803f e5d5 7f3f 0000 803f
000000c0: fd3b 803f 0000 803f b669 7f3f 0000 803f
000000d0: 803a 803f 0000 803f 9501 803f 0000 803f
000000e0: 2b36 803f 0000 803f 5197 7f3f 0000 803f
000000f0: 3634 803f 0000 803f 7f03 803f 0000 803f
0.9998803 1.0 1.0014995 1.0 0.99994457 1.0 0.99978465 1.0
1.0015032 1.0 0.9969253 1.0 0.99962324 1.0 1.0005579 1.0
0.99987096 1.0 0.9985883 1.0 0.9986199 1.0 1.0003496 1.0
1.0001142 1.0 1.0001744 1.0 0.9994428 1.0 0.99939674 1.0
1.0006341 1.0 1.0000082 1.0 1.001172 1.0 1.000047 1.0
0.99852335 1.0 0.99940753 1.0 0.9984521 1.0 0.9993575 1.0
1.0018307 1.0 0.9977068 1.0 1.0017853 1.0 1.0000483 1.0
1.0016531 1.0 0.99840266 1.0 1.0015934 1.0 1.0001067 1.0

pre_ln.bias f4 [64]
00000000: 9b2b 8839 0000 0000 693e b13a 0000 0000
00000010: aacf 9f39 0000 0000 513b 30ba 0000 0000
00000020: 2a74 5639 0000 0000 f980 ad39 0000 0000
00000030: 717f 8d3a 0000 0000 4966 2d3a 0000 0000
00000040: 314f 3539 0000 0000 11d4 0dba 0000 0000
00000050: e3f7 783a 0000 0000 ae1c 8dba 0000 0000
00000060: 4f63 d7b9 0000 0000 c5db fc39 0000 0000
00000070: 498c ae3a 0000 0000 c127 13ba 0000 0000
00000080: f9cf 9d3a 0000 0000 0b73 17ba 0000 0000
00000090: cb5b b239 0000 0000 d2cf 00bb 0000 0000
000000a0: 5cc3 aab7 0000 0000 d36c 3639 0000 0000
000000b0: 5a29 973a 0000 0000 fe07 92ba 0000 0000
000000c0: 8fab 743a 0000 0000 f3b1 873a 0000 0000
000000d0: 6d0a fc3a 0000 0000 502b 85ba 0000 0000
000000e0: 9a2e 76b9 0000 0000 feac 12ba 0000 0000
000000f0: 56c7 e639 0000 0000 8b7b 43ba 0000 0000
0.0002597243 0.0 0.0013522628 0.0 0.00030481565 0.0 -0.0006722706 0.0
0.00020451905 0.0 0.00033093223 0.0 0.0010795427 0.0 0.0006614668 0.0
0.00017291006 0.0 -0.00054103235 0.0 0.0009497387 0.0 -0.0010765994 0.0
-0.00041081986 0.0 0.00048228927 0.0 0.0013316955 0.0 -0.0005613529 0.0
0.001204013 0.0 -0.00057773356 0.0 0.00034019197 0.0 -0.001965512 0.0
-2.035655e-05 0.0 0.00017397413 0.0 0.001153271 0.0 -0.0011141298 0.0
0.00093334256 0.0 0.0010352716 0.0 0.0019229181 0.0 -0.0010160003 0.0
-0.00023477749 0.0 -0.0005595236 0.0 0.00044017535 0.0 -0.0007457069 0.0

regime_proj.weight f4 [64, 3]
00000000: 7d24 f93e d8ee af3e 15f7 0dbf 9375 433d
00000010: 9d3c 8e3c 56ad c43e cbf0 e03c 6148 a43e
00000020: 73d0 6dbe 59f9 b5be 0d47 18bd 6aa5 f4be
00000030: 8e2c 853e 1ec9 783e 1019 9b3e b2d7 67be
00000040: ab78 10bf 96f6 34bc 4402 96be c249 0c3e
00000050: 63b5 b6be 38f2 1dbe 2171 debe bc63 fa3c
00000060: 85c6 6dbe 9281 e03d 836d 9ebe 229e dc3e
00000070: 1dc7 b1be 8a2c e43e 6850 453d eac7 c6be
00000080: 68dc 0bbf 2f30 c23e 8aa0 32be 95ef 7f3e
00000090: e785 d1be a401 eebe 26ef 8dbc d39a d1bd
000000a0: b48a ce3e d90d 233c a893 a63e 6784 99bd
000000b0: 7f1d 4cbe d386 5fbe eb9c 87be eb1a 2dbe
000000c0: 85fd d2be 4173 cfbd bb23 e23e d7fd 6c3e
000000d0: 5c5d fe3e b8e8 833e b86c 9d3e aeb1 69be
000000e0: f0ee c33e 1c8c 26be d2ec 88be baf7 06bf
000000f0: a4d6 4bbe ebd1 f23e e42f 2fbe 1ec2 fd3e
00000100: 85b9 57be 06fc dabe 064c f3be 53f9 da3e
00000110: 3e74 3fbe 8f48 d73d 98f7 a33e 1c32 edbe
00000120: c4e6 463e 037f eabe f05b 1f3e d4d5 dbbd
00000130: 5565 893b 1ad5 d43e ea50 8bbd 2fcb 8abd
00000140: 1cac 05bf d1dc b93e e1c3 b63e 1dde c53d
00000150: f01f 08bf cba4 e5be f6f5 933e 3978 3d3e
00000160: 1e67 55bd c7c7 2dbe 2fd9 883d ace4 b73e
00000170: 7f85 0dbf 71c5 d33e 496e 07bf c4ea 013f
00000180: ca04 883e 5ee8 ef3e 3bd2 2e3e 81d2 06bd
00000190: 825f 3e3e b3f4 fd3e c024 933e 5fbd 9cbe
000001a0: 53eb 083e 4d1f 023f 4fcb a2bc 3a1f 8f3c
000001b0: 450b e4be 67d2 cd3e 5a07 023f 626b b9be
000001c0: e3f3 f23e bd77 713c ad4f 9f3e 6fdd 72be
000001d0: 8b92 b83d 992c 2e3e da17 fa3d 2763 0e3d
000001e0: 61f3 533c 6fb0 70be 0c29 0ebf 0cf5 bb3e
000001f0: ebf1 ae3e 4053 f7be 5d47 cc3e 33bb a8be
00000200: 09d1 823e a6da 133e ca55 bcbe 7328 fabd
00000210: 25d0 42be a5b4 0e3f 99e2 98be bec1 203d
00000220: e26d b7be c389 b13e e919 2abe 6f78 c5be
00000230: 798f 083f 1035 00bd 2658 0fbf 1e7a efbd
00000240: a8c1 edbe 1062 b13e 10e0 8cbe 10e5 fa3a
00000250: aad6 31bc 0e55 a7be 99aa 003f 18fd 8fbe
00000260: 6407 c5be 0349 9cbe 8247 553e f92c f5be
00000270: 5c1a 58bd a590 a6bd b8d5 003f 77bc f83e
00000280: dc12 36bd 57d9 d23c 7b89 a33d 9362 a6be
00000290: e033 27be a363 e1be 7874 f8be 48f7 5b3e
000002a0: 8b17 0f3f d95d eb3d d53c 7a3e 4ecc 743e
000002b0: 450b ccbe 1a73 e83e 41cb 733e c703 89bd
000002c0: 47a8 55be c122 0a3f ee91 38be a675 793e
000002d0: 71a9 c73e 63ac 03bf 9f31 9e3e 75a0 243e
000002e0: 0f5a 0e3f a455 44be 8f5e 0c3f 9d85 8dbd
000002f0: d5fd 1f3e b46f 863e 0688 e7be d715 403e
0.4866065 0.3436191 -0.5545514 0.04771955 0.017362887 0.38413495 0.027458569 0.3208647
-0.23224048 -0.355418 -0.037177134 -0.4778245 0.26010555 0.2429547 0.3029256 -0.22640875
-0.56434125 -0.011045119 -0.29298604 0.13700011 -0.35685262 -0.1542443 -0.43445686 0.030565135
-0.2322026 0.109622136 -0.30942926 0.43089396 -0.34722224 0.4456523 0.048172385 -0.38824397
-0.5463319 0.37927386 -0.17444053 0.24993737 -0.40922472 -0.46485627 -0.017325949 -0.102346085
0.40340197 0.009952032 0.32534528 -0.07495957 -0.19933127 -0.21828775 -0.26486906 -0.169048
-0.41209045 -0.10129405 0.44167885 0.23143707 0.49680603 0.25763488 0.30747008 -0.22821686
0.38268232 -0.16264385 -0.2674318 -0.5272175 -0.19906098 0.4742578 -0.17108113 0.49562162
-0.21066864 -0.42770404 -0.4751894 0.42768344 -0.18696687 0.10511886 0.32024837 -0.46327293
0.19423968 -0.45800027 0.15562415 -0.10734144 0.004192988 0.41568834 -0.068025425 -0.067770354
-0.52215743 0.36301282 0.3569632 0.09661505 -0.5317373 -0.4485229 0.2889859 0.18502893
-0.052100293 -0.1697074 0.066820495 0.3591665 -0.55281824 0.41361573 -0.52902657 0.5074885
0.26566154 0.4685697 0.17072384 -0.032915596 0.18591121 0.49600753 0.28738976 -0.3061323
0.13371019 0.5082901 -0.019872336 0.017470945 -0.44539848 0.40199587 0.5079247 -0.3621474
0.47451696 0.0147380205 0.31115475 -0.23717283 0.09012326 0.170092 0.122115806 0.034762528
0.012936444 -0.23504804 -0.5553138 0.36710393 0.34168944 -0.48305702 0.39898196 -0.32955322
0.25550106 0.14438877 -0.36784202 -0.12214746 -0.19024713 0.5574439 -0.2986038 0.039247267
-0.3582602 0.34675416 -0.16611446 -0.38568446 0.5334392 -0.031300604 -0.5599388 -0.11693214
-0.4643681 0.34645128 -0.27514696 0.0019141752 -0.010854403 -0.3268208 0.5026031 -0.28122783
-0.384822 -0.30524454 0.2082806 -0.47885874 -0.052759513 -0.081330575 0.5032611 0.48581287
-0.04445158 0.025738401 0.07985207 -0.3249708 -0.16328382 -0.4402133 -0.4852636 0.21481049
0.558953 0.114925094 0.24437268 0.23906061 -0.39852348 0.45400316 0.23808004 -0.066901736
-0.20864974 0.5395928 -0.18024418 0.24361286 0.3899646 -0.51434916 0.30897233 0.16076834
0.5560617 -0.19173294 0.54831785 -0.0691025 0.15624173 0.26257098 -0.45220965 0.18758331

regime_proj.bias f4 [64]
00000000: 5122 c63e b867 a83d 75aa 96be 26ed e5bd
00000010: 1f93 dd3e e081 a03c f185 983e 5360 a0be
00000020: a6ec 42be e78f 49be fe28 8c3d e09b 72be
00000030: ff36 f6be c21b 96be 637f 00bf bf47 3f3d
00000040: 19e5 09bb 8dd0 fdbd c8c3 82bc 3ca1 d5be
00000050: 84f6 fb3e cca6 92be 2b0f 7b3d 3bd6 ae3e
00000060: 5c51 a4bd e295 6e3b 4ec9 ebbe 605f 9d3e
00000070: 886d 4cbe db75 06bf 1162 8a3d 4fe1 c8bd
00000080: 2dc8 26bd 886c 0f3f e70a e5be f5de f13e
00000090: 7a0d bf3e fee7 50be 56da 65be 1ce1 153d
000000a0: f5f3 e33e 71f2 f23e f67d 5bbe bbe1 b7be
000000b0: 00a3 553d b574 8dbc 4dc7 f93e 8d90 aabe
000000c0: 0ffa 2abe b5dd a93e f08a 10be 800b a33d
000000d0: 481c 343e 6e40 a6be 250e 4c3e 0ed0 db3d
000000e0: 3b14 053e 1505 0bbf c7a1 84be 2800 a83e
000000f0: ccf2 c9be 5205 b0be 373e 8f3e 9e71 de3e
0.38698056 0.08222908 -0.29426923 -0.11226873 0.43276307 0.01959318 0.2978969 -0.3132349
-0.19035587 -0.196838 0.06843756 -0.23692274 -0.48088834 -0.29318053 -0.50194377 0.04669928
-0.0021041094 -0.123932935 -0.015962496 -0.41724575 0.49211514 -0.2864288 0.061293762 0.3414782
-0.080233306 0.0036405255 -0.4605202 0.30736828 -0.19963658 -0.52523583 0.06756986 -0.09808599
-0.040718246 0.5602498 -0.4473488 0.47240415 0.3731497 -0.20400998 -0.2244657 0.036591634
0.44522062 0.47450593 -0.21434769 -0.35914406 0.052157402 -0.017267564 0.48784867 -0.33313408
-0.16696952 0.33176962 -0.141155 0.07961178 0.17588913 -0.3247103 0.1992727 0.10733043
0.12995999 -0.5430463 -0.25904676 0.3281262 -0.39443052 -0.3437906 0.27977154 0.43446058

transformer.layers.0.self_attn.in_proj_weight f4 [192, 64]
00000000: 17e5 0bbe 2396 11bd a031 203c f132 dfbb
00000010: 27e0 c4bd 0aea d33d 92d7 063e 2ffc 163d
00000020: 303d 803d c449 00bc 8a37 a4bc 1b6c 333d
00000030: 8c70 113e 466a 113c e7fe a5bd 11cd c03c
00000040: 8eaa 363d 3fe9 0fbe e45d 1ebd 4b96 10be
00000050: 57e0 9c3d 3365 103e d108 7abd a982 ce3d
00000060: 2681 7c3d e8bf 07bd d9ed ba3d 1118 9c3d
00000070: a4fa 753d 5682 b93d efdb 09bc 339a 0bbe
00000080: 0901 dabd a24f 22bd 93e9 3abd 3007 e2bc
00000090: ba24 fb3c 790d e03d 544a 003d 5b4e e03c
000000a0: b7c0 af3c 8cac f9bd 67e1 debd 8415 0d3d
000000b0: 9235 223d 6a61 aa3c a59f 0a3e 7bfc 5abc
000000c0: 15bb 13bd 56a7 0c3e 292f c23d 663c 0b3e
000000d0: 6395 af3d ad06 0bbe 6dd9 56bd 559d a8bd
000000e0: 4cae 2b3c 4d20 bbbd a707 12be e1b1 4cbd
000000f0: ac3c be3d 39a1 85bd 7fe6 95bd 2a28 d0bd
00000100: 97af da3d 8097 ba3d 06e7 a63d 4830 923d
00000110: 9758 ebbd be0a 373c d00a c9bd 69a8 58bc
00000120: 1c95 8abc e858 88bd 5a7c a4bc 1dbf b63d
00000130: 4fd7 b43d a492 0c3e 0505 dc3c 56a5 fdbd
00000140: ee78 98bd a06f f83c 6b78 983d 2ba5 74bb
00000150: 54e2 113e 1515 cf3c 9a3f df3d 42ea 69bd
00000160: 4fd1 febb 9251 dcbc 1c40 cb3c 9729 083e
00000170: 0691 0dbe fb9d c0bd 1691 163e a62f a93c
00000180: 4042 91ba d908 ef3b 7334 84bd 59d7 7a3d
00000190: aa12 20ba 25cc 083e dab9 a03d ab65 9bbd
000001a0: 3a86 af3c 2ef9 e2bd 00c1 a2bd fb8d d53d
000001b0: 95f8 d1bd ebf8 0dbd e070 cbbd d2fd 173e
000001c0: f75e bd3d 467d cc3a db6c da3d 55fb 0a3e
000001d0: 83c6 2a3c f244 8cbc db27 393d 0018 4e3d
000001e0: 3bf4 40bd 6cee 0cbe 4288 3f3d 5def 843d
000001f0: 170e d2bd 6802 163e 1bfc 983d 209d 08bd
00000200: f2d8 56bb ce32 0dbe 45db 0cbe 4614 093d
00000210: f7d9 ed3c 4c6b 90bd 90e1 35bd 57f1 d63b
00000220: 18a6 df3d b828 6ebd 6261 293d bb30 28bd
00000230: 87ed d93b b1a9 8abd 37af ecbd 0a7a e4bd
00000240: 3258 de3c 8e80 643d 4317 143e 5319 3b3a
00000250: 014f f33d 5d9b f73d e715 e3bd 0ea9 943d
00000260: 9b25 d4bd 0419 cb3d a7d8 95bb 34c9 7a3d
00000270: 7c44 f4bc 4af4 103e 40eb 89bd a935 f33d
00000280: 0fc4 94bd f368 39bd 368e e8bd 78fe 3fbc
00000290: 1c24 a0bc f38b 0abe 79f0 e1bd c196 ea3c
000002a0: 1b90 e43d 2bde 13bd 71d2 093c efbb 003e
000002b0: 5f40 9b3c e798 f63d b235 98bd 6c63 d13d
000002c0: 0baf 4fbc 62b5 503d cb55 593d 3931 123e
000002d0: 329f fb3d 0692 f9bd 3004 063e 9bec f83d
000002e0: 8524 1b3d e582 10bd 0811 a33d 539e 0ebe
000002f0: 4b91 133e 0147 413d 765a f9bd d752 553d
00000300: 7dea 3dbd 204a da3d b4e2 abbd 74d7 00be
00000310: 76d7 e53c c76c e8bd ee1a 35bd c787 1abd
00000320: f071 dabd 3383 6ebc 811c 15be 286e 883d
00000330: 46cb 043e f546 40bc 5b60 903d 5bb2 83bc
00000340: 5bd7 eebd effe 7dbb 69c7 e23d f827 cb3d
00000350: f582 0a3e f274 163d 4984 f0bd 10a7 113e
00000360: 5908 a53d 9c0b cbbd 232a 98bd aa71 dc3d
00000370: 96f5 50bd d0f1 163e 6ed3 e3b9 830f e0bd
00000380: d916 063e fd50 0dbe c388 d9bc e0f7 023e
00000390: e04e 76bc 42f6 8bbc 8bd0 013d e5bf 80bd
000003a0: 4c66 83bd 0e08 023e 0018 0b3e 62e6 cf3d
000003b0: bdad 0abe d3ea 0cbe 0e39 f43d 3639 2ebd
000003c0: 4041 1cbe 36a4 ae3d 34e6 e23d 30f2 17be
000003d0: e01f 463b 6621 393d fcf2 05bd 5136 8e3d
000003e0: 8581 aabd 6d03 c0bd 8146 62bd c49f c9bd
000003f0: dddd f0bc 95f0 cd3d 842e 0ebe 4000 81bc
-0.1366161 -0.035543572 0.0097774565 -0.0068114926 -0.09613066 0.10347374 0.13168171 0.036861595
0.062616706 -0.007830087 -0.020046014 0.04380427 0.1420309 0.008875435 -0.081052594 0.023535283
0.044596247 -0.1405382 -0.03866376 -0.14119832 0.07659977 0.14101104 -0.061043564 0.10083515
0.061646603 -0.033142 0.09127397 0.07621778 0.060053483 0.09058063 -0.008414253 -0.13633041
-0.10644729 -0.039626725 -0.04563291 -0.027591318 0.030657161 0.1094007 0.031320885 0.027381113
0.021454198 -0.12191114 -0.10882836 0.034444347 0.03960187 0.020798404 0.13537462 -0.01336586
-0.036067087 0.13735709 0.09481651 0.13597259 0.08573415 -0.13576765 -0.052453447 -0.08233134
0.010478567 -0.0913702 -0.14260732 -0.049974326 0.09288916 -0.065248914 -0.07319354 -0.10163911
0.10678022 0.091109276 0.08149533 0.07138115 -0.114915065 0.011171995 -0.098165154 -0.013223746
-0.016916804 -0.066575825 -0.020078827 0.08923171 0.08830129 0.13727814 0.026857862 -0.12385051
-0.074449405 0.030326664 0.07444843 -0.0037329893 0.14246494 0.025278607 0.10900803 -0.05710817
-0.0077764164 -0.026894365 0.024810843 0.13297115 -0.13824853 -0.094051324 0.14703783 0.020652603
-0.0011082366 0.007294756 -0.064553164 0.061240528 -0.0006106297 0.13359125 0.07847948 -0.07587751
0.021426309 -0.110826835 -0.07946968 0.10427471 -0.102524914 -0.034661215 -0.099336386 0.14842919
0.09246629 0.0015601299 0.10665294 0.13572438 0.010423305 -0.01712272 0.045204025 0.050315857
-0.047107916 -0.13762826 0.046760805 0.064909674 -0.10256594 0.14649355 0.0746996 -0.03335297
-0.0032783118 -0.13788912 -0.1375552 0.0334666 0.029034598 -0.07051715 -0.044404566 0.0065595317
0.10920352 -0.0581443 0.041352637 -0.041062098 0.00665063 -0.06770647 -0.11556857 -0.111560896
0.027141664 0.05578666 0.14461999 0.00071372575 0.11880303 0.1209018 -0.11088162 0.07258807
-0.10358735 0.09916881 -0.004572946 0.06122704 -0.029817812 0.14155689 -0.067343235 0.11875469
-0.07263958 -0.045266103 -0.113552496 -0.011718385 -0.019548468 -0.13529949 -0.11032195 0.028636338
0.111602984 -0.036100548 0.00841199 0.12571691 0.018951593 0.120408826 -0.074321166 0.10224041
-0.012676011 0.05095423 0.053060334 0.1427659 0.122862235 -0.12186055 0.13087535 0.12154504
0.037876625 -0.03528108 0.07962233 -0.13927583 0.14410894 0.047186855 -0.12175457 0.052080955
-0.046366204 0.106586695 -0.083928496 -0.12582189 0.028056841 -0.11348873 -0.044215135 -0.037727144
-0.10666263 -0.0145576475 -0.14561655 0.06661636 0.12968168 -0.0117356675 0.07049628 -0.016076257
-0.116621695 -0.0038756689 0.11073191 0.09919733 0.13526519 0.03673262 -0.117439814 0.14223886
0.08058233 -0.09914324 -0.07429912 0.10763867 -0.05101546 0.14740682 -0.0004345434 -0.109404586
0.13094653 -0.13800426 -0.02655447 0.1278987 -0.015033454 -0.017085198 0.031693023 -0.06286601
-0.06415996 0.12698385 0.13583374 0.10151364 -0.13542838 -0.13761453 0.11924945 -0.04253503
-0.15259266 0.085274145 0.11079064 -0.14838481 0.0030231401 0.045197867 -0.03270243 0.06943954
-0.08325485 -0.093756534 -0.05524302 -0.09844926 -0.029402668 0.10055653 -0.13884932 -0.01574719

transformer.layers.0.self_attn.in_proj_bias f4 [192]
00000000: 492d 06ba b4c3 1f3a ead8 40ba ec21 94b9
00000010: 4474 b8ba b57b 443b f9a5 a8b9 9059 813a
00000020: dc7f 27ba 378a 30b9 1687 ac39 6157 1abb
00000030: 5af5 483a ab10 c53a 721d ceba f965 933a
00000040: c13b 39bb cc88 d23a 5cd8 6aba 1881 613a
00000050: 5025 88ba 68ae 023b a0dc 23ba e511 d8b8
00000060: cf66 8abb a017 25ba 3aef 20b9 6e9f 51b9
00000070: 02a9 e53a cc1d 663a f53e faba deb9 7aba
00000080: 280d dfba 82c8 1d39 8c9a a6b9 7872 f4b8
00000090: 7e3b 023a b9a6 87bb e53a c2ba 151d 1b3a
000000a0: 18d2 d6ba 45d8 c63a a530 c83a 0fa2 b33a
000000b0: 7b02 a93a 3f8a 1f3b 862e 94ba 13e2 e63a
000000c0: 3b11 feb9 5193 ceb9 e4ce f1b8 12e1 4739
000000d0: 8eae f83a 13e0 0239 8827 acb8 6243 0d3a
000000e0: 4214 25ba e0df 3bb9 0434 9bba a5f5 5b3a
000000f0: f4b7 023a 00e1 293a b0f4 503a ab9b ebba
00000100: d566 9bb6 11e8 a1b6 6be3 b2b5 58c2 cf36
00000110: 49a3 43b3 b835 1f35 04d5 53b6 5585 e3b6
00000120: 75b6 c6b5 c32a 9a36 5f2d ee36 2002 3f37
00000130: 03d1 05b7 6d1d 9435 721d 2637 88ca bab5
00000140: 8f78 aab5 506f 97b6 9eaa f836 2951 8db6
00000150: dc33 8535 e79d 9d36 6de4 a7b6 da47 b1b4
00000160: e3fc 0eb6 7bad 9c34 96dd 7336 6343 f136
00000170: fbba e136 0899 55b5 9f8e 34b6 37d5 5136
00000180: 5443 3737 4b39 0536 8c60 b3b6 6a4d 38b5
00000190: 4f92 5c35 3d13 49b7 7bae 8ab6 d5a6 9c36
000001a0: d096 5036 abfe 90b6 1bd2 0236 57da b436
000001b0: e82b f936 b30d 52b6 8195 b236 3ab7 f335
000001c0: e72f 7f36 4ee1 45b6 f57f 8e36 7781 9b36
000001d0: 2c5d fe34 b227 81b6 80a4 ceb4 640f 6e35
000001e0: 9b12 7bb6 1eaf a2b5 6e0c 8b36 5702 67b5
000001f0: e743 09b6 596e 9a36 4736 3335 d3ea 58b6
00000200: 4223 0b3a f26d 03b9 4c33 e239 a1c8 95ba
00000210: 977a 10ba 44e6 c9b9 bce5 2d3a 757d 87ba
00000220: 03f8 f0b9 8ada 8cba 86d5 1cba 6bcd fcba
00000230: fb8e 6e3a 1cd9 403a 036f 6aba fa4b 07ba
00000240: a948 26bb 3164 173a 1f05 7eba 26da 3fba
00000250: d98b bd39 3bf8 ad3a 6b78 363a 9d36 f538
00000260: e0e7 9eba 4d37 e638 5664 1d39 763e 8839
00000270: f6a4 e139 42ec d1b9 dfe0 a5b9 72f8 f1ba
00000280: d0da c43a d0f5 6f39 7ec6 86ba 6300 0d3a
00000290: 7931 803a 13be 9a3a 9232 d23a e99f f939
000002a0: a277 b2b9 e1d1 cc3a 292d 9fba 484f 643a
000002b0: 398b 373a 66bc b03a ae7e 2aba 59a8 213a
000002c0: 323d d63a 5466 c6b8 4587 88ba e4c1 b539
000002d0: b221 273a ccb1 9dba c67b 563a 9281 bcb9
000002e0: d38c bfba 4308 88b9 9c6b e13a c383 073a
000002f0: 6023 d6b9 542a 463a 3931 16ba e572 86ba
-0.00051184424 0.00060945307 -0.00073565415 -0.00028254034 -0.0014072736 0.0029980962 -0.00032167116 0.0009868611
-0.0006389597 -0.00016836157 0.00032907043 -0.0023550617 0.0007665955 0.0015034875 -0.0015725328 0.00112456
-0.0028264376 0.0016062497 -0.00089586317 0.00086023053 -0.0010387097 0.001994038 -0.0006250832 -0.00010303016
-0.0042236815 -0.0006297771 -0.00015347908 -0.00019991185 0.0017521682 0.0008778244 -0.0019092249 -0.00095644395
-0.0017017471 0.00015047382 -0.00031777134 -0.00011656148 0.00049679715 -0.004139748 -0.0014818577 0.00059171143
-0.0016389517 0.0015170655 0.0015273286 0.0013704913 0.0012894416 0.0024343876 -0.0011305369 0.0017614983
-0.00048459493 -0.0003940114 -0.00011530312 0.00019061964 0.001897292 0.0001248124 -8.2089624e-05 0.0005388764
-0.0006297269 -0.0001791711 -0.0011841063 0.0008390791 0.00049865176 0.0006480366 0.00079710316 -0.001797547
-4.631331e-06 -4.82519e-06 -1.3328221e-06 6.1917053e-06 -4.5550482e-08 5.9310287e-07 -3.1565442e-06 -6.780649e-06
-1.4805252e-06 4.5945358e-06 7.0982346e-06 1.1384982e-05 -7.976082e-06 1.1035423e-06 9.901227e-06 -1.3917024e-06
-1.2701074e-06 -4.513109e-06 7.4108384e-06 -4.2115757e-06 9.924365e-07 4.697347e-06 -5.00358e-06 -3.3021098e-07
-2.1306848e-06 2.9183488e-07 3.6338802e-06 7.1902045e-06 6.72729e-06 -7.9571373e-07 -2.6905107e-06 3.1267534e-06
1.0923326e-05 1.9851893e-06 -5.3458552e-06 -6.8657994e-07 8.2169294e-07 -1.1985013e-05 -4.1330327e-06 4.668584e-06
3.10822e-06 -4.3211817e-06 1.9493807e-06 5.389836e-06 7.4258896e-06 -3.1300413e-06 5.322218e-06 1.8158237e-06
3.8025844e-06 -2.9486432e-06 4.246826e-06 4.6344317e-06 4.7378978e-07 -3.8491207e-06 -3.849018e-07 8.8684305e-07
-3.7412744e-06 -1.2120906e-06 4.14397e-06 -8.605761e-07 -2.0454115e-06 4.602404e-06 6.676168e-07 -3.2323194e-06
0.0005307683 -0.00012534091 0.00043144298 -0.001142759 -0.00055114314 -0.0003850927 0.00066336594 -0.0010337072
-0.0004596115 -0.0010746282 -0.0005982745 -0.0019287294 0.0009100285 0.00073565706 -0.00089429336 -0.00051611627
-0.0025372899 0.00057751226 -0.0009690094 -0.00073185784 0.00036153084 0.0013272831 0.00069606927 0.00011692683
-0.0012123547 0.00010977555 0.00015010065 0.00025986478 0.0004303825 -0.00040039612 -0.00031638794 -0.0018460883
0.0015018824 0.00022884388 -0.0010282544 0.0005378781 0.0009780369 0.0011805914 0.00160368 0.00047612123
-0.0003403994 0.0015626514 -0.0012144196 0.00087093236 0.0007001642 0.0013483881 -0.0006503862 0.00061667484
0.0016345142 -9.460436e-05 -0.001041629 0.0003466747 0.00063755654 -0.0012031137 0.0008181896 -0.00035954692
-0.0014614112 -0.00025946097 0.0017198208 0.00051694753 -0.00040843617 0.0007559408 -0.00057293806 -0.001025763

transformer.layers.0.self_attn.out_proj.weight f4 [64, 64]
00000000: 4159 993d 880d 8b3d 7791 b2bb 4190 42bd
00000010: 6fa5 e8bd 36dc acbc 4fea 00bd e052 e03d
00000020: 4185 f6bd ac01 3e3d d53e ec3c 4ef1 9dbc
00000030: f31b aa3c f3b7 a93d 3bde e1bd 9911 9bbd
00000040: ff66 8c3b bbdf 08bd f6d7 993c f9f8 eabd
00000050: d603 693c 6df6 e23d 64bc c03d 71eb 7f3d
00000060: d68e 81bd e353 623d 4e18 0bbd b3ed d93b
00000070: c006 8639 6032 9dbd 85e2 e13d be42 b3bc
00000080: 8411 903d 5086 e7bc 2b46 fdbd 7fdd ccbd
00000090: 56eb 903d 8d2f f83d 9986 51bc 1c87 b2bd
000000a0: cd82 993b 50ab bc3d 0873 4bbd 4365 f1bb
000000b0: bfce 0c3d e2d2 e73d 2e91 dbbc 3e0e d9bd
000000c0: cd83 da3d 580d abbd ef0c 9ebd 209e 9dbd
000000d0: 69a1 933d e27c fe3d b2e2 f63d fad5 173d
000000e0: e038 99bd e95f 83bd 4813 ef3c bc8d ecbc
000000f0: c0a4 f6bc 8afc 8b3d 90b4 d2bd 688a d63c
00000100: 9c36 9fbb b81c 98bc a5f9 61bc d845 bd3d
00000110: 227e 553d 6cbd bd3d 0169 80bd 40a0 dc3d
00000120: 1ac7 f1bd ece4 4ebd a4c8 92bb b79f 963d
00000130: 7dba fa3d b3cc e23b 6177 e23d 7dff d1bd
00000140: a845 86bd 2eb0 93bd ac81 38bd 2ee6 223c
00000150: 7e35 e93d 16d4 a5bd d352 1a3d cafb f9bc
00000160: e0b8 ea3c ea54 493d c77e ddbd 02f2 e43d
00000170: 3bb2 a83d 71c0 7a3d 4a92 c93c ac1f a33d
00000180: d8fa e8bd 89d6 103d 18c9 64bd 1bd0 5dbd
00000190: 24dc 07bd afbf 8abd a14a d7bd 9aaa 863d
000001a0: 5d12 4fbd 3d12 f13d 9ff9 333d b634 233d
000001b0: 3dcc 093c 7acc bfbd f978 c7bd 747e 7f3d
000001c0: a5c4 1ebd e019 ee3d 2118 afbc 12ea d5bd
000001d0: fb73 a73d 2f0c 0abd c5c5 d7bd 4258 99bd
000001e0: 2162 5bbc 9746 e23d 5bd3 a9bd daea 473d
000001f0: 0b93 5a3d 1f58 3a3d 8d57 323d d003 a4bd
00000200: 32de 28bc cfa4 c7bd 0739 73bd ab00 54bb
00000210: 2d95 203d 0eac ad39 ade3 9e3d 48e7 81bd
00000220: 8758 f73d 6442 e13d 6428 013e 86d8 513d
00000230: 19ea 053d 23c9 b03d 4af5 723d 50e7 b93d
00000240: d5f8 b23c 8ecf ad3d ce1f dd3a 9a1f ce3d
00000250: 7a0f 063c 89fc b1bd 615f a9bd 8433 60bd
00000260: 839b e53c 36c7 c03d ac57 a43d 200d 813d
00000270: e426 3ebd dbf9 7abc e845 89bd 8056 3ebc
00000280: bce3 bf3d 58ee 45bb bc61 a3bd d57b f5bd
00000290: a027 7a3d de4b a0bd 90b9 803c b499 1f3d
000002a0: 36cf ecbd c673 f0bc a130 39bd 03a3 e6bd
000002b0: 1d15 c93d d19b 2e3d de23 443d 5538 a33c
000002c0: ae60 1ebb ca18 3c3c 06ad e13d 49f1 933d
000002d0: 688e 29ba f6ae 52bc c589 e9bd a40b c13d
000002e0: e460 91bd cd74 c93d 0f3d 453d d3e1 ad3d
000002f0: 4c5d 15bc c91e 113b 5767 c13c fe38 393c
00000300: ae2d 95bb c4b8 74bd ed7f 0f3b ea01 dfbd
00000310: dcef aebd 237c dc3d 76ae b9bd 8547 90bd
00000320: 3f34 513d 1280 11bd 61f4 d7bb 0868 233d
00000330: fa65 98bd 24d6 b7bd eff0 8f3d 8a56 133d
00000340: 8e32 4dbd a188 e0bd 3977 dd3d 3635 4a3d
00000350: 09d0 d5bd 8a9a f5bc 2635 b73d b6fd 70bd
00000360: 0449 c53b 0306 b1bd ed8e 55bc 107e 6a3d
00000370: 7754 d1bc 9d97 7dbd 9f6b ea3a 650d 943d
00000380: 8e1f 87bd 555a c93d bd6a 853d c606 733d
00000390: d995 50bd 68c6 c23d b660 bd3d 6229 ec3d
000003a0: 81d6 403d 3566 f43d 68fd cbbc 7e26 85bd
000003b0: 76b8 d33b 9a64 10bd a62c ad3d 8fac b03b
000003c0: 85ac f3bd 64bb dabd f392 f73d 612d 8cbc
000003d0: c5bd 3abd 0ff7 b33d 7b9f e1bd 7baf dcbd
000003e0: 4949 223d 57a8 313c 45fc 91bd 3d4c ce3d
000003f0: 9222 2ebd fc6b b3bd 5be4 ad3d b65b f7bc
0.07487727 0.0678969 -0.0054494697 -0.047500852 -0.11359679 -0.021101099 -0.031473454 0.10953307
-0.12037135 0.046388313 0.028838554 -0.019280102 0.02076528 0.08287039 -0.11028715 -0.07571716
0.004284739 -0.03341649 0.018779736 -0.11473269 0.014222106 0.11082158 0.09410933 0.062480394
-0.06326072 0.05525578 -0.033958726 0.0066506504 0.000255635 -0.07675624 0.11029533 -0.021882411
0.07034591 -0.028262287 -0.12366899 -0.100031845 0.07076137 0.121184446 -0.012788438 -0.08717176
0.004684782 0.09212363 -0.04967025 -0.0073668077 0.034376856 0.113195196 -0.026802626 -0.105984196
0.1066967 -0.083521545 -0.07717311 -0.076961756 0.07208521 0.12426163 0.120549574 0.0370693
-0.07481551 -0.06414778 0.029183999 -0.028876178 -0.030107856 0.068352774 -0.10288346 0.026189044
-0.004858805 -0.018568382 -0.01379243 0.09241837 0.052122243 0.09264645 -0.06270028 0.10772753
-0.11805554 -0.050511286 -0.0044794846 0.07354682 0.12242601 0.0069213747 0.11057926 -0.10253809
-0.065562546 -0.07211338 -0.04504554 0.009942574 0.11387156 -0.08097093 0.037676644 -0.03051557
0.028652608 0.049153246 -0.108151965 0.11178972 0.0823712 0.061218683 0.024605889 0.07965025
-0.1137597 0.035360847 -0.05585584 -0.054153543 -0.033168927 -0.06774842 -0.10512281 0.065755084
-0.050554622 0.11771057 0.04393923 0.03984519 0.008410511 -0.09365173 -0.097398706 0.062376454
-0.038761754 0.11626029 -0.02137381 -0.10445036 0.081764184 -0.033703025 -0.105357684 -0.07487537
-0.013390095 0.1104862 -0.08292266 0.048807956 0.053362887 0.045494195 0.043540526 -0.0800854
-0.010306882 -0.097482316 -0.059380557 -0.003234903 0.039204765 0.00033125322 0.077582695 -0.063429415
0.12077432 0.10998991 0.12613064 0.051231883 0.032693956 0.08632114 0.059315957 0.090773225
0.021847168 0.084868535 0.001687044 0.10064621 0.008182401 -0.086907454 -0.08270145 -0.05473663
0.028028255 0.094129965 0.080245346 0.063013315 -0.046423808 -0.015318359 -0.06702787 -0.011617303
0.09369609 -0.0030201878 -0.07977626 -0.1198651 0.061072946 -0.078269705 0.015713483 0.038964942
-0.1156296 -0.02935208 -0.04521239 -0.11261561 0.0981848 0.042629067 0.047885768 0.019924322
-0.0024166512 0.01148052 0.1101933 0.07223756 -0.00064680586 -0.012859097 -0.114032306 0.094260484
-0.070985585 0.09836731 0.048153933 0.08490338 -0.009116482 0.0022143594 0.023608847 0.011305092
-0.0045525646 -0.05974652 0.0021896318 -0.10889037 -0.08541843 0.10765865 -0.09066479 -0.07044891
0.051075216 -0.035522528 -0.0065904115 0.039894134 -0.074413255 -0.08976391 0.07028376 0.035971202
-0.05009704 -0.1096356 0.108137555 0.049367152 -0.1044007 -0.029980917 0.08945684 -0.058835708
0.006020667 -0.08643725 -0.013034564 0.05724913 -0.025552971 -0.061912168 0.0017884857 0.07229117
-0.065978155 0.098316826 0.06514499 0.05933263 -0.050924156 0.09510499 0.09246962 0.11531331
0.047079567 0.11933557 -0.024901107 -0.065014824 0.0064611984 -0.03525219 0.08455782 0.0053916643
-0.1189814 -0.10680273 0.12088575 -0.017111482 -0.045591135 0.08787357 -0.110167466 -0.10775658
0.03962067 0.010843358 -0.07128195 0.10073135 -0.042513438 -0.08760831 0.08490821 -0.030195098
