results/model/model_1.pth (torch, 439799 bytes, 36 tensors)

cls_token f4 [1, 1, 64]
00000000: e4d9 69be 1a61 a93f dfad 8d3f b6a2 153f
00000010: 3d97 8bbf 3dc8 533f fb9d 873f 8740 493e
00000020: 0e6f 5b3e e5bd 94be e7a2 e3be b9d7 76be
00000030: de2a 16bf a3a6 b03f 4872 cbbf 8600 183f
00000040: a0e0 7cbe 60cc 99bf 947d 803f 6d65 693f
00000050: d5dc 68bf eabb be3e 4319 b2be 66fd cdbf
00000060: c34e 13bf 839f 13bf a0b9 f43f 3fd3 fdbe
00000070: 42da 04c0 959b 83bf c1c6 8b3f 28cc ec3e
00000080: 6f05 2a40 cfa7 903f 700d ea3f 92f9 71bd
00000090: bded 3d3f fcf5 9d3d 7523 823f 3604 6fbf
000000a0: 3641 c9be 91de d53d 5216 eebe 4b0c 9dbf
000000b0: 6c3f cf3d c76d f7be db80 763f 78b8 183f
000000c0: e8e2 a7bd 71cf 76be cdef a83e f95b 5fc0
000000d0: 84e1 8f3f b33c 3a3f 534f 9fbf abb6 a5bf
000000e0: d0f7 d73f f1f8 bbbf b5d3 6d3f eec5 2cbf
000000f0: adec 833f 0a0f 92bf 4193 0dbe 5f95 aabf
-0.22837025 1.3232758 1.1068686 0.584514 -1.0905529 0.82727414 1.0595087 0.19653521
0.21429083 -0.29051128 -0.44460222 -0.24105729 -0.5865916 1.3800853 -1.5894251 0.593758
-0.24695063 -1.2015495 1.0038323 0.9117039 -0.9096196 0.37252742 -0.34784898 -1.6092956
-0.57542056 -0.5766527 1.9119148 -0.4957523 -2.0758214 -1.0281855 1.092003 0.4624951
2.6565816 1.1301211 1.8285351 -0.0590759 0.74190885 0.077129334 1.0167071 -0.933658
-0.39307564 0.10442842 -0.46501404 -1.2269377 0.10119519 -0.4832594 0.9629037 0.59656477
-0.08197576 -0.2410257 0.32995453 -3.4899886 1.1240697 0.7274887 -1.2446083 -1.2946371
1.6872501 -1.4685346 0.92901164 -0.67489517 1.0306603 -1.141084 -0.13825704 -1.3326834

input_proj.weight f4 [64, 28]
00000000: d9e3 29be b615 41be ea72 173e acd8 0fbe
00000010: 3188 983d de9d 81bd cd9a 88bd d600 96bd
00000020: 4486 943c 4fdf f9bd 7346 433d 7a83 e93d
00000030: e31a dc3d e9b1 76bd 8552 153e eafc 1e3e
00000040: 9587 0ebe 4a66 8dbc 8b96 cabc 799a 033e
00000050: 9310 143e 3c04 e5bd e59d fe3d e5ec 60bd
00000060: 6e17 b53d bda7 f3bd ad87 d23d d293 7f3d
00000070: c510 df3d b40f 1ebe 8113 9fbd 1973 3e3e
00000080: 2fda 3b3c 563a 973c c976 163e 7379 9d3b
00000090: e6db f03d e1fb 413e d546 a13d 3b0e 1c3e
000000a0: 48c1 90bc 5910 20be 2f33 3fbc b8d9 1b3d
000000b0: 6218 ee3d 36fe a4bd 0242 d53d d98f eebd
000000c0: 4572 1dbe 87fa 113c 98d8 ee3c 268d 02be
000000d0: 2b55 2cbe 4665 d33d 55ae 3dbe d25b 3cbe
000000e0: 0c0d 21bb 7b01 e5bc 43d4 c2bd 3015 2bbe
000000f0: a4d8 233d a3fc 283c ffee 38bd 0962 2d3e
00000100: 1bde b0bc 8c18 2abe 7701 90bd 70a4 0dbd
00000110: 73b4 fcbd 2bdb 39bd 179f bfbd 3737 f1bd
00000120: d471 71bc 40ad 62bd ec6e ff3d 9a7b 3bbe
00000130: fe99 a1bd 1168 113e 90cd 343e b875 74bd
00000140: 5b12 79bd b0b7 f73a 6635 90bd 8a12 d3bd
00000150: a8ce 583b 8065 1b3e 3181 443d a3ee 05be
00000160: 7b8c fe3d 6a84 b33a cc1b fa3d a383 2f3e
00000170: 09c9 4f3d 2fdf 263e 2da0 b63d 1c3d db3d
00000180: 450d bf3d 49f6 b7bc f2ba 39bd d523 6b3d
00000190: 6c29 9e3d bfdf b6bd f6b9 d7bd 634b a7bd
000001a0: cb9a de3d 82cc e33c 2374 a0bd 5762 13be
000001b0: 95ab 04be 361d bc3d 28a2 fd3d fa06 793d
000001c0: eb13 113e b015 4e3d 2018 f5bd 2c5d bcbd
000001d0: a1f7 0abd 1e03 38be 6f50 143d df49 e93d
000001e0: 750f 40be a4fa 603d a30c ecbd 549f 8bbd
000001f0: fb8f 00be 77bc 8eba b13e 28ba 5238 b2bd
00000200: 3215 913d 84b5 ef3d 8f78 4c3d 9b49 2fbe
00000210: c21e 073d 1197 0cbe d274 123d 74fd 593d
00000220: b204 943d 9580 363c b19e 3abe ce26 8ebd
00000230: 88e8 19bd 68e9 093e 4944 8abc 1058 51bb
00000240: 7688 dfbd a1e2 283d 6ed0 973c e567 46bd
00000250: 043e 2dbd 1ba4 903d f4a7 52bd 3540 19bd
00000260: 837d 483b f258 24be 4c0d 333e 4e2d 33be
00000270: 7c9a d9bc ffad 07be bd25 34be b146 f7bb
00000280: f433 d73d 76c6 0b3e ecc6 14be 221c 183e
00000290: 608f 82bd 7caf dc3d d78f 47bd 8b78 30be
000002a0: cd40 f63d fc7d 283e 6d75 2cbe 00bc 31be
000002b0: a5b1 1bbe a269 e8bb ffa0 15be 8fed edbd
000002c0: 6679 2e3e cb47 383e f978 18be c4dd 373e
000002d0: f983 84bd 6da6 50bd 4b3e 2a3d a9f6 003e
000002e0: 6efd d1bd a48f 99bd 8b72 0cbe 33d1 e33d
000002f0: ac4d 2dbe e8b6 0b3d c9fc 203e 9a4e b3bd
00000300: 6b6e 28be 3ad6 d2bd 64c5 a3bc b54a 2bbd
00000310: 1edf 183e 581c 123d 6f5c b7bd 88c9 fbbd
00000320: e994 043e 2ec6 2f3d 4f05 2d3e e198 bcbd
00000330: 5fc4 073d 086d 213e dc1e e63d 8eb3 44bd
00000340: 017e 0bbe 930c fb3d 9742 f23d 4d90 863d
00000350: 512c 0dbe 681a aebd 7c9e dc3b 2dc5 db3d
00000360: d352 33be 11f2 913d d7e4 d1bd f610 35be
00000370: 88d0 e1bd 91cb 15ba 3970 19be e7d6 e63d
00000380: ee63 d73c 41fc 07be ee68 3dbe 6343 e53d
00000390: 5dfa e7bd 83f4 20be a813 02be 1984 6c3d
000003a0: 8dcd ffbd dc39 d8bc ac14 013b 102d 5abd
000003b0: 769c 0dbe f341 903d 1f4a 943d a4d8 2b3e
000003c0: 7a03 453d de57 e43d c6fe f6bd 6c35 3ebe
000003d0: df4d 223e ece1 023e c7d3 903d 6f68 86bd
000003e0: 222f 393e 1508 2e3e 3efa 483d 07eb 3ebe
000003f0: 75ed 18be 7d51 f63d 8be6 b5bc 50b8 4539
-0.16590823 -0.18855938 0.1478993 -0.14047498 0.074478514 -0.06328939 -0.06670151 -0.07324378
0.01813043 -0.12200796 0.047674607 0.1140203 0.10747316 -0.060228262 0.1458226 0.15526167
-0.13918908 -0.01726069 -0.024729988 0.12851895 0.14459448 -0.11182448 0.1243246 -0.05491342
0.088423595 -0.11897228 0.10279784 0.06239683 0.108918704 -0.15435678 -0.07767392 0.18598594
0.011465593 0.018460434 0.1469375 0.0048057376 0.11760692 0.1894374 0.07874838 0.15239803
-0.017670289 -0.15631236 -0.011669918 0.03804943 0.116257444 -0.080562994 0.104129806 -0.116485305
-0.15375622 0.008909828 0.029156014 -0.12749156 -0.16829364 0.10322051 -0.18523534 -0.18394402
-0.0024574427 -0.027954808 -0.09513142 -0.16707301 0.040001526 0.01031414 -0.0451498 0.16931929
-0.021590283 -0.16610926 -0.070315294 -0.034580648 -0.123391055 -0.04537503 -0.09356516 -0.117781095
-0.014736611 -0.055341005 0.124723285 -0.18308869 -0.078907 0.14199854 0.17656541 -0.059682578
-0.06080852 0.0018899348 -0.07041435 -0.103062704 0.003308216 0.15175438 0.04797477 -0.13079314
0.12429138 0.0013696079 0.12212333 0.17140059 0.05072883 0.16296075 0.0891727 0.10705015
0.09328703 -0.022456305 -0.0453443 0.05740722 0.07722744 -0.08929395 -0.10533516 -0.08168676
0.10869368 0.027807478 -0.07834651 -0.14392982 -0.12956078 0.09185259 0.123844445 0.06079767
0.14167754 0.05031365 -0.11967492 -0.091974586 -0.033927564 -0.17969939 0.03620952 0.11391043
-0.18755896 0.05492653 -0.11525848 -0.06817499 -0.12554924 -0.0010889907 -0.0006418033 -0.087021485
0.07084121 0.11704543 0.04991966 -0.17117922 0.032988317 -0.13729502 0.03575594 0.053220227
0.07227458 0.011139055 -0.18224598 -0.06940995 -0.037575275 0.13467944 -0.016878264 -0.0031943358
-0.109147 0.041231755 0.018532004 -0.048438925 -0.04229547 0.07062551 -0.051429704 -0.03741475
0.003059239 -0.16049555 0.17485541 -0.17497751 -0.026562922 -0.13249968 -0.17592521 -0.007546269
0.10507956 0.13649926 -0.14529008 0.14854482 -0.06375003 0.107756585 -0.04872116 -0.17233483
0.120240785 0.16454309 -0.1684167 -0.17356873 -0.15204485 -0.0070926705 -0.14612196 -0.11617576
0.17038497 0.17996137 -0.14889897 0.1795569 -0.06470484 -0.050939966 0.041563313 0.12594093
-0.10253416 -0.074981004 -0.1371557 0.11123886 -0.1692416 0.03410998 0.1572143 -0.087552264
-0.16448371 -0.10294767 -0.019991584 -0.041819293 0.14928862 0.035671562 -0.08953177 -0.122942984
0.1294743 0.04291361 0.16896556 -0.09208847 0.03314626 0.15764248 0.11236355 -0.0480228
-0.13622285 0.12258258 0.11829107 0.06570492 -0.13786437 -0.0850113 0.00673276 0.10730968
-0.17512064 0.07126249 -0.10248726 -0.17682251 -0.11026102 -0.00057142327 -0.14984216 0.11271458
0.026292767 -0.13279821 -0.18497059 0.111944936 -0.1132705 -0.15718274 -0.12702811 0.057743166
-0.124903776 -0.026394777 0.001969616 -0.05326563 -0.13829216 0.07043829 0.072407 0.1678186
0.04809902 0.11149572 -0.12060313 -0.18575066 0.15850018 0.12781495 0.07071643 -0.06562888
0.18084386 0.1699527 0.049066775 -0.18644343 -0.14934333 0.120272614 -0.022204658 0.00018856046

input_proj.bias f4 [64]
00000000: a468 3bbe b3c2 2d3e b23c 42bd 3d3c 53bd
00000010: b572 393d 31db f8bd 6acc 923d 596a 303e
00000020: 17b9 8ebd b4a1 013d e846 0fbe 59c7 b33d
00000030: 549b 10be bbd4 1a3d 48a3 57bd 3e20 b63a
00000040: 8669 4c3d 6171 ed3c ee07 dc3c 8ff0 663c
00000050: ce7e e3bd cd46 aebd 9541 c2bd b1a1 f53d
00000060: a8fd 6abd be7a 143e 6b38 d63d 1960 0ebd
00000070: 0014 6abc 2a44 5cbd bc23 243e d89b 40be
00000080: f2af 20be d972 2dbb 6eae 283e 3e87 bebd
00000090: 54f2 6b3d eea1 073e 6a7e 113e fbcd 3bbd
000000a0: 92ee 033e 665b 0f3d 87e5 04bd 73cb f1bd
000000b0: 58ef 77bd 3128 a0bd fe38 c13d d3ad 1c3e
000000c0: 1819 07bd 275a afbd 66fa 18be f001 bfbd
000000d0: 4324 ac3c 229c 0fbe d4ab 983d 4f73 31be
000000e0: e8ac 4d3d e78c 243d 1620 b8bd b265 3cbe
000000f0: 1b39 f53d ea59 3c3c c48e f1bd 1ada 40be
-0.18301636 0.16968803 -0.047421165 -0.05157112 0.04527541 -0.121511824 0.07167895 0.17228068
-0.06968897 0.031648353 -0.13991892 0.08778257 -0.14121753 0.03780053 -0.05264595 0.0013895107
0.049905322 0.028984727 0.02685925 0.01409544 -0.111081704 -0.08509598 -0.09485165 0.11993731
-0.05737081 0.14499947 0.104599796 -0.034759615 -0.014286995 -0.053775944 0.16029257 -0.1880945
-0.15692118 -0.002646616 0.1647279 -0.09303139 0.05760415 0.13245365 0.1420838 -0.045850735
0.12883976 0.034999274 -0.032445457 -0.11806383 -0.06053099 -0.07820166 0.094346985 0.15300684
-0.032982916 -0.08562117 -0.1493927 -0.093265414 0.021013385 -0.14024404 0.074546486 -0.17329143
0.050213724 0.040173437 -0.08990495 -0.18398169 0.11973783 0.011496047 -0.117948085 -0.18833199

stock_emb.weight f4 [5, 64]
00000000: bbed 27bf 3d96 cfbf 1b2a 863e d9ac 0340
00000010: 133a e33e b697 8e3f a2da ebbe 1de6 5d3f
00000020: 503d 2e3f c440 1e40 c30d 35be 528c 253e
00000030: 7d79 363f fc27 963d 5a1a ee3d 613d b93f
00000040: cbd7 1a3f 6421 243f 388f 89bf 8240 44bd
00000050: fb7d 9a3e 367c f73e b261 8fbf 4982 c1bd
00000060: 487b 913f b3cd 7cbf cf84 a1bf 68c2 9a3e
00000070: 875f 52bf 9527 5dbf 8e56 67bf 7277 6c3e
00000080: 2a45 32bf e900 21c0 5f1a 1240 a388 46bf
00000090: 075f 1240 da67 f23e 62c7 a63f 1a23 5c3f
000000a0: d862 a0bd 5b81 023d 8807 bb3f 4a0d d6bd
000000b0: a210 64bf 5407 593d 1080 f0bd 6cd5 3d3e
000000c0: 6a90 5cbf fa69 c1bf bbea 0f40 9d65 3ebf
000000d0: 620f ebbe db27 bbbf cc56 e83f 7914 eb3d
000000e0: 5c14 dd3e 28ea d73e 8477 8bbf 6bbd e53f
000000f0: aa40 8a3e 0a44 823f 5820 0040 b96d 963e
00000100: 82b3 db3f 05d9 4840 9f84 68bf 78d8 833d
00000110: cb7f 273e 4d8e 3c3f 0a49 893f a71e 2f3f
00000120: 4100 b6be bd97 71bf a531 95bf 55b8 0e3f
00000130: 5a91 7bbf 41fa d53e ab25 493f 9404 3dbe
00000140: 7384 693e 7fd8 ebbf 878a 19bd 9cb0 5dbf
00000150: 4cdb d23e ba4d 963d bddc 0040 8686 6a3f
00000160: 666f 133f 6425 893f 0a01 88be 6ab8 66bf
00000170: 7b1a bb3d 434f bbbf 8b4b c4bf 9919 3e3e
00000180: 3247 1e40 3691 813f 0a3c 52bf 3b46 77be
00000190: 8f60 56bf 8d6c 7abe 0ce3 92bf ec89 b03e
000001a0: 72a7 353f 42cf b83f 24cf ea3f 8c3e 75bf
000001b0: 823b d3bf f23e 1e3e 3d9b edbf ce05 35bf
000001c0: f8a9 973d 5ae0 863f 9c30 643f 5328 8c3d
000001d0: 237c 7bbe 4b8f 96bf 59b6 b0bf aa55 253f
000001e0: 25fb 05bf 50ab b0bf cb1d 9f3f 5ae7 a03f
000001f0: dbc8 ba3f d75c 1a3e b796 d2bf 46b4 28bf
00000200: 7dc8 09bf c651 9cbf 5b01 d1bd c883 a9bf
00000210: 150e 393f 56d9 02bf c9fc ab3e d0bd 193d
00000220: cc78 83be f286 8e3f a32f 963f 9864 953e
00000230: 4682 dd3f c46c 7d3f d0c1 403e bad6 2b3f
00000240: 453b eb3d 956e 03c0 edf1 babd 4954 2fbf
00000250: 183a 05bf f1b8 c5bf 5275 f93e c87e 383f
00000260: 3edc 72bf b205 3f3f 5505 c23e 5793 9bbe
00000270: 1ae4 9b3f 96ac 6bbe d978 663e 09b1 283f
00000280: d5ab 36bf 5257 743e c84e a93e e71e 003f
00000290: 304d 353f 8c18 f1bd c162 053f 2344 e23e
000002a0: 874c 49c0 5cdf 423e bf8d e93f bcfd 4f3d
000002b0: 7ea2 8dbe ec79 8abe 66c7 c5be 10d3 933e
000002c0: b38d 87be a64b 47bf 0476 b13d 9711 883e
000002d0: c794 84be 3bd8 8ebf bd07 983e 617b 5b3c
000002e0: 85ba 55bd 8f64 c23d 89d8 023d ed06 743f
000002f0: 476c 39bd 0eaf 2cbf 1fce 12bf 064b 1a3e
00000300: e0a7 a03f 6b32 8e3f 34b4 263e ce6b 5dbb
00000310: 10e9 723e 1411 603f 159a de3f 18ea 1f3f
00000320: 299c 713e dff2 22bf acbe 57bf f25f 3fbf
00000330: 74cf 463f d09a 13c0 d7e7 a5bf ead9 9ebe
00000340: c58f 8b3f 2bd1 e23c 6b4b 553f eafd fa3e
00000350: cc29 47bf cfc5 9f3f 2cc9 c13e 7a3d e1bf
00000360: 82a9 a2bf bed8 a7bf 8e76 0ec0 0b77 9abe
00000370: 99a1 cc3f 6e17 ee3e e6bf 0d3f 968f abbf
00000380: 84be ca3e b236 f5be c7dd 39bd aa8b c4bf
00000390: 5e7a d0be 0bc1 973e 7854 46be d79e b3bc
000003a0: 3353 0dbf 2410 80bf 91df 033f 119c 823f
000003b0: bd1c cabf a75c 363f 22d5 023f e3f8 4a3e
000003c0: 6ffd 62bd 9117 98bf 830b 0cbe 7a12 073f
000003d0: 1221 2a3d 9499 573f a43e 983e 35b0 fb3f
000003e0: bc7c 933e 3346 99be 8784 eebe 1f92 eabe
000003f0: fccd 68c0 1952 673f db81 55be d9f2 863f
-0.6559712 -1.6217724 0.26204 2.0574248 0.44380245 1.1140049 -0.4606524 0.8667925
0.68062305 2.472703 -0.17681031 0.16166809 0.71279126 0.07331845 0.1162612 1.4471856
0.60485524 0.6411345 -1.0746832 -0.047913082 0.3017424 0.48336953 -1.1201689 -0.09448678
1.1365747 -0.9875137 -1.2618655 0.30226445 -0.82177013 -0.8638852 -0.90366447 0.2309244
-0.69636786 -2.5156806 2.2828596 -0.7755224 2.28705 0.47344857 1.3029597 0.8599106
-0.07831353 0.031861644 1.4611673 -0.104517534 -0.8908788 0.052985504 -0.11743176 0.18538445
-0.8615786 -1.5110466 2.2487018 -0.743738 -0.45910174 -1.4621538 1.8151488 0.11478514
0.43179595 0.42170835 -1.0895848 1.7948431 0.2700246 1.0177014 2.001974 0.29380587
1.7164156 3.1382458 -0.90827364 0.064377725 0.16357343 0.73654634 1.0725415 0.68406147
-0.3554707 -0.9437216 -1.1655775 0.5575002 -0.98268664 0.4179249 0.785731 -0.18458778
0.22804432 -1.8425444 -0.037485626 -0.8659761 0.41182935 0.07339044 2.0134728 0.91611516
0.57591856 1.0714536 -0.26563293 -0.90125144 0.0913591 -1.4633564 -1.5335554 0.18564452
2.4730954 1.012244 -0.8212286 -0.24147885 -0.83741087 -0.24455471 -1.1475539 0.34480226
0.70958626 1.443825 1.8344464 -0.95798564 -1.6502535 0.15453699 -1.8563 -0.7071198
0.07405466 1.0537217 0.8913667 0.06843629 -0.24559073 -1.176248 -1.3805648 0.6458384
-0.5233634 -1.380228 1.2430967 1.2570603 1.4592546 0.15074478 -1.6452245 -0.65900075
-0.53821546 -1.2212455 -0.10205337 -1.3243341 0.7228711 -0.5111288 0.33591297 0.037534535
-0.25678098 1.1134932 1.1733288 0.2917831 1.7305381 0.9899409 0.18823934 0.6712452
0.11485914 -2.0536244 -0.09128175 -0.68487984 -0.5204177 -1.5447065 0.4872232 0.7206845
-0.9486731 0.74618065 0.37894693 -0.3038585 1.2178986 -0.23015055 0.22507037 0.65895134
-0.71355945 0.23861435 0.33067918 0.50047153 0.70820904 -0.1177226 0.5210381 0.4419261
-3.1452959 0.19030517 1.8246382 0.05077909 -0.27663034 -0.27046144 -0.3862869 0.28871965
-0.26475295 -0.77849805 0.08665088 0.2657592 -0.25894758 -1.1159738 0.29693404 0.013396115
-0.052179832 0.09491836 0.031944785 0.9532307 -0.045269277 -0.6745461 -0.57345766 0.15067682
1.2551231 1.1109136 0.1627968 -0.003378618 0.23721719 0.8752606 1.7390772 0.62466574
0.23594727 -0.6365184 -0.8427532 -0.74755776 0.776603 -2.306324 -1.2961377 -0.3102563
1.090325 0.02768763 0.83318204 0.49021846 -0.7779815 1.2482241 0.37848794 -1.7596886
-1.270798 -1.311302 -2.225986 -0.30168948 1.5986816 0.4650225 0.5537094 -1.3403194
0.39598477 -0.47893292 -0.04537752 -1.5355122 -0.4071836 0.29639468 -0.1936816 -0.021926327
-0.55205077 -1.0004926 0.5151301 1.0203878 -1.579002 0.71235126 0.51106465 0.19821505
-0.055417474 -1.1882192 -0.13676266 0.5276257 0.041535445 0.84218717 0.2973529 1.9663149
0.28806102 -0.2993637 -0.46585485 -0.45814607 -3.6375723 0.90359646 -0.20850317 1.0542861

stock_proj.weight f4 [64, 64]
00000000: af1d b1bd 27b1 5bbd 5ee5 413c baa7 4fbd
00000010: 205f 6fbd 8fd6 e5bc 6193 78ba a786 35bd
00000020: d0d6 41bc d50c b13d 35cb 96bd 235f 4cbd
00000030: f002 9bbd 2594 333d 6c3c a0bd bcbd 0ebc
00000040: ca4c df3d d92c dcbc 042a 61bc 9454 e13d
00000050: 2fcc 9b3d 8d03 b8bd 295f f43d 52e8 44bd
00000060: 691d 86bd a0d8 7bbd a1be a4bd 350f db3c
00000070: 5265 af3d 6514 a63b 8007 033d b6f6 a03d
00000080: 892c 1abd 9dd9 c13d c23a 5e3c a492 823d
00000090: 0255 b8bd 54bb 92bd 31f8 e73c dc21 f0bd
000000a0: 32cf 5c3d b613 0d3b 58b9 bb3d 7f69 443d
000000b0: 138e 2a3d 0614 2abd 8a33 79bc bb8a 88bd
000000c0: 2edd 72bd b538 52bc eb72 df3d 539b c7bd
000000d0: 2349 a1bc 93c9 b7bc 5903 d1bd b053 b6bc
000000e0: 32f5 8f3d 5bcc 9d3d 91b2 ecbb 1d64 a03c
000000f0: 4dc4 2b3d b62c 3a3d 4e95 1f3d 02a0 753b
00000100: 9156 0dbd 39ca ea3c e99b df3d d269 f2bd
00000110: 5f08 883d 3408 e83d 377c 0e3b 5145 d53d
00000120: caf8 2d3d 8668 e4bd cc86 213d 28e1 fb3d
00000130: 49c7 ecbd bed7 bb3d d419 e53d 6de7 853d
00000140: e6ea ed3b 38e2 593d eb90 53bd 9354 c23d
00000150: 2683 23bd c05f c53b 05af aabd a290 cbbd
00000160: 4653 d43d 79ed abbd e3d4 3d3c f673 4c3d
00000170: 0602 f33c c2f7 e2bd 7bea 913d de3c f4bd
00000180: cdb4 bcbd b10c 443c fa5e ac3d 4e47 273d
00000190: 1e44 f9bd b711 fcbd 189e 943c 2dc0 083d
000001a0: 6f12 8b3d 9fe9 04bd b512 a7bd c2e2 913d
000001b0: ea5a 98bc 4db3 9d3d 8228 043d a29e b4bd
000001c0: c09b 223d 6a37 a93d 8e15 e13c 1140 13bd
000001d0: 204a 04bd a1bc 9ebd a893 d8bd 2aab c03d
000001e0: 5743 36bc a2f4 b3bd c852 f63d e051 5d3d
000001f0: c0ed 923c 9a12 f03d 1d55 cdbd 8d95 48bc
00000200: df81 693c e238 663d 6a50 2d3d 6c76 e0bd
00000210: 6fdf 52bd 122c 9d3d c54b f63c 749f 6e3d
00000220: 634b 9e3d 8b68 f83c 03bb cdbb 24b3 b5bc
00000230: 812b 0b3d a751 e7bc c0c7 8ebd 25ed 8ebd
00000240: 6d76 8cbd 16d0 d4bd edeb acbb 307c d0bd
00000250: 9d74 ea3d 535c fb3d bc52 90bc 7e54 e43d
00000260: 7952 b8bc 0da9 793d ba0f 02bd 68a3 a23d
00000270: 2244 133c ca88 b2bd 6d2e 6fbd 93f0 0ebd
00000280: 7b8b 92bc d537 2dbd 147d cfbd 4aba 463d
00000290: a0b1 c83d f7fa 053d d850 893c e48c 26bd
000002a0: 0e9f a4bd 56a3 9bbd 9aba b1bc d526 e33c
000002b0: f470 0dbd 7c21 95bd d168 d4bd 5a5b f3bd
000002c0: 8662 233d 9bdb 433d aa9a 923d 665b 573d
000002d0: 1c40 94bc f3d6 fd3c 1a38 e9bd 3177 963d
000002e0: 197d 2dbd 5dcf b5bd c1ec afbd ac54 40bc
000002f0: c7fb eebd c552 d73d 402a f3bd d511 4dbc
00000300: 4676 ec3d 342e dabd 6f5f 483d f43b 06bd
00000310: beae c6bc 0edf 2f3b 5c80 66bd 7e3c ca3d
00000320: 7cea 723b 2cd2 00be d360 503d 67ac 8f3d
00000330: ae71 933d 95e1 ddbd 5ecd 9e3c 380e 90bd
00000340: 0a9c d23c 103d 83bd 790e e03d f534 4fbd
00000350: 5626 8c3c 1527 9237 ca4f 7dbd cba9 aa3c
00000360: 3e51 d8bc 4119 19bd 5977 e2bd 04f2 003e
00000370: d619 22bd 5060 aa3d e2d1 6bbd 3bb3 e4bd
00000380: 22e0 433d 1270 c2bd aa59 83bc 4124 313c
00000390: e6ae b0bc 6083 46bd 41c8 3d3d 0987 afbd
000003a0: 690c 013d 5338 6d3d dfc5 a13d ca5d efbd
000003b0: eedb b63d d77e 8ebb bb56 9c3d b9a8 40bb
000003c0: 4e7f dabd ba69 61bd 2841 a03d 950d e3bc
000003d0: a451 273d ba54 11bd 9709 a63c 227b 993d
000003e0: 4343 483d 3619 9ebc 8139 57bd 2c2f f7bd
000003f0: 5a8e b6bb bcf0 26bd 66e3 30bc 5cad 7cbd
-0.0864824 -0.053635743 0.011834471 -0.050697066 -0.058440328 -0.028056411 -0.00094824104 -0.044317868
-0.011831 0.08645026 -0.073629774 -0.049895417 -0.0756892 0.043842454 -0.078240246 -0.008712228
0.10903318 -0.026876854 -0.013742927 0.1100246 0.07607304 -0.08985052 0.11932213 -0.04807312
-0.06548578 -0.061485887 -0.08044172 0.02674065 0.08564247 0.005068349 0.031989574 0.078595564
-0.03764013 0.094653346 0.013563814 0.06375626 -0.09000589 -0.07164636 0.02831659 -0.11725208
0.053908534 0.0021526641 0.09166211 0.04795217 0.0416394 -0.041523002 -0.015210042 -0.06667086
-0.059292965 -0.012830903 0.10910591 -0.097464226 -0.019688195 -0.022434985 -0.10205717 -0.022256702
0.07029189 0.07704993 -0.007223435 0.019578988 0.041935254 0.045452796 0.038960747 0.0037479405
-0.034506384 0.02866088 0.109184094 -0.1183659 0.06642222 0.113296896 0.0021741518 0.10413612
0.042473592 -0.11152749 0.039435193 0.122988045 -0.11561448 0.09172009 0.11186567 0.065382816
0.007260668 0.053194255 -0.051651876 0.094887875 -0.039919995 0.006023377 -0.083341636 -0.09939696
0.10367446 -0.08394904 0.011586401 0.049915276 0.02966405 -0.11082412 0.07124802 -0.11925672
-0.092141725 0.0119659165 0.08416553 0.040839486 -0.121711954 -0.12308066 0.018141791 0.033386398
0.06790625 -0.03244936 -0.08157865 0.07123329 -0.018598039 0.077002145 0.032265194 -0.08819319
0.039699316 0.082625225 0.027476098 -0.03594977 -0.032297254 -0.07750822 -0.10575038 0.09407647
-0.0111244535 -0.087868944 0.12027508 0.05403316 0.017935634 0.11722298 -0.10026 -0.012242687
0.014252155 0.05620659 0.042313017 -0.10960087 -0.051482614 0.07674421 0.030065427 0.058257535
0.077292226 0.030323287 -0.006278397 -0.022180147 0.033977035 -0.028237177 -0.06971693 -0.069788255
-0.068585254 -0.10391252 -0.005277148 -0.10179937 0.114480235 0.12273469 -0.017617576 0.11148928
-0.022500264 0.060952235 -0.03175328 0.079413235 0.008988412 -0.08717497 -0.058393884 -0.0348974
-0.017888775 -0.042289574 -0.10131279 0.048517503 0.09799504 0.03271004 0.016762182 -0.040661708
-0.0803815 -0.07599513 -0.021695424 0.027728477 -0.03453155 -0.07281777 -0.10371555 -0.11882658
0.03988888 0.047816854 0.07158406 0.0525774 -0.018096976 0.030986285 -0.11387654 0.07346953
-0.04235563 -0.08877442 -0.08590079 -0.011738937 -0.116691165 0.10513834 -0.11873293 -0.0125164585
0.11545996 -0.10653344 0.048919138 -0.03277202 -0.024253245 0.0026835832 -0.056274757 0.09874819
0.0037066033 -0.12580174 0.05087359 0.07015305 0.07199417 -0.10834042 0.019385036 -0.07033962
0.02570917 -0.06408131 0.109402604 -0.050587613 0.017108124 1.7422755e-05 -0.06184367 0.020832917
-0.026405927 -0.0373776 -0.1105792 0.12592322 -0.03957542 0.083191514 -0.057573207 -0.11166998
0.04782117 -0.09494032 -0.016033966 0.010811866 -0.021567773 -0.048465133 0.046333555 -0.08570678
0.031505976 0.057915043 0.07899069 -0.11687811 0.08928667 -0.0043486166 0.0763373 -0.0029397442
-0.10668813 -0.05503247 0.078249276 -0.027716437 0.040849343 -0.035481192 0.020268245 0.07494189
0.04889227 -0.01929913 -0.052545074 -0.12069544 -0.005571169 -0.040756926 -0.0107964035 -0.061688766

stock_proj.bias f4 [64]
00000000: 0c56 febd 9387 a9bb 8593 4ebd b7e9 c3bb
00000010: 56e8 f6bc 3b78 68bd e9ba cdbb 5b86 e03d
00000020: d8b8 513d ae5d 8f3d 9fe1 683d 628c 0bbd
00000030: df36 01bd a62d b03c 9e9c 793b 79b2 82bc
00000040: ae4b 733d 323b 863d af0a d63c c55c cfbd
00000050: b44a b23d 88ee d4bd 99d3 73bd 3a9b f2bd
00000060: dea1 3c3d fd42 2ebd bc25 833a 55c9 76bd
00000070: bfc2 993c 2fa4 fabb e0f0 d13d 8e21 91bb
00000080: 379c 823d 8416 89bd 0025 f4bd 7151 bebd
00000090: f089 1dbc ae2b afbd b842 d0bd 4e18 e8bc
000000a0: 016d fcbb 646d adbd 791b d8bc 237b f4bc
000000b0: 8c14 8ebd 8f5e c2bd eb23 423d becc 14bb
000000c0: 5272 f5bd d34a 1d3d b45f 6f3d 4da8 f2bd
000000d0: d24c 273c e99b dd3d 6170 a4bd 013d 183d
000000e0: ff0b cf3d de7e 8b3d aa5a 22bc 0a0d f9bc
000000f0: 226f a03d b2fb 9c3d 2336 453d 1bd0 c83d
-0.12418756 -0.0051736324 -0.050433654 -0.0059787887 -0.030140083 -0.056755286 -0.006278385 0.10963126
0.05120167 0.0700029 0.056855794 -0.034069426 -0.03154647 0.021506142 0.0038087736 -0.015954243
0.059398346 0.06554259 0.026128141 -0.10125116 0.08705655 -0.10397059 -0.059527967 -0.11846013
0.046052806 -0.042544354 0.0010005753 -0.0602506 0.01876962 -0.0076489667 0.102510214 -0.004429049
0.06377452 -0.06693748 -0.1192112 -0.092928775 -0.009615406 -0.08553253 -0.101689756 -0.028331902
-0.007703424 -0.0846813 -0.026380287 -0.029843872 -0.06937513 -0.09490692 0.047397535 -0.0022705044
-0.119846955 0.038401436 0.05844088 -0.11848507 0.0102111865 0.10820753 -0.08029247 0.037167553
0.1010971 0.06811307 -0.009909311 -0.030401725 0.07833697 0.076651946 0.048147332 0.09805318

pre_ln.weight f4 [64]
00000000: bef0 7f3f 0000 803f 8ecc 7f3f 0000 803f
00000010: 7ac0 7f3f 0000 803f 8eba 7f3f 0000 803f
00000020: 2707 803f 0000 803f c308 803f 0000 803f
00000030: 530c 803f 0000 803f e414 803f 0000 803f
00000040: d339 803f 0000 803f e5af 7f3f 0000 803f
00000050: f305 803f 0000 803f 5501 803f 0000 803f
00000060: 4e15 803f 0000 803f 5bf8 7f3f 0000 803f
00000070: d906 803f 0000 803f aa03 803f 0000 803f
00000080: 3dce 7f3f 0000 803f 59f3 7f3f 0000 803f
00000090: b18b 7f3f 0000 803f 971e 803f 0000 803f
000000a0: da37 803f 0000 803f ebd2 7f3f 0000 803f
000000b0: a125 803f 0000 803f a8be 7f3f 0000 803f
000000c0: 4a44 803f 0000 803f c642 803f 0000 803f
000000d0: 07d2 7f3f 0000 803f 85c5 7f3f 0000 803f
000000e0: cd36 803f 0000 803f 9a14 803f 0000 803f
000000f0: cbeb 7f3f 0000 803f 3c0a 803f 0000 803f
0.9997672 1.0 0.999215 1.0 0.9990307 1.0 0.99894035 1.0
1.0002183 1.0 1.0002674 1.0 1.0003761 1.0 1.0006375 1.0
1.0017647 1.0 0.9987777 1.0 1.0001816 1.0 1.0000407 1.0
1.0006502 1.0 0.99988335 1.0 1.000209 1.0 1.0001118 1.0
0.9992407 1.0 0.99980694 1.0 0.9982253 1.0 1.0009335 1.0
1.0017045 1.0 0.9993121 1.0 1.0011483 1.0 0.99900293 1.0
1.002084 1.0 1.0020378 1.0 0.9992985 1.0 0.99910766 1.0
1.0016724 1.0 1.0006287 1.0 0.99969167 1.0 1.0003123 1.0

pre_ln.bias f4 [64]
00000000: 2e7a e339 0000 0000 503f 9f39 0000 0000
00000010: e9b8 893a 0000 0000 6cdb 97ba 0000 0000
00000020: cd6b 6eba 0000 0000 e453 01bb 0000 0000
00000030: c143 15ba 0000 0000 9b07 0cba 0000 0000
00000040: 078e 3e3a 0000 0000 bf4b 20ba 0000 0000
00000050: 9660 7eba 0000 0000 6503 453a 0000 0000
00000060: 4350 45ba 0000 0000 1baa 5d3a 0000 0000
00000070: a0f8 9639 0000 0000 4c9e 56ba 0000 0000
00000080: 274a 303a 0000 0000 df7a b43a 0000 0000
00000090: d06d a0b8 0000 0000 c0b0 6b3a 0000 0000
000000a0: 5fcf d1b8 0000 0000 40df 9fba 0000 0000
000000b0: 7a3a 393a 0000 0000 e6c1 1c3a 0000 0000
000000c0: f309 09bb 0000 0000 57a5 5bba 0000 0000
000000d0: 8dee 213a 0000 0000 2cb1 bd3a 0000 0000
000000e0: 5efe 9d3a 0000 0000 856e 633a 0000 0000
000000f0: cdf4 583a 0000 0000 e661 43ba 0000 0000
0.00043387845 0.0 0.00030374015 0.0 0.0010507378 0.0 -0.0011585779 0.0
-0.0009095043 0.0 -0.001973384 0.0 -0.0005693995 0.0 -0.00053417095 0.0
0.00072690885 0.0 -0.00061148027 0.0 -0.00097037235 0.0 0.00075154594 0.0
-0.00075269135 0.0 0.00084558286 0.0 0.0002879547 0.0 -0.000818704 0.0
0.0006724917 0.0 0.0013769529 0.0 -7.649849e-05 0.0 0.00089908764 0.0
-0.000100045225 0.0 -0.0012197271 0.0 0.00070659036 0.0 0.0005979821 0.0
-0.0020910471 0.0 -0.00083788246 0.0 0.00061772094 0.0 0.0014472357 0.0
0.0012053957 0.0 0.00086758315 0.0 0.0008276224 0.0 -0.00074532477 0.0

regime_proj.weight f4 [64, 3]
00000000: 50bd 09bf 091a 84bd d2a1 c6be 465b 7c3e
00000010: f18e 13bf f5e4 653e 4cf8 6cbe 62ca 0e3f
00000020: f154 89be 9ab5 87be 5681 f13e ab07 64be
00000030: 6bfe adbe 17d2 53be 6021 ca3e 8dab dd3e
00000040: b820 0abf bb0f b03e 0fba 01be 494b c7be
00000050: d7f8 ccbd e11d d73e e53a eabe 84df a3be
00000060: b413 133f aa7f 8ebd 0347 81bd 5241 e43e
00000070: 0984 fe3d d1ed b2bb 5bad b2be 3ded 203e
00000080: b3ef f6be 823f c73e 1694 2c3e 40c2 d6be
00000090: 2480 ed3e 15fe a33d 5a7b dabe e4be 12bf
000000a0: 6e44 d2be 9508 01bf 016f 89be c947 afbe
000000b0: d716 633e 6922 05be 2dcf 7b3d e7d3 60bd
000000c0: 0d13 95be 6637 823d 2332 c23e 450d d9be
000000d0: 136d 0b3e c146 f0bc 1170 7a3e d12f cfbe
000000e0: ae6a 88be 780d bcbe d212 a73e 0318 923e
000000f0: 77ca c6be ca3a cabe bab1 6dbe 9f7e 11bf
00000100: a621 2fbe 80ba 61be 3149 11bf 1352 cebe
00000110: 547c dbbe 1766 d3be 3cb9 043f 1a90 f1be
00000120: b77b 58bd f211 613e a866 ba3e 0342 8f3c
00000130: 7bc5 ccbe 0b42 56be f0b8 0e3f 292d fcbd
00000140: f325 013f 3cf3 fc3e e7f5 a03e f258 b8be
00000150: 7bbd af3d 5c08 bf3d 7dcf 55be 5486 0b3f
00000160: d28b e93e 43c0 69be cd27 783d 3e5f f4be
00000170: cacf 953e 1eb5 8bbd 1170 05be 6bbc 82bc
00000180: 4fbd b43e d10f 313d 8a30 d2bd 78f6 903e
00000190: 6f06 423e d739 bbbe edf6 50be aec6 b3bc
000001a0: 3032 d33e 05a1 ffbe a8a8 a2be 112e 213c
000001b0: 0070 c53e d509 9cbe 0290 953c f9ae ccbd
000001c0: 775e b6be b35c 163e aca9 0cbf 335e 89be
000001d0: 1588 493d 15aa e2bd b0e4 363e 25e0 953e
000001e0: ceb7 c2be 7de0 efbe 89a3 173e 045f eb3c
000001f0: bd79 23bd 4afc 6dbe 4f04 0fbf 5504 61be
00000200: c033 1c3e 89ea df3e efbf 023f a2a8 d8be
00000210: 1017 05bf df2a 0c3e 3b1d a13e 439b 583e
00000220: 1d59 cd3d cfde 843e 0185 f13e 51e3 bc3e
00000230: 4323 073f 54a2 dc3e 0730 17be 9830 0f3f
00000240: c66f cb3d cf06 21be db53 2cbd 652b 383e
00000250: d47f 94be 436c a53e b12c 8d3e 8af4 abbe
00000260: 1187 9cbe ecad 2cbe e6d7 9dbe 457c 43be
00000270: b8d5 97be 7b67 a8be 6377 eabe dc7b 0f3f
00000280: e0a7 bdbe deb3 d33b 83e6 523e 5467 8a3d
00000290: bda7 123f 2552 073f aa5b 263c e255 d83e
000002a0: 945c 9f3e 7d08 9bbe 86df b5be d1bc b63d
000002b0: dd5c 2f3e fe8f 793d 1ee5 873d 2ca6 bfbe
000002c0: 04e9 eebb 8a35 c83e c6ee e9be c61d 513e
000002d0: 9b1d 473e 9518 913e 3149 9dbd ef53 e73d
000002e0: 8086 ac3e 39a3 5a3d d693 ae3e c63b 95be
000002f0: 4e1e 82be 6243 0b3f d395 fd3e 1645 e83d
-0.5380449 -0.06450278 -0.38795334 0.24644193 -0.57639986 0.22450621 -0.23141593 0.5577756
-0.26822618 -0.26505738 0.47168988 -0.2226855 -0.33983168 -0.20685612 0.39478588 0.43294945
-0.53956175 0.34387 -0.12668632 -0.38924626 -0.100084 0.42014983 -0.45748058 -0.32006466
0.5745194 -0.06957944 -0.063123725 0.44581085 0.124275275 -0.005460479 -0.34897885 0.15715499
-0.4822975 0.3891564 0.16853365 -0.41945076 0.46386826 0.08007447 -0.42672235 -0.57322526
-0.41067833 -0.5040372 -0.26842502 -0.34234455 0.22176681 -0.13001408 0.061476875 -0.054889586
-0.29116097 0.06358223 0.37928876 -0.42392936 0.13615827 -0.029330613 0.24456812 -0.4046617
-0.2664389 -0.36729026 0.32631546 0.28533944 -0.38826343 -0.39497977 -0.23212329 -0.56833833
-0.1710268 -0.220438 -0.56752306 -0.40296993 -0.42868292 -0.41288826 0.51845145 -0.47180253
-0.05285236 0.21979502 0.36406446 0.017487532 -0.39994416 -0.20923631 0.5575094 -0.12313301
0.5044853 0.49404323 0.3143761 -0.3600536 0.085810624 0.09327766 -0.20879932 0.54501843
0.45614487 -0.22827248 0.060584832 -0.47728914 0.29260093 -0.06821655 -0.13031031 -0.015958985
0.3530068 0.043227974 -0.10263164 0.2831304 0.18947767 -0.36567566 -0.20406695 -0.021945324
0.41249228 -0.49927536 -0.317693 0.009837643 0.38562012 -0.3047625 0.018257145 -0.09994311
-0.35618946 0.146838 -0.549464 -0.2682968 0.049202044 -0.11067597 0.17860675 0.2927257
-0.38030857 -0.46850958 0.14808477 0.02873183 -0.03991102 -0.23240772 -0.5586595 -0.21974309
0.15254116 0.43733624 0.5107412 -0.42316157 -0.51988316 0.13688229 0.31467614 0.21152978
0.10026763 0.2595124 0.47171786 0.3689218 0.5278818 0.43092597 -0.14764415 0.55933523
0.099334285 -0.15725254 -0.04207216 0.17985304 -0.29003775 0.3230916 0.2757316 -0.33585006
-0.30571797 -0.16863221 -0.3082878 -0.19090374 -0.29655242 -0.3289145 -0.4579421 0.5604837
-0.3704214 0.006460651 0.20595746 0.067579895 0.572872 0.5285972 0.01015369 0.42253023
0.3112532 -0.30279914 -0.35522097 0.089227326 0.17125268 0.060928337 0.066354975 -0.37431467
-0.007290961 0.39103347 -0.45689982 0.20421514 0.19444887 0.28339067 -0.07679976 0.11295306
0.33696365 0.053378318 0.34097165 -0.29147166 -0.25413746 0.54399693 0.4952837 0.11341302

regime_proj.bias f4 [64]
00000000: 0f3f b4be 200b 3fbd 9131 b0bd 4c6e 9e3e
00000010: d8ae 0abf ab5f 023f 07d9 da3e 75ac 0cbe
00000020: 10c8 993e 9772 34bd c234 88be 153f bbbd
00000030: 6a6c 25bc 3e36 09be bd11 ce3e d1bc 87be
00000040: e48b 0dbf 1c53 24be dfec 80be b089 ec3e
00000050: f23a 783e aa40 823e bdb4 b03e d039 92be
00000060: f861 9fbe b29b b4be 18a7 f7be 09f2 c93d
00000070: 7687 9abe f680 123e 622c 413e b717 23be
00000080: 0b59 dfbe 8828 55be 1c58 0cbf 6c08 10be
00000090: fe69 b6be 5c8e 053f 32e4 0cbe fef6 db3d
000000a0: 42ec c4be 2a8d 03bf 9791 a33e 8ca3 c1bd
000000b0: 9d1f 53be 4fa8 3f3d d196 0e3d 084b 263e
000000c0: 4ecf 0cbf c726 6b3e 8572 c53d 129e 99be
000000d0: b1f3 07bf e748 0b3f 2c71 e5be 71e4 b23e
000000e0: 1a1e b53e 4b47 d6be d22b 3a3e 8e4c cdbd
000000f0: 1d19 7dbe 5d31 333c fe8e 873e b6ee de3e
-0.3520436 -0.04664147 -0.08603204 0.30943525 -0.5417304 0.5092723 0.42743704 -0.13737662
0.30035448 -0.044054594 -0.2660275 -0.09142891 -0.010096649 -0.13399598 0.40247908 -0.26511243
-0.5529158 -0.16047329 -0.25180718 0.46198797 0.24241236 0.2543996 0.34512892 -0.28559732
-0.31129432 -0.35275036 -0.4836967 0.09860618 -0.30181473 0.14307007 0.18864587 -0.15927015
-0.43622622 -0.20816243 -0.54821944 -0.14065713 -0.3562774 0.5217035 -0.13758925 0.107404694
-0.384615 -0.51387274 0.31947014 -0.09455022 -0.20617528 0.04679137 0.0348118 0.1623956
-0.5500382 0.22964011 0.096409835 -0.3000341 -0.5310622 0.54408115 -0.44812906 0.34939912
0.35374528 -0.41851267 0.18180779 -0.10024367 -0.24716611 0.010937062 0.26476282 0.43541497

transformer.layers.0.self_attn.in_proj_weight f4 [192, 64]
00000000: 1736 c33d 0f7a 9b3d 8362 89bd 47b3 223c
00000010: 7e65 e9bc 2842 5d3d 570e e6bd 1035 87bd
00000020: 8170 cfbc 8704 f43d b21a e93d f2fd 833c
00000030: 9dc9 0b3e 0971 fb3d de76 10be a5b9 293d
00000040: 38bb 5c3d b9e3 153e ca08 933c 325f afbd
00000050: 2e1f e8bb a9f6 f43d 1fdd e6bd e620 46bc
00000060: 966e cfbd 15ff f53d b23a 06be d5f1 af3d
00000070: db80 8cbd dd7d aa3d 04d0 363c 868b 57bd
00000080: 60c7 1f3d 04cf 04be 9f36 a63d b6bb 90bd
00000090: e12e 5e3b 2b94 363c 0581 e8bc 4e29 a53d
000000a0: 03eb 0f3e dcb2 073e de1a f53d 346f 2b3d
000000b0: 4e5a 81bd afa2 82bd 4c6b 80bd c061 0fbe
000000c0: cd09 0cbe 5c10 0bbe 7e0c 14bd a407 e63d
000000d0: 62bf 19be f12f 523a 22c1 07bd eb2e 513d
000000e0: 023f f2bd 599f f03d f41c 09be c77d b43d
000000f0: 5946 133e f0ce 9d3c 6ce1 ce3d 4392 98bc
00000100: 2fa2 81bd 224c a93d 4c28 de3d 2296 843d
00000110: 3db2 993d 3f24 c83d f0d5 183e 7cd9 6ebd
00000120: def1 0cbd eabd 463d dc09 15be 9829 f1bc
00000130: b17b d93d e204 b6bd 2997 0f3e a207 8d3d
00000140: 87e7 40bd 6b0f e9bd f18f 003e b468 bb3c
00000150: f126 0abd 2422 acbd 1dd2 81bd 0e56 383d
00000160: 5474 ed3d 1a21 fcbd 879e 16be 9bed 043e
00000170: ec68 093e 8f70 3a3d ae0c 06be 4c21 073e
00000180: 6b3c d03d a081 ae3d b6de 073e 1dbf 1d3d
00000190: 60bb 50bd 237e e9bd 71f7 753c 066e 0bbe
000001a0: 8abd b9bd 0387 fbbd 6c46 d3bb a776 1b3e
000001b0: e325 cf3d 7519 073d 1ebf 953c 1f35 213d
000001c0: c4c0 543d d1a5 273b 835b a1bd c816 bebd
000001d0: 35ab bdbd 72eb c03d 1eb5 113e f4fe 08bd
000001e0: e849 05be 54b2 1dbd 37d6 bebd d635 a13d
000001f0: 7fc3 da3c f41f eabc ad2c 2abd bdd3 193e
00000200: 1375 02bd 9eae b3bd ffb9 ecbd 884e 0cbe
00000210: 11f3 65bd 9768 3d3d f3c5 87bc 76e1 60bd
00000220: a5b2 39bd 09b4 f1bd 778b 85bb 293e b23d
00000230: a1b4 f83d 3a1a 15bd fa52 ebbd 6cde 123e
00000240: c2c1 07bc e20d 933d 2427 cf3b e49f a03d
00000250: 55cf dd3b 7ca6 b83d f6fc 143e b381 aabd
00000260: 158f 913c be44 cc3c 9744 573d 7d32 b9ba
00000270: 887b a0bc 60ec 8d3d d558 c43d a0be edbb
00000280: 6a62 c13c 7964 8bbc bed4 5d3d 1af4 b13d
00000290: 8499 a5bd a997 f53d b26f efbd 2445 e03d
000002a0: 1f6a a63d 5557 f5bc 8458 1bbe 3bc8 ea3d
000002b0: d5e5 92bc 609e 403c 6212 3f3d 5075 e4bd
000002c0: 334d 98bd 5dc6 01be ce05 d03c 0f22 343d
000002d0: 7b38 953d e9c1 db3d e10d b6bd ba58 16be
000002e0: 1105 40bd b871 3f3d 782a d7bc af58 d33d
000002f0: 1fbc 83bd 0da7 713d d14a 95bd a01c 6c3d
00000300: 41da 10bd 6c74 cfbc 99c9 1dbd 36b7 a73d
00000310: 2ebd 1a3d 1715 5fbc 9be4 87bd 2e2e 4c3d
00000320: 3867 84bc de8d 16be f570 d1bd e61a fc3d
00000330: 2a8d cb3d e8ae 0a3c 0099 8b3c ca52 b3bd
00000340: 1770 74bd f7a1 643d 2286 f33d fe5f 803d
00000350: e683 c53d 2413 7abd 9d28 adbd f766 0fbc
00000360: 0032 9b3d 036c eb3c c7ec 42bd de2e 183d
00000370: 7afd b73c 8690 103e cb99 f4bd 2ec1 e4ba
00000380: 18c6 01be 3522 173d 7d5f c7bd ffcf be3d
00000390: d644 d73d 30d5 ba3d 617c 81bc 6ef3 173e
000003a0: b7f9 c53d 2ca1 83bd 72b0 ad3d 4745 483c
000003b0: 8f16 a43c 7a85 c33d f20b d33d 9d7f 2a3d
000003c0: dbf0 e53b bc5f 063e b0a5 8c3d ec71 07be
000003d0: cbcb 7f3d 4e43 613d 5591 3abc e887 27bd
000003e0: 60a7 0c3e 575c ed3b 98e0 033e 6ad5 b13d
000003f0: fddd babd 4275 dbbd 39a0 923c 5752 9f3d
0.09531801 0.0759164 -0.06708243 0.009930438 -0.028490778 0.05401817 -0.11233204 -0.06601918
-0.0253222 0.11914926 0.11382045 0.016112301 0.13651128 0.12277419 -0.14107844 0.04143681
0.053889483 0.1463765 0.017948527 -0.08563079 -0.007083795 0.11961109 -0.11272644 -0.012092805
-0.101285145 0.12011544 -0.13108328 0.08591048 -0.06860515 0.08324788 0.011157993 -0.052623294
0.0390085 -0.12969595 0.08115887 -0.07067053 0.0033902454 0.011143724 -0.028381834 0.08064519
0.14054494 0.13251823 0.11968015 0.0418541 -0.063160524 -0.06378686 -0.06270465 -0.14002132
-0.13675614 -0.1358046 -0.036144726 0.11231926 -0.15014413 0.0008018008 -0.03314317 0.051070135
-0.11828424 0.11749143 -0.13389951 0.088130526 0.14382304 0.019263715 0.101015896 -0.01862443
-0.06329762 0.08266474 0.1084753 0.06473948 0.075046994 0.097725384 0.1492536 -0.058312878
-0.03441035 0.04852096 -0.14554542 -0.029438779 0.106192954 -0.0888765 0.14022507 0.068862215
-0.0470958 -0.11379894 0.1255491 0.022877075 -0.033728544 -0.08404949 -0.06338904 0.045003943
0.115944535 -0.12311001 -0.14708911 0.12981264 0.13418931 0.0455175 -0.13090774 0.13196295
0.10167774 0.08520818 0.13268551 0.038512338 -0.050959945 -0.11401012 0.015012608 -0.1361619
-0.09069355 -0.12281611 -0.006447604 0.15181981 0.10114648 0.032983262 0.018279608 0.0393573
0.051941648 0.0025581012 -0.078787826 -0.09281689 -0.09261171 0.09419908 0.14229247 -0.033446267
-0.13016474 -0.038500145 -0.09318202 0.078715965 0.026704548 -0.02857969 -0.041546512 0.15022178
-0.031849932 -0.0877354 -0.115589134 -0.13701832 -0.05614001 0.046242323 -0.016573882 -0.054902516
-0.045336384 -0.11801917 -0.0040754634 0.08703262 0.12143827 -0.036401965 -0.11490436 0.1434266
-0.008285942 0.07180382 0.0063218046 0.07842997 0.0067691007 0.090161294 0.14549622 -0.083255194
0.017768422 0.024935123 0.052555647 -0.0014129427 -0.019590154 0.069298506 0.09587256 -0.0072553903
0.023606498 -0.017015683 0.054157965 0.08689137 -0.080859214 0.119918175 -0.11691226 0.109506875
0.0812571 -0.02994887 -0.15170485 0.11463972 -0.017931858 0.01175651 0.04664839 -0.11155188
-0.074365996 -0.12673326 0.025393393 0.043977793 0.072861634 0.10730345 -0.08889366 -0.14682284
-0.04687983 0.04673931 -0.026265368 0.103196494 -0.064323656 0.058997203 -0.07289661 0.057644486
-0.035364393 -0.025324069 -0.038522337 0.081892416 0.037778072 -0.013615868 -0.066354 0.049848728
-0.0161625 -0.14702556 -0.10226623 0.12309818 0.09939034 0.008464552 0.01704073 -0.08756025
-0.05967721 0.055818524 0.11890818 0.06268309 0.09644298 -0.06105341 -0.08455012 -0.008752576
0.07577896 0.028738027 -0.04758909 0.03715407 0.022459734 0.14117631 -0.11943396 -0.0017452592
-0.12673223 0.036897857 -0.0973501 0.09317016 0.10511176 0.091226935 -0.015806379 0.14838955
0.0966677 -0.064272255 0.0848092 0.012223548 0.020030288 0.09546943 0.10305013 0.041625608
0.0070172376 0.13122457 0.0686754 -0.13227051 0.06245021 0.054995827 -0.011387189 -0.040901095
0.13735723 0.007243674 0.12878644 0.086832836 -0.09124372 -0.107157245 0.017898666 0.07779377

transformer.layers.0.self_attn.in_proj_bias f4 [192]
00000000: 50d1 41ba 4787 923a 6998 ccba c000 be3a
00000010: 5c44 aa3a c29f c3b8 cafb c3b8 3803 a139
00000020: dc18 203a f10f 45ba cfb8 88ba d925 15ba
00000030: 242b d73a ccea a9ba a94f 303a 68ca 84ba
00000040: e3a4 3f38 b194 653a cb94 92b7 c1b9 f8b9
00000050: 11e6 0eb9 ea5b 9c39 1857 77ba 46ce 0cba
00000060: f6c6 ae39 2026 523a 2b1d d8b9 f5e2 8cba
00000070: 73c3 0b3a d65d e2b9 d2c0 06b9 60d3 66ba
00000080: 8d20 b8b9 9123 7eba 2475 5937 1578 6e39
00000090: a5fc c33a 1ca8 033a 9eca f7b9 9ca9 9fb8
000000a0: a71b 173a 89f7 21ba 51f0 ceb9 4619 9a3a
000000b0: bdf2 28ba 5244 0eba ee3e a43a 2316 83b9
000000c0: d953 e1b9 bfb0 0b3b a7cf d0ba d8a6 afba
000000d0: 6109 113a 53c8 143a c054 34ba 0519 01bb
000000e0: 515b f339 c9af 05bb dc57 eaba d4ad dab9
000000f0: 2147 d939 ff0b 2639 6cb4 a93a f239 b03a
00000100: 7364 1cb4 a481 a6b6 eb59 4036 80b3 e3b6
00000110: b4bd 2c37 cacf 98b6 83b6 c7b6 14ed 8a35
00000120: 4339 95b6 648a 6a36 7f58 e5b6 0d4b 3f35
00000130: 6ba7 0036 db56 e635 e810 e2b5 494b 17b5
00000140: 10c2 d235 bc5a b7b5 f6fb 0d36 c72b b7b5
00000150: ab2c cab5 dddb b435 4bfe 0eb6 897c 2536
00000160: f2ed 1436 06b9 8eb4 7bad 1934 819a 3536
00000170: e553 09b6 4098 3db5 f673 84b5 3910 0f37
00000180: c4cb 1d36 de4d 91b6 7e77 e4b5 70db 4c34
00000190: 3599 a636 a3b1 9cb6 7f01 9c35 d853 18b5
000001a0: 3e7a 84b6 6705 26b5 8b48 c8b5 008b 48b6
000001b0: 4760 0eb6 1a4a 4c37 211b 2537 e734 d4b5
000001c0: ed39 eab5 2533 8836 d7d2 15b6 5fa2 96b4
000001d0: 04aa 19b6 95b5 0a36 7f7b 8535 1411 c835
000001e0: bbea 70b6 47d5 cfb5 6f52 9135 b4b8 0d33
000001f0: 0e70 9931 cf80 2936 7b90 2035 2249 e535
00000200: 68b4 7cba 3282 433a 7105 ff39 7d4b 8fba
00000210: 1d61 0aba 2c84 d1ba 7636 2dba e4ea af39
00000220: dca8 5bb9 0bbf 9eba 88a9 a4b8 da94 a8ba
00000230: ebaa 7c3a 4b5f 1839 de4f 7fba f2d7 293a
00000240: e859 8f39 7b7f 9439 5e42 823a 6be5 f3b9
00000250: 3453 463a bffa 9b3a 569b 413a 98df 97ba
00000260: 8db1 823a d75b e7b9 a141 09ba 064a a93a
00000270: 2184 1dba 653c 4a3a f5d1 9a3a 50d6 8ab9
00000280: 79c6 353a eb97 8739 0e44 85ba 6246 48ba
00000290: 3315 ad3a 4d28 e439 e1f1 4e3a 1d32 3fba
000002a0: 512f 973a a8fa 3bba 9671 48ba 0719 ce38
000002b0: 92c2 5a39 2e67 58ba 7e65 aab9 449a 4e3a
000002c0: 55aa 94b9 a198 963a 6f5c 793a bde2 283a
000002d0: 669c 16ba 4771 18ba ee90 0aba 300e 6aba
000002e0: 04ce 26ba ede8 603a ceb0 41ba 5462 10b9
000002f0: 34a0 46ba 9c8a 7bba a801 3d3a 2e91 e3ba
-0.0007393556 0.0011179232 -0.0015609387 0.0014496073 0.0012990343 -9.328082e-05 -9.345224e-05 0.0003071071
0.000610722 -0.0007517329 -0.0010431054 -0.00056895387 0.0016416055 -0.0012963652 0.00067257375 -0.0010131123
4.569151e-05 0.00087578135 -1.7473843e-05 -0.00047440644 -0.00013627882 0.0002982312 -0.000943528 -0.00053713133
0.00033336104 0.00080165453 -0.00041220462 -0.0010748791 0.00053315534 -0.00043175992 -0.00012851067 -0.0008805301
-0.00035119467 -0.0009694631 1.2961482e-05 0.00022742183 0.0014952613 0.00050223037 -0.00047262473 -7.613303e-05
0.00057643134 -0.0006178548 -0.00039470432 0.00117568 -0.0006444862 -0.00054270506 0.0012530962 -0.0002500276
-0.00042977816 0.0021315066 -0.0015931026 -0.0013401164 0.00055327086 0.00056756026 -0.0006879084 -0.001969875
0.00046416608 -0.0020398966 -0.0017878967 -0.00041709712 0.0004144246 0.00015835463 0.0012947447 0.0013445003
-1.4565175e-07 -4.9622777e-06 2.8662569e-06 -6.7860237e-06 1.0296168e-05 -4.554143e-06 -5.9519093e-06 1.03508e-06
-4.447212e-06 3.4949271e-06 -6.835034e-06 7.126226e-07 1.9170936e-06 1.7161614e-06 -1.6843233e-06 -5.636144e-07
1.5702699e-06 -1.366097e-06 2.1157298e-06 -1.3647303e-06 -1.5063173e-06 1.3475034e-06 -2.1307667e-06 2.4659405e-06
2.219222e-06 -2.6584183e-07 1.4312347e-07 2.7061035e-06 -2.0463424e-06 -7.062954e-07 -9.868515e-07 8.527241e-06
2.351343e-06 -4.3304017e-06 -1.70221e-06 1.9078811e-07 4.965021e-06 -4.669842e-06 1.1623341e-06 -5.674642e-07
-3.9481374e-06 -6.184768e-07 -1.4922274e-06 -2.988323e-06 -2.121569e-06 1.2176601e-05 9.841083e-06 -1.5810627e-06
-1.7451217e-06 4.05907e-06 -2.2325455e-06 -2.8057818e-07 -2.2897739e-06 2.0669297e-06 9.945214e-07 1.4906132e-06
-3.5899418e-06 -1.5484774e-06 1.0827333e-06 3.2997107e-08 4.465625e-09 2.525794e-06 5.981489e-07 1.7083114e-06
-0.000963992 0.000745806 0.00048641444 -0.0010932531 -0.0005278753 -0.0015984825 -0.00066075416 0.00033553608
-0.00020948373 -0.0012111379 -7.851707e-05 -0.0012861744 0.0009638506 0.00014531349 -0.0009739379 0.0006479017
0.0002734207 0.0002832374 0.0009937992 -0.00046519501 0.0007565499 0.001190029 0.00073855126 -0.0011587022
0.0009971127 -0.0004412818 -0.0005235915 0.0012915737 -0.00060087634 0.0007714688 0.001181184 -0.00026481086
0.0006934177 0.00025862394 -0.0010167377 -0.00076398824 0.001320517 0.00043517575 0.0007894319 -0.0007293539
0.0011534487 -0.00071708346 -0.000764632 9.827507e-05 0.00020862583 -0.0008255121 -0.00032500544 0.0007881264
-0.00028355667 0.0011489579 0.000951237 0.0006442478 -0.0005745351 -0.00058152195 -0.00052858784 -0.00089285057
-0.0006363096 0.00085796305 -0.00073887117 -0.0001376954 -0.0007576973 -0.00095955445 0.00072100246 -0.0017361993

transformer.layers.0.self_attn.out_proj.weight f4 [64, 64]
00000000: 9e30 0d3d a85f ff3d 6264 b93b ecfb a3bd
00000010: 9e58 81bd 06e8 363d 5948 cdbc ced7 ab3d
00000020: 85c4 533d a79a e73d d19d 90bc 48b0 bfbd
00000030: 0cbd afbd be91 a1bd f382 bf3d c1d6 fb3d
00000040: e618 4f3d b846 113d cc75 73bd 1ebb 483d
00000050: aa76 3e3b ce4d f3bd 2b00 1e3d 08fd 603d
00000060: d829 903d 5c7e 96bb 7f59 b9bc 4a8f 143d
00000070: fc31 51bd 9ea7 e9bd 36e1 20bd 0785 51bc
00000080: fc32 9ebd 335a 64bd a115 ad3d f32b 1b3c
00000090: 8e2f babd b06f 393d 6b43 4bbc 950e 99bd
000000a0: 29c3 833d 07fe 08bc 8a0b e33d 1557 35bd
000000b0: 6846 b53b b875 2ebd e8be 92bc 74ef 74bd
000000c0: d6de 05bd bf14 0fbb 369a 47bd 9c25 dfbd
000000d0: e570 92bd 1973 a1bd 16ca ca3d 58dc b23d
000000e0: 7d5d db3d 398a cfbd 7b44 283c 01ca c3bd
000000f0: d876 77bd f675 7bbd c197 acbd 79a4 a9bd
00000100: fdb8 913d edc2 6f3d 8349 b6bd a176 70bd
00000110: f065 6abd 48ff 28bd e400 dfbd 65b6 12bd
00000120: e014 2cbd 1958 b6bd c165 8ebd a081 74bd
00000130: 6a71 a03d 4d58 c33d 16bb 00be 153b 8fbd
00000140: 0ec6 223d 74f6 6ebd ca14 b1bd a8db e7bd
00000150: f4af 1f3d dea1 d83d 71fe 9ebd 3bc4 d03d
00000160: 727f b93c 120d 953c 9ed5 62bd 7f03 2ebb
00000170: 4d98 cabc 828a 6dbd 1d2c f93d 0381 ffbd
00000180: ca4f dd3c 65b2 c8bd 8781 933d a9c8 42bd
00000190: e8c3 873b e945 533b afda 8e3c 0d8a 5fbd
000001a0: 9a9b c53d e650 94bd 3db8 f43d 1487 cbbd
000001b0: 2d17 913d c74e 95bb fcd1 a43d 0f6e 033d
000001c0: 81b1 dabd 5030 9e3d 5d47 4fbc 81e4 863d
000001d0: 4e83 6ebd 4815 c0bd 1d27 a7bc 4de9 1bbc
000001e0: 0abf f53d 7713 713d 7634 173d 7d9c 793c
000001f0: 9574 983d 7531 963d 0cbc 96bd 4274 713d
00000200: 275a bbbd 1b76 433d 5270 7abd 88ab e0bd
00000210: 627c 96bd fc99 ea3c 2771 d43d ced4 eb3d
00000220: 4bd6 ddbb 30b5 f4bd d736 f03d 9bc0 c8bd
00000230: f677 733d 8283 86bd cfdd c43d eb3b 603d
00000240: c340 df3c 906c 97bc 4ba8 843d dc1b 7f3d
00000250: 6d25 18bb b24d f9bd 15cf cfbd 4813 54bd
00000260: 4d12 91bd 0a7b 73bd f99b ad3d a47d ebbd
00000270: 416b dcbd 735f ee3c 90d6 f6bd 0f3e e73d
00000280: 8b20 b03d 2a64 16bd c2ed 11bb fa46 5f3c
00000290: 2694 9f3b f4b2 11bd 8a46 d7bd 0f86 973d
000002a0: b8b8 02bd bbff cbbd ab2b ab3d b1c8 7fbb
000002b0: 374b b03d 74bd 4ebd 681c 06bd 32e9 ce3d
000002c0: 4ea8 f0bd 9989 7e3d 6c33 5abd cb45 0dbd
000002d0: a42f b2bd 767a 5abd 95b6 0bbc 2bb7 8e3d
000002e0: c421 903d 224f f2bd 6841 67bd 96a6 54bd
000002f0: b0b0 2bbd 9a5e fbbd c2be cc3d a35a cdbd
00000300: 266a f83c 62c3 903c 3873 0b3d ba10 ecbd
00000310: 9802 e8bd 7040 9ebd 9570 29bd 4c3e ed3d
00000320: 2434 423d a9a5 e33d 59ef abbd ebe7 e53d
00000330: cd96 85bd 250b 5bbd 1cff 683c 5367 babd
00000340: eb2a 853d 1de3 dd3d b8e7 51bb 4647 57bb
00000350: ea16 833d aac8 e93d 2398 393d 38fd 293d
00000360: f360 2c3d 59a3 f8bd 5402 f43d 64e4 89bd
00000370: 025b f13d 7644 91bd dfd4 b83c dbd1 963d
00000380: f429 763c edc4 cdbc 7622 1c38 54a0 f13d
00000390: 6550 bbbd 6c7b febd 31ad 873c bc5d c3b7
000003a0: 9ea4 8abd cdeb f8bd c8b9 c0bc 3f68 99bd
000003b0: e9cb 9c3d 91ed 9cbd 94ab a93d 0615 90bd
000003c0: f4b7 dd3c b713 163b 8574 b1bc c12d 0d3c
000003d0: a1ec 0cbd 33ad 6dbc 3b88 ffbd 9508 ef3d
000003e0: 30d6 f53d 5729 bcbc cf44 37bd fd78 60bd
000003f0: c04a 253d f4a4 a33d 8b02 a13d 64d8 ccbc
0.034470193 0.12469417 0.0056577185 -0.08007035 -0.063157305 0.04465487 -0.025058912 0.08390771
0.051701088 0.113087945 -0.017653378 -0.09359795 -0.0858098 -0.07889126 0.093511485 0.122968204
0.050560854 0.035467833 -0.05943851 0.049006574 0.0029062429 -0.118800744 0.03857438 0.05492881
0.07039231 -0.0045927 -0.022625683 0.036269464 -0.05107306 -0.114089236 -0.039277278 -0.012788064
-0.07724568 -0.055750083 0.08451391 0.0094709275 -0.090911016 0.04527253 -0.01240621 -0.074734844
0.06433708 -0.008361346 0.11086185 -0.0442725 0.0055320747 -0.042592734 -0.017913297 -0.059798673
-0.032683216 -0.0021832434 -0.04873105 -0.10895845 -0.07150439 -0.07883281 0.09901826 0.087334335
0.10711191 -0.10133786 0.010270233 -0.095600136 -0.060416073 -0.061391793 -0.08427382 -0.08283324
0.07115362 0.058535505 -0.0890074 -0.058706883 -0.05722612 -0.04125908 -0.10888842 -0.035818476
-0.042012095 -0.08903522 -0.06953002 -0.059693933 0.07834132 0.095383264 -0.12571368 -0.06993691
0.03973966 -0.058340505 -0.08646543 -0.11321193 0.03898616 0.10577749 -0.077633746 0.10193678
0.022643778 0.018194709 -0.055379502 -0.0026552377 -0.024730826 -0.05799342 0.12166617 -0.12475779
0.027015585 -0.09799651 0.0720244 -0.047554646 0.004143227 0.0032237715 0.01743826 -0.054575015
0.09648819 -0.07241993 0.11949203 -0.099378735 0.070844986 -0.00455651 0.08047864 0.032087382
-0.106783874 0.07724059 -0.012651292 0.065865524 -0.05823069 -0.09379059 -0.020404393 -0.009516072
0.119993284 0.058856454 0.036915265 0.015235064 0.07444111 0.07333652 -0.07360086 0.058948763
-0.091480546 0.047720056 -0.061142273 -0.10970217 -0.07347943 0.028637879 0.103731446 0.11515199
-0.0067699305 -0.11948621 0.1172921 -0.098023616 0.059440576 -0.06568052 0.09612619 0.054744642
0.02725256 -0.018484384 0.06477412 0.06228243 -0.0023215667 -0.12173022 -0.1014692 -0.0517762
-0.07083569 -0.05944351 0.08477015 -0.114985734 -0.107626446 0.029098248 -0.12052643 0.112911336
0.08599957 -0.036716618 -0.002226696 0.013627762 0.0048699556 -0.035571054 -0.10511501 0.073986165
-0.031914443 -0.09960886 0.083579384 -0.0039029534 0.08608096 -0.050473645 -0.032741934 0.10103072
-0.117508516 0.062142942 -0.053271696 -0.034490388 -0.08700493 -0.053339444 -0.008527418 0.0696853
0.0703769 -0.118315 -0.05645886 -0.05191668 -0.04191655 -0.12273903 0.09997322 -0.10027053
0.030324053 0.01767129 0.034045428 -0.11526628 -0.1132862 -0.07727134 -0.041367132 0.11584148
0.047413006 0.111155815 -0.08395261 0.112258755 -0.065229036 -0.053477425 0.014220979 -0.09101739
0.065023266 0.10834334 -0.0032028984 -0.0032848879 0.06400855 0.11415227 0.045311105 0.041501254
0.042084645 -0.12140531 0.119145066 -0.06733015 0.117849365 -0.07093136 0.022562442 0.073642455
0.015024651 -0.025118316 3.7225393e-05 0.11798158 -0.091461934 -0.124258846 0.016562076 -2.328946e-05
-0.067696795 -0.121543504 -0.023526087 -0.074905865 0.0765608 -0.076625 0.08284679 -0.0703526
0.027065255 0.0022899935 -0.021662006 0.008616866 -0.034405354 -0.014506626 -0.12477156 0.11671559
0.12003744 -0.022968931 -0.044743355 -0.054802883 0.04035449 0.07990447 0.07861813 -0.025005527
