results/model/model_21.pth (torch, 440417 bytes, 36 tensors)

cls_token f4 [1, 1, 64]
00000000: 8f36 e0be 96e4 10bf edab 5ebf 1a8c 913f
00000010: 8193 2bbf 2a69 85bd 2b51 abbf 4f69 67be
00000020: 2fd0 6cbf 5a25 8ebf 7522 c43f 8e12 923f
00000030: cf21 6fbf 34cc 05bf f97e 883f d47d fdbe
00000040: dd87 90be 823f 023f c7ba adbf b420 8f3f
00000050: 7131 513f d2ae ac3e 37c2 383e 08db 5a3f
00000060: bd43 e6bf c721 ce3f 1e5b 38be 3369 0d3f
00000070: 1689 d6be 3a78 8d3e fb85 97bf bdc5 f53e
00000080: 626d e8bf 8ed5 64be 0b7a 80be b4d1 f2bf
00000090: e47c c43f d7f7 e23f 5de1 8a3f fcb3 6bbf
000000a0: 6d51 b9bd e42e 2abf 9985 17bf 3767 5cbf
000000b0: 1568 19bf e7ac e6be 9de7 adbf 2d8c df3e
000000c0: 6707 07bf c085 c2bf 6fa4 7c3f 0167 4d3f
000000d0: cfbf b53e c808 b93f 9e8e 99be b59b 67bf
000000e0: 0917 9a3f bdce 4c3e 2012 d33a 10b7 a8bf
000000f0: 2a13 52bf f4d4 013e 2a8a 353f e73e 7ebe
-0.43791625 -0.56598794 -0.8698109 1.1370881 -0.6702195 -0.06514199 -1.3384145 -0.22598766
-0.9250516 -1.1105149 1.5323015 1.1411912 -0.9341096 -0.52264714 1.0663749 -0.49510062
-0.28228655 0.50878155 -1.3572625 1.1181855 0.81716067 0.33727127 0.18042837 0.85490465
-1.7989422 1.6104058 -0.18003508 0.55238646 -0.41901463 0.27630788 -1.1837763 0.48002425
-1.8158381 -0.2234709 -0.2509311 -1.8970246 1.5350614 1.7731885 1.0850025 -0.9207151
-0.09048734 -0.664778 -0.5918823 -0.86094993 -0.5992444 -0.4505379 -1.3586308 0.43661633
-0.5274567 -1.5197067 0.98688406 0.80235296 0.354979 1.4455805 -0.2999162 -0.90471965
1.203828 0.2000074 0.0016103424 -1.3180866 -0.8206049 0.12678891 0.70913947 -0.24828683

input_proj.weight f4 [64, 28]
00000000: a847 043d dce8 f0bd a07d 39be c93c 003d
00000010: 8470 1f3e 0062 a33d 63d8 09be 0eab 11be
00000020: ce42 843d 37e7 923d 100b a63d 53db 0cbe
00000030: db57 35be 0d3b 093d 2f13 88bd 6b3a 133e
00000040: 6829 023e c25f 3dbe 8304 eabc 844b 503c
00000050: d7f4 34bd 26f8 0cb9 ce46 29be b650 803c
00000060: 2f22 0c3e 1a24 fdbc 5df1 39be 55d4 31be
00000070: ff8c 9dbd 4827 0cbe dc47 22bd 5acc 0a3e
00000080: 54c8 3f3e 3613 ecbd 0eda b4bd 4c6a 24bd
00000090: 6318 b43c c730 fabc 297f f43d ee6a 3a3d
000000a0: 6f14 c03d dd0f ee3d 454a a33d 21f6 b83d
000000b0: b9c6 423c ae1e 723c ebe4 f0bd 90ae ec3d
000000c0: 4a4c 5f3d 5738 1d3e 39b7 123e 0b0f a7bc
000000d0: 58b2 943d 98c2 033e ba97 40be 5c41 32be
000000e0: 6b28 ae3d b11a 29be ecf9 3fbe 7ab6 0dbe
000000f0: 02f6 d5bd c761 79bd 462e 11be 63f8 5e3d
00000100: 13b3 103d 715e 6c3d 7c7d 3bbe f548 2f3e
00000110: 2acd 12be f68f c73d ae3a 31be 73a7 f9bd
00000120: 8b45 f93c fc6b 023e a995 efbd 7fcb 3d3e
00000130: 3e1b 983d 98af 2f3b 0711 803d 0d9e 83bd
00000140: 8113 34be 8fba 3fbe 0089 c13c 01fd 2a3e
00000150: 481a 093d 3f0d 0bbe c798 a63c 39eb 8c3d
00000160: 55f3 05be 19a8 213e 8594 943d 16ee d5bd
00000170: 5bba d03d 0127 83bc 43f8 403e 5260 3cbe
00000180: 70b0 b2bd afcc 3e3e 318d 12be 7fd2 f0bd
00000190: f3ee 40bd c888 173e 8e39 da3d f78d e5bd
000001a0: c6fa c1bd 2a5f 4c3d f23d debd 9ec4 b13d
000001b0: a050 9cbd e0c8 15be e62c 2dbe 9afc 233d
000001c0: 0926 d9bd a21d 473d 3b21 873d 7a64 8ebd
000001d0: 4e4f c43d 520f aa3d 88b1 9a3d b720 793d
000001e0: 115b 923d 4e84 e13d 6fdc b9bd 740e e63c
000001f0: 9317 1abe edde 143e 8ab4 16be 196c cfbd
00000200: 60c8 27be 9cd7 c9bc a33e 403e f62d e2bc
00000210: 4c6d 013d 88f9 57bd 643e 3dbe 7760 2e3e
00000220: 66df 4dbd 9cb4 0e3e fc03 de39 c7bb 68bd
00000230: 10e3 9dbd 67cf 8dbd d585 f2bd ed3a b6bd
00000240: eed0 563d 60d5 25be 30ee 143e 0194 d3bd
00000250: d118 17be 4888 2c3d 9141 22be 120b 93bd
00000260: 9e55 f23d e856 ffbd 7347 77bd 2bfa f7bd
00000270: c120 fa3d dc7c fc3d f04a 313d 0ada 7f3d
00000280: 4fbb 473d 31ed ebbd fad8 923d d295 aa3d
00000290: e732 e2bd d9da d4bd 035a 3bbe 128b 24be
000002a0: ba24 783d be60 b9bc a32b acbd 335f 873a
000002b0: bbd9 ad3d 369e 363e 734d f43c ff46 08be
000002c0: 3522 9dbd d294 793d 9d81 2fbe 0a05 04be
000002d0: c266 c3bd 04bb fb3d 560f a93d 43ba 4dbd
000002e0: e0d0 f1bd 8c4e 913d c770 38be c495 cd3c
000002f0: 1c86 39be e41b 5abd 8c69 54bd 58e6 1d3e
00000300: d43c c1bd 219a 32be 558d 07bd f2fb aabd
00000310: 5177 283e 249d 6dbd 0752 2ebe f5a0 45bd
00000320: ae08 273d bf08 c1bd d57a 2dbe 1eb2 3d3e
00000330: 9848 093e 1dd7 f63b c18b 3f3e 5737 53bd
00000340: 4eee b03d 7e53 29be 01b3 c8bd a924 adbc
00000350: 1c1c 573d 1e74 013e 94b5 8f3d 8902 b93d
00000360: 1702 85bc 30e2 5a3d c73d cc3d 5b25 29be
00000370: c57a 2ebe 5214 03be 7958 f1bd 195d 67bc
00000380: 7677 edbd 1e15 1f3d 36ec 613d 6d1c 34be
00000390: c171 183e 628d 063d 96d8 ba3c 8a8e f0bd
000003a0: 6ed5 433d 82d9 9abd c753 2c3d 19c7 a63c
000003b0: 9a59 1e3e 4e04 0c3e b732 37bd 124a 97bd
000003c0: d181 503c 06ae 083e f4cd fe3d cb14 243e
000003d0: d1a8 cf3d 3c44 263e e3ca c0bd 0095 e03d
000003e0: e314 e2bd 842e 1ebe 0dd9 2bbe 13d0 773c
000003f0: 688b 543d 65b2 5b3d 876d 003e 29a3 3c3e
0.0322949 -0.117631644 -0.18114328 0.03130797 0.15570265 0.079776764 -0.13461451 -0.14225408
0.064580545 0.07173007 0.08107579 -0.1375554 -0.17709295 0.03350358 -0.06644284 0.14377753
0.12711108 -0.1849356 -0.028566604 0.012713317 -0.04417881 -0.00013443883 -0.16530916 0.015663486
0.13684915 -0.030901004 -0.18158479 -0.17366154 -0.076929085 -0.1368686 -0.03961931 0.13554516
0.18728763 -0.11527102 -0.08830653 -0.040140435 0.021984285 -0.030540837 0.119383164 0.045512132
0.093788974 0.116241194 0.0797315 0.0903132 0.0118881995 0.014777822 -0.11762413 0.11556733
0.054516114 0.15353523 0.14327706 -0.020392915 0.07260579 0.128672 -0.18807879 -0.17407745
0.08503803 -0.16514088 -0.18747681 -0.1383914 -0.10447313 -0.060884263 -0.14177808 0.0544361
0.03532703 0.057707254 -0.18309587 0.17117675 -0.14336076 0.09744255 -0.17307541 -0.121901415
0.030428668 0.12736505 -0.11698467 0.18534659 0.07427071 0.0026807543 0.06253248 -0.0642663
-0.17585565 -0.1872351 0.023624897 0.16698076 0.03347233 -0.13579272 0.020336522 0.06880803
-0.13081105 0.1578678 0.0725489 -0.10445802 0.101917945 -0.01600981 0.18844704 -0.18396118
-0.08725059 0.18632768 -0.14311673 -0.11758899 -0.04710288 0.14798272 0.10655509 -0.11208718
-0.09471659 0.049895443 -0.10851659 0.0868008 -0.076325655 -0.14627409 -0.16911659 0.04003582
-0.10602958 0.048612244 0.06598135 -0.06952758 0.09585439 0.08303703 0.07553393 0.060822215
0.07146276 0.11011563 -0.090752475 0.028083064 -0.15048055 0.14538164 -0.14717308 -0.1012804
-0.16385031 -0.024638943 0.18773894 -0.027609807 0.031598374 -0.052728206 -0.18480831 0.17028986
-0.050261877 0.13936085 0.00042346108 -0.056819703 -0.07709324 -0.069243245 -0.11841933 -0.08897958
0.052445345 -0.16194677 0.14543986 -0.10330964 -0.1475556 0.042122155 -0.15845324 -0.07179846
0.118327364 -0.12467748 -0.060370874 -0.12108263 0.122132786 0.123285025 0.043284357 0.062463798
0.048762616 -0.1151985 0.07170291 0.08329357 -0.11044865 -0.103933044 -0.18296055 -0.16068676
0.0605819 -0.022629138 -0.084067605 0.0010328054 0.084887944 0.1783379 0.029822087 -0.13308333
-0.0767254 0.06093294 -0.17139287 -0.12892547 -0.09541084 0.1229153 0.08254878 -0.05022646
-0.11807418 0.0709506 -0.18011771 0.025095828 -0.18117565 -0.053249255 -0.05185847 0.154199
-0.0943543 -0.17441608 -0.03309377 -0.08348836 0.16451766 -0.05801119 -0.17023478 -0.048249204
0.040779762 -0.09425496 -0.16941388 0.18524978 0.13406599 0.0075329677 0.18705656 -0.051566448
0.08639203 -0.16535756 -0.09799767 -0.021135645 0.05251704 0.12641951 0.07017055 0.09033687
-0.016236348 0.053438365 0.099727206 -0.16518156 -0.1703902 -0.1280072 -0.11784453 -0.014121317
-0.11595051 0.0388385 0.05515691 -0.17588969 0.14887144 0.032849677 0.022808354 -0.11745937
0.047810964 -0.075610176 0.042072084 0.020358609 0.15463868 0.13673517 -0.0447261 -0.07387175
0.012726263 0.13347635 0.12441626 0.16023557 0.10139621 0.16236967 -0.094136976 0.109659195
-0.1103914 -0.15447432 -0.16782017 0.015125292 0.05189076 0.053636927 0.12541781 0.18421616

input_proj.bias f4 [64]
00000000: c597 d2bd 2a2c e4bd 6ebb 373a 7eb7 56bd
00000010: dcf8 90bd 01b5 dd3d 8064 0d3d a8af 8c3d
00000020: 92fc c13d 3149 e0bd 9afd 123d 568f 0f3d
00000030: d435 3abd f1cb 2f3e 7f3b 92bd 833b e13d
00000040: b1b3 f23d 14c8 b53d 4d6e a63d 2c0c 75bd
00000050: 1932 1dbd 80ff e13d f69a 383d 90b5 34bd
00000060: dc91 31be e07c 943d 2028 b3bc ee38 983d
00000070: 6cf8 1d3d 8481 ba3d 200b 18be a284 2b3e
00000080: bf72 cf3d 5d04 5abd 99b3 163d 94ba 2fbe
00000090: 5b41 0ebe 7941 2e3d abd8 7fbd 09d5 653d
000000a0: d9a2 0f3e f3dd f5bd d380 13be ce56 d3bd
000000b0: 9e1f 4a3d 9650 d3bd 22de 0f3d 493d 47bd
000000c0: 875e b53d 317e 283b 6fd8 003c 5084 6e3d
000000d0: 041a ecbd 366d 793c e61e 2cbd ac64 e4bd
000000e0: 4653 ce3d c676 243e f704 393e 1124 5c3d
000000f0: 2453 203e 8480 19bc 663f 1ebc ab2b c03d
-0.10282854 -0.11141236 0.0007008825 -0.052421086 -0.07078716 0.108255394 0.034519672 0.06869441
0.09472002 -0.1095146 0.035886385 0.035048805 -0.04546149 0.17167641 -0.07140254 0.10997679
0.1185068 0.088760525 0.08126507 -0.05982606 -0.038377855 0.11035061 0.045069657 -0.044118464
-0.17340797 0.072503805 -0.021869719 0.074327335 0.03856699 0.091067344 -0.14847994 0.16749814
0.10129308 -0.053226817 0.03679237 -0.17161018 -0.13892119 0.04254291 -0.06246249 0.05611137
0.14026965 -0.12005224 -0.14404611 -0.10319291 0.04934656 -0.10318105 0.03512395 -0.04864243
0.0885592 0.0025709982 0.007864102 0.05823165 -0.115283996 0.015223792 -0.042021655 -0.11152014
0.10074477 0.16060933 0.180683 0.053745333 0.15656716 -0.009369019 -0.00965867 0.09383329

stock_emb.weight f4 [5, 64]
00000000: 6a65 2d40 7fa8 813f 460f 933f eccb e23f
00000010: e794 503f c511 633e 4ff4 003f aa03 8dbe
00000020: 5595 35bf cde9 17bf 7f0f fc3f 0b8e 41bd
00000030: d601 adbf 1ba9 8ebe 273f f43f c0db 06bf
00000040: 9500 90be 34dc 713e 60f8 313f c7bb cbbf
00000050: ac3c 6abf 2ca9 103f e002 493f a6e5 af3f
00000060: f58f 77bf 645d fb3f 7a75 14bf fcbe fcbf
00000070: 2450 10bf c3eb 11bf 8afb 9fbf c3d0 21bf
00000080: f96d 6ebf 5e55 663f c3a2 5b3f a83e 833f
00000090: f505 183e 3a89 b7bf e6a4 743f 8d05 893f
000000a0: b21a b33f fdc8 e9be 26d2 b9bd e262 02be
000000b0: 72ed f53f 28a3 9abf 69e1 9ebc d0a6 3b3e
000000c0: 4c6b 3abf 0c36 cebd b308 883f 36e4 77be
000000d0: 5a82 7dbe 7fb1 913f 2c9f 823f 1d86 c23e
000000e0: fd34 07bf a791 dcbe 4cd6 9dbf 19cf 383d
000000f0: d94d 9c3f 61e7 8b3e f936 143f 480b 253f
00000100: 50bb 333f c5d9 0fc0 8fda 8abf 9f1a babf
00000110: 59c8 9b3d e493 c53f 11ee 2f3f 8fd5 34bf
00000120: f7cf 5bbd 5d17 1440 878b 9d3e dbf3 5abf
00000130: 3247 3f3f 4cad ef3d 7c12 11bf 9c20 e73f
00000140: 55f7 02be bd1d 64bd f0e0 ea3b dbe8 4f3f
00000150: 232f c43d 1dc0 113e 6acd 383f 4b81 51bf
00000160: c4b6 6fbf f44b 813f 0019 503f d5df dcbe
00000170: 476b 093f d20d eebe 01c6 283f ff05 c13f
00000180: b207 b83e 0cf0 253f f1ee 9f3c 50c2 b63e
00000190: ba7c 163f abb0 09bf 15ae 333f acc5 3240
000001a0: 62ef 813f 8f62 a1bf 6109 03c0 a995 e63d
000001b0: 5921 7bbf 3cac fabf 06fb f0bd 4759 4b3f
000001c0: 28db 43bc 2f8e 21bf 8543 6fbf 1cc9 d5be
000001d0: 0181 a83e be7d 21bf abae c43e 5cbe 003f
000001e0: cb62 633d 47cc bcbd 14f9 0a3f f5e5 20bf
000001f0: f4a4 013e 946c d9bf 6776 473e 4b55 473f
00000200: 367e ab3f 2dfe 1440 3f31 3fbf a709 1fbe
00000210: 2d5c d2be 3f55 e43e 9dfb 00c0 97b5 b33f
00000220: dbbb c73e 9990 43bf 492d 77be a5d1 c2bf
00000230: 84f7 c03c 0cdd b8be ffee fe3f d469 0a3f
00000240: 8630 a2bf 7591 99be d07c 0ac0 8b53 dd3f
00000250: e834 7a3f f6fb 12c0 aabe 8b3f d68b 04c0
00000260: baca 89bf 7722 5c3f 47f3 7d3f f4b2 f9be
00000270: 0fdc 3fbf d144 ea3f 6437 ad3c 75cb e8bf
00000280: d8b0 63bf 78b1 d8bf 2279 96be d648 14bc
00000290: b281 be3d 8812 ae3f 9465 cbbf c7ce d53e
000002a0: d2b8 34bf 798f 833f b3b0 e4be 2e9d 56bf
000002b0: e440 f43e 07b1 00bf 36ed e63e 21cc 44bf
000002c0: cb95 963f 4aa5 2cbe 0c54 70bf c998 633c
000002d0: 2340 98bf 0ec5 0ac0 dce8 a3bf 2cc2 dfbe
000002e0: 3fc4 55be 8a00 b23e 4bf5 35bf 95bd cc3f
000002f0: 0644 a93f ef25 d63d 710f 6f3e 7a67 cd3e
00000300: b350 863f 6258 89bf e555 5a3f e1fd a7be
00000310: 9871 b4be ce49 00c0 0308 17c0 cd9d e13e
00000320: 0ccf b63f 7c8c e5be d792 763f 9d4e 2ebe
00000330: f2e3 323f fd5f 863f dc2b 1fbf 65ac cbbf
00000340: d992 053f 9eaa 24bf 0d7e 45be bbb4 9c3f
00000350: e1da d53f 0b33 a53e 26a4 ecbe ea96 c1bd
00000360: 8e6c 983f 58d0 643d 677c 2b40 d7e3 96bf
00000370: c6a6 e9be 62b0 073e eb29 8fbe cb0a 3b3f
00000380: 4563 ac3f 1f71 943f a0c7 5c3f 3e8f 60bf
00000390: e4d9 573f aa0c b73e 8cf4 173f 211b d03f
000003a0: b963 a5bf 3d6c cfbf 86e9 f1bf 7ef6 a43f
000003b0: feec 933f d813 123f 73ff d23e 497c a6be
000003c0: d979 75bf 7eff 0abf b55d 1d3e ce82 e63e
000003d0: 4bda a53f 7e8e 613f 4443 90bf d36b 8f3e
000003e0: dacc c83f c01b 9ebe 12b8 863f df5a 15bf
000003f0: 5c63 863f 2e4e 7fbf 077e a9be 2206 e0bc
2.7093148 1.0129546 1.1489036 1.7718482 0.81477207 0.22174747 0.50372785 -0.27541858
-0.7093099 -0.59341127 1.9692229 -0.047254603 -1.3516185 -0.27863392 1.9081773 -0.5267906
-0.28125444 0.23619157 0.69519615 -1.591668 -0.9149883 0.56508136 0.7852001 1.3741958
-0.96704036 1.9637876 -0.57991755 -1.9745784 -0.56372285 -0.5700037 -1.2498639 -0.6320917
-0.93136555 0.8997401 0.8579523 1.0253496 0.14846022 -1.4338753 0.95564115 1.0704819
1.3992522 -0.45661154 -0.09073286 -0.12733033 1.9213088 -1.2081041 -0.019394593 0.18325353
-0.7281997 -0.100689024 1.0627655 -0.2420815 -0.24756756 1.1382293 1.0204825 0.37992945
-0.5281523 -0.43079874 -1.2331023 0.04511938 1.2211257 0.27324966 0.5789638 0.6447034
0.7020769 -2.2476666 -1.0847949 -1.4539374 0.07606573 1.5435758 0.68722636 -0.70638365
-0.053665128 2.313926 0.30770513 -0.85528344 0.7471801 0.11702976 -0.5666883 1.8056827
-0.12789662 -0.055692423 0.007167928 0.81214684 0.09579303 0.14233442 0.72188437 -0.8183791
-0.93638253 1.0101304 0.81288147 -0.4313952 0.5367932 -0.4649492 0.6592713 1.5079955
0.3594337 0.6481941 0.019523116 0.35695124 0.5878407 -0.537852 0.70187503 2.793315
1.0151179 -1.2608203 -2.0474474 0.11259014 -0.9809776 -1.9583812 -0.11766629 0.794331
-0.011954106 -0.6310758 -0.934624 -0.41754997 0.32910922 -0.6308249 0.3841451 0.50290465
0.05551414 -0.0921865 0.54286313 -0.62850887 0.12660581 -1.698626 0.1947876 0.7786452
1.3397892 2.3280137 -0.7468452 -0.15531026 -0.4108595 0.44596288 -2.0153573 1.4039792
0.3901051 -0.76392514 -0.24138369 -1.5220228 0.023555525 -0.36106145 1.9916686 0.5406773
-1.2671058 -0.29993787 -2.163868 1.729112 0.9773698 -2.2966285 1.0917561 -2.071035
-1.0764992 0.8599009 0.99199337 -0.48769343 -0.7494516 1.8302251 0.021144576 -1.818709
-0.8894172 -1.6929159 -0.29389292 -0.009050569 0.09302081 1.3599405 -1.5890374 0.4175932
-0.70594513 1.0278159 -0.4466606 -0.8383359 0.47705758 -0.5027012 0.45102853 -0.76873976
1.1764463 -0.16859928 -0.93878245 0.013891407 -1.1894573 -2.1682773 -1.2805438 -0.4370283
-0.20875643 0.34766036 -0.7107741 1.5995356 1.3223884 0.10456454 0.23345734 0.4011801
1.0493377 -1.0730097 0.85287315 -0.32810882 -0.35242915 -2.0045047 -2.359864 0.44065705
1.4281936 -0.44833744 0.9631781 -0.17022176 0.69879067 1.0498043 -0.621763 -1.5911986
0.52177197 -0.6432284 -0.19286366 1.2242655 1.6707422 0.32265505 -0.46218985 -0.09452613
1.1908128 0.055862755 2.679468 -1.1788281 -0.4563505 0.13250878 -0.27961668 0.73063344
1.3467795 1.1597022 0.86242104 -0.8771857 0.8431685 0.3575185 0.59357524 1.6258279
-1.2921058 -1.6204907 -1.8899391 1.2887723 1.1556699 0.5706153 0.41210517 -0.32516697
-0.9588905 -0.542961 0.15367778 0.4502167 1.2957243 0.8810805 -1.1270528 0.2801195
1.5687516 -0.30880547 1.0524924 -0.58341783 1.0499072 -0.9972867 -0.33103964 -0.027346674

stock_proj.weight f4 [64, 64]
00000000: 0e23 9d3d a35e 97bd 6058 cd3d b083 02bd
00000010: 463c 6e3d 0e7c fc3d 9f5c 5ebd 38e9 a83d
00000020: 33a7 cabd 5246 d8bc 3861 4bbd ea74 00be
00000030: 8c27 b6bc f97a 5e3d 2a47 f1bc 0864 b03d
00000040: e83f febd 41dc 62bd 1c0d d43b df13 93bd
00000050: 09a8 963c 5ec4 dbbd 40df 8fbd 4212 9dbd
00000060: 5c65 c2bd ac8e a73d 8fa2 703d 1aac 303d
00000070: a171 bebd f3b6 c3bd 2211 e23d abc5 203d
00000080: 5a83 e9bd c941 97bd b513 f2bd 3451 57bd
00000090: 5cb1 2fbd 0584 d83d ca1b a63d 0e76 e4bd
000000a0: eedd ff3c 74c8 17bc e044 363c c90d b23d
000000b0: c4db acbd 618b ec3d a5b9 a2bd b799 9cbd
000000c0: 5119 aabd e8d4 ed3c ec4f 273d 93bd 2b3d
000000d0: 8f00 e33d 436f 803b 8e33 d2bd ac0c 95bc
000000e0: cab8 0e3c 5ea2 c6bd 1b82 f9bd 4bf6 c43b
000000f0: c691 7f3d 752a 1fbd f1ef ccbd 2800 ae3d
00000100: a53d 10bc 72b0 83bd a335 1ebd 57da 59bd
00000110: b77a e53c 1b6d be3d 4de3 8f3d 9f51 83bd
00000120: 2366 82bd 2e15 cc3d d110 fcbd 0252 b33d
00000130: 22b7 debd d629 ea3d f531 a13d 5c1b cdbd
00000140: 0cc0 923d 259a 02bc b8e0 f8bd e864 9b3d
00000150: 6662 8fbb 712f 513d e945 f43d 69a4 1abd
00000160: dc48 c93d b166 6fbd a053 48bc eb7e fdbd
00000170: 53ee 0ebd c1bb 03bd 9381 d63d 6b76 85bd
00000180: 3755 01be 5c9a d1ba 7d30 0bbd 81a4 8fbd
00000190: 8b03 fabc 28d9 e2bd f234 d8bc 507d 083b
000001a0: e242 edbb c9db ce3d 241b c9bd 200f e23d
000001b0: 0db0 653d 06f6 703d 27bb c83d aa15 143d
000001c0: b154 aa3d e717 703d 7ead c23d 83e0 c73c
000001d0: 6dcb dabd 9acb db3c 3455 853d 38ea 4b3d
000001e0: f245 d73c f8f8 223d 00e8 893d e6d2 97bd
000001f0: 0e81 c1bd afd9 4cbc 269a fb3d 4210 6bbc
00000200: 7e53 34bd 719b c5bb 180b acbc 7b96 ee3c
00000210: 873b ea3d c530 91bd 8c6d ebbc 55ce f1bd
00000220: da33 883d 7eb7 673d 3771 e33d e27b 903d
00000230: 51cd 873d 8e26 b53c a969 2a3d 4acf eebd
00000240: bf0b 843d 0c12 aabd 7761 2ebd 1ea0 fcbd
00000250: 4c3e a8bd 583f a33d 301c 9abd 18da dabd
00000260: 736b e03a 41d6 db3c 62f7 5e3c 6b19 bebb
00000270: f039 533d d392 02bc af07 55bd 93b9 40bd
00000280: 84a8 b33d 6774 ffbd e359 ea3d c28a d53d
00000290: 1cfd 68bd d908 2cba 4f61 253c 89e8 cdbd
000002a0: f25d 173d 7d51 f2bd a6ec a0bd 7653 9e3c
000002b0: c808 ed3b cbed 393d 4afa 3e3d 8aa8 a23c
000002c0: 1296 15bb 30e3 5c3d 3e44 dcbd 8795 a83d
000002d0: 4503 dbbd 1837 4d3d 581a 763d bc85 bbbd
000002e0: 7301 873b 836f 923d 9e5d 81bd f715 143d
000002f0: 9263 8c3b c8e7 e83d 815a 983d 0858 623d
00000300: 7acc 29bd 6e52 a03c 4c7c cebd 7e9a f23d
00000310: 7bd7 f4bd a06f e03d 62ad e93c d36d 66bd
00000320: f748 12bc e178 ffbd 1c14 e7bd b8ea b73d
00000330: 423c 92bd 59a6 03bc 0e77 dd3d 5152 a53d
00000340: 0f7f 473b 7f7e c4bd 4226 4abd 3633 00be
00000350: 5ae5 c1bc 529c bd3d 7dad f33d a171 d0bc
00000360: a66f 9b3d ac09 0a3d effb ddbd d134 203d
00000370: e60a b73d 5df4 f5bc 8c5e 283d cd53 d6bb
00000380: e2eb 913d a9c9 6d3c 8904 c0bc c477 b23c
00000390: edee a63d 5537 bebc cca5 e8bd 72f9 e4bb
000003a0: 5a8a 7c3d 8c02 87bb 6f96 b1bd 9108 a23c
000003b0: 0807 ce3d fe30 8d3d 0b83 ef3d b0ae eb3d
000003c0: e42c 023e 51d3 84bd dfe8 4abd da77 79bd
000003d0: 8058 69bb 27b8 d7bd e1d3 e83d c624 e2bd
000003e0: d32a d53d 38a0 90bd 8b61 e8bd c238 e23d
000003f0: ab31 8dbb d475 ed3c e7e6 cc3d 5f80 78bb
0.07672702 -0.073910974 0.10026622 -0.03186387 0.05816295 0.12328349 -0.05428755 0.08247608
-0.09895172 -0.026400719 -0.049653262 -0.12544599 -0.022235654 0.054316495 -0.029452879 0.086128294
-0.12414533 -0.05538583 0.0064712893 -0.071815245 0.018390672 -0.107308134 -0.070250034 -0.07669498
-0.09491989 0.081815094 0.058748778 0.04313288 -0.09299017 -0.09556379 0.11038424 0.03925101
-0.114020064 -0.073855944 -0.11820165 -0.052567676 -0.042893752 0.10572056 0.08110769 -0.1115533
0.031233754 -0.0092641 0.0111248195 0.086940356 -0.084403545 0.11550022 -0.07945565 -0.07646506
-0.0830561 0.029032186 0.040847704 0.04192884 0.11084091 0.0039195134 -0.102637395 -0.018194519
0.008711049 -0.09698938 -0.12183019 0.0060108057 0.06239488 -0.03885885 -0.10006703 0.084961236
-0.00880376 -0.06430139 -0.03862537 -0.05318674 0.028012617 0.09298154 0.07025776 -0.06412052
-0.06367137 0.09964977 -0.12307895 0.08755876 -0.108747736 0.11433761 0.07870857 -0.10014984
0.07165536 -0.007971321 -0.12152237 0.07587606 -0.0043757437 0.051070634 0.11927397 -0.03775445
0.0982835 -0.058447544 -0.012226969 -0.12377723 -0.034895252 -0.032161478 0.10473933 -0.06516727
-0.12630163 -0.0015991437 -0.03398179 -0.070137985 -0.030519268 -0.110765755 -0.026392434 0.0020826645
-0.007240639 0.101005144 -0.0981963 0.11038041 0.0560761 0.058828376 0.098013215 0.036153473
0.08316935 0.058616545 0.09505747 0.024399048 -0.10683332 0.026830483 0.06510392 0.049783915
0.02627847 0.039788216 0.067337036 -0.074132726 -0.09448443 -0.012503072 0.12285261 -0.014347138
-0.044024937 -0.006030493 -0.021001384 0.029124489 0.11437135 -0.0708938 -0.02873876 -0.11806933
0.06650515 0.056571476 0.111055784 0.07054879 0.06630958 0.02211311 0.04160467 -0.11660631
0.06447553 -0.083042234 -0.04257342 -0.123352274 -0.08215007 0.07971066 -0.075249076 -0.10686129
0.0017121866 0.026835563 0.013608785 -0.00580137 0.051568925 -0.007969576 -0.05200928 -0.047051977
0.08772376 -0.12473374 0.11442926 0.104268566 -0.05688201 -0.00065625977 0.010094001 -0.10054118
0.036954828 -0.11831949 -0.07857637 0.019326907 0.007233713 0.045392793 0.046625413 0.019855756
-0.0022825045 0.0539276 -0.10755204 0.08231645 -0.10693983 0.05010137 0.060083717 -0.09156367
0.004120046 0.071501754 -0.06316684 0.03615376 0.0042843306 0.11372334 0.07439137 0.055259734
-0.04145477 0.019570556 -0.100823015 0.11845873 -0.11955162 0.10958791 0.028525058 -0.05625708
-0.008928529 -0.12474228 -0.112831324 0.08980316 -0.071403995 -0.008035266 0.108137235 0.08072341
0.0030440723 -0.0959444 -0.04935289 -0.12519535 -0.023668934 0.09258331 0.11898325 -0.025444807
0.075896546 0.03370063 -0.10839068 0.03911287 0.089376256 -0.030023748 0.041105792 -0.0065407516
0.07125069 0.014513412 -0.023439663 0.021785624 0.0815104 -0.023219744 -0.11359748 -0.006987744
0.06165538 -0.0041201767 -0.08671271 0.019779475 0.10059935 0.0689411 0.11694916 0.11507928
0.12712437 -0.06485618 -0.04953849 -0.060905315 -0.0035605729 -0.10533171 0.11368538 -0.1104217
0.10408559 -0.07061809 -0.1134673 0.11045982 -0.0043088994 0.028986849 0.100049786 -0.0037918312

stock_proj.bias f4 [64]
00000000: 7f11 acbd 91e0 a23d 2ca8 f53c a29b 7ebd
00000010: 1f47 0bbd 61b2 5d3d dbd5 6abd 45aa b63d
00000020: 2c40 1d3d ebc5 343d d0a1 91bd 2c19 233d
00000030: 260f 91bd 19a6 c43d 3b44 ee3d 8c0c 97bd
00000040: 31a5 eb3c f19c bebd a5cc 9b3d 8061 da3d
00000050: 7c50 d43d 3ff5 8f3d ac2a 553d fa51 3d3d
00000060: f2a6 ce3d ce96 d0bd b39d a5bc 6a64 d03c
00000070: eed7 dfbd 2a49 d33d e392 d4bd 80ea 1bbc
00000080: e371 103d fec1 26bc f839 08bd 870c cbbd
00000090: 0d12 0abd e632 86bd 4c29 5d3c cfdd 4d3d
000000a0: 7d12 bbbc b2a2 f53c 8d51 ddbb 4bd8 f33d
000000b0: 304c e2bd ad63 cabd 1da9 993d d795 37bd
000000c0: 3664 f93b a7c9 83bd 80bf ad3b a935 0cbd
000000d0: b097 203c 202a 21bc e56d ad3d e097 a93d
000000e0: 952f 8abd e8ba cebd 82a4 46bd 5fdc e3bd
000000f0: 42c9 38bd 30c5 68bd c626 fb3b 36aa a63d
-0.084017746 0.07952989 0.029987417 -0.06216014 -0.034003373 0.054125194 -0.057332855 0.08919195
0.038391277 0.04413406 -0.071109414 0.039818928 -0.070829675 0.09601993 0.11634108 -0.0737544
0.028765293 -0.09307278 0.07607392 0.10663128 0.10366914 0.07029199 0.05204265 0.046220757
0.10090436 -0.10185014 -0.020216798 0.025438506 -0.10929857 0.10316689 -0.10379579 -0.009516358
0.03526486 -0.010178087 -0.03325841 -0.09914499 -0.03370862 -0.06552677 0.0134986155 0.05026036
-0.022835964 0.029984806 -0.0067541064 0.11906489 -0.11049688 -0.09882293 0.07502959 -0.044820633
0.007610823 -0.064349465 0.0053023696 -0.03423086 0.00980179 -0.009836704 0.08468226 0.08280921
-0.06747357 -0.10094243 -0.04849673 -0.11126017 -0.04511381 -0.056828678 0.0076645343 0.08137934

pre_ln.weight f4 [64]
00000000: 858a 7f3f 0000 803f 7fa2 7f3f 0000 803f
00000010: 6a42 803f 0000 803f 5255 803f 0000 803f
00000020: 0c1c 7f3f 0000 803f b599 7f3f 0000 803f
00000030: dfe4 7f3f 0000 803f 915d 803f 0000 803f
00000040: 4a38 803f 0000 803f 3328 803f 0000 803f
00000050: af03 803f 0000 803f 81e6 7f3f 0000 803f
00000060: 0cec 7f3f 0000 803f 3c97 7f3f 0000 803f
00000070: 7409 803f 0000 803f f781 7f3f 0000 803f
00000080: b175 7f3f 0000 803f f261 7f3f 0000 803f
00000090: e80b 803f 0000 803f 822e 803f 0000 803f
000000a0: dc6d 7f3f 0000 803f c0a6 7f3f 0000 803f
000000b0: 4c0b 803f 0000 803f b935 803f 0000 803f
000000c0: f1d6 7f3f 0000 803f 9652 803f 0000 803f
000000d0: 2a54 7f3f 0000 803f 4eaa 7f3f 0000 803f
000000e0: f3ea 7f3f 0000 803f 3111 803f 0000 803f
000000f0: d316 803f 0000 803f e52d 803f 0000 803f
0.9982074 1.0 0.99857324 1.0 1.0020268 1.0 1.0026038 1.0
0.9965217 1.0 0.99843913 1.0 0.99958605 1.0 1.0028554 1.0
1.0017178 1.0 1.0012268 1.0 1.0001124 1.0 0.99961096 1.0
0.99969554 1.0 0.9984014 1.0 1.0002885 1.0 0.99807686 1.0
0.9978896 1.0 0.9975883 1.0 1.0003633 1.0 1.0014193 1.0
0.9977701 1.0 0.99863815 1.0 1.0003448 1.0 1.0016395 1.0
0.9993735 1.0 1.0025203 1.0 0.997378 1.0 0.9986924 1.0
0.9996788 1.0 1.0005246 1.0 1.0006965 1.0 1.0014006 1.0

pre_ln.bias f4 [64]
00000000: dcf1 d23a 0000 0000 af3c f1ba 0000 0000
00000010: 36eb c93a 0000 0000 52d7 213a 0000 0000
00000020: 77c1 2e3a 0000 0000 2c40 39bb 0000 0000
00000030: 748a 7739 0000 0000 2899 ac3a 0000 0000
00000040: 396d a439 0000 0000 a5af c239 0000 0000
00000050: d03e 73ba 0000 0000 e611 1f3a 0000 0000
00000060: 10e4 f0b9 0000 0000 915e 853a 0000 0000
00000070: 8a38 2cb9 0000 0000 b8ce 083a 0000 0000
00000080: 8504 2abb 0000 0000 d171 80ba 0000 0000
00000090: aed0 0fbb 0000 0000 ecca 59b9 0000 0000
000000a0: 266b 96ba 0000 0000 e30f c13a 0000 0000
000000b0: dc24 44ba 0000 0000 5ded 053a 0000 0000
000000c0: 18d9 2e39 0000 0000 7e16 f3b9 0000 0000
000000d0: f6c1 403a 0000 0000 5395 7b39 0000 0000
000000e0: 2a1b 183a 0000 0000 99fa 88ba 0000 0000
000000f0: a996 69b8 0000 0000 d684 eb38 0000 0000
0.0016093808 0.0 -0.0018404926 0.0 0.0015405181 0.0 0.0006173748 0.0
0.0006666402 0.0 -0.002826701 0.0 0.00023607333 0.0 0.0013168203 0.0
0.00031361895 0.0 0.0003713343 0.0 -0.0009279074 0.0 0.0006068036 0.0
-0.00045946287 0.0 0.0010175278 0.0 -0.0001642426 0.0 0.0005218792 0.0
-0.0025942635 0.0 -0.0009799545 0.0 -0.002194445 0.0 -0.00020770327 0.0
-0.0011476025 0.0 0.0014729466 0.0 -0.0007482299 0.0 0.0005108917 0.0
0.00016674807 0.0 -0.0004636533 0.0 0.0007353121 0.0 0.00023992853 0.0
0.00058023876 0.0 -0.001045066 0.0 -5.5691842e-05 0.0 0.00011230416 0.0

regime_proj.weight f4 [64, 3]
00000000: 5d11 623e 2637 16be b3e1 48be 40c7 123f
00000010: 1fb0 013f 038b 00bf 70ea adbd 23ea 9abe
00000020: 411f bcbe 431d 603e 260a fabe ac7b f3be
00000030: ef0e 12bf 7363 c93e 3009 a1bd b4ee 6b3d
00000040: 28ce 393e f09e a9be 323f 03be 1898 af3e
00000050: 7b45 07be 2efa ee3e c31e 7d3e aa39 01be
00000060: a7ae e0bb c072 c93e fd01 963e a953 4bbd
00000070: 7c7b c3be acd3 f4be a60f 4bbe e28f c0be
00000080: a2fb 9a3e dd43 87be 983b 8c3e 8670 29be
00000090: 6683 06be 940f f7bc 12e8 50be 2b23 81be
000000a0: c524 c73e 770c 123f 87d9 f9be f9ea 8c3e
000000b0: 7727 f93d 60ac fc3e 2758 933e f20d a53e
000000c0: 3458 25be 1887 a23e d14d 6cbe d962 103f
000000d0: 3450 023f a7ca b63e 044b b2be 1a84 c9bd
000000e0: 1182 99bd bc5d d03e 8470 063e a3de 0cbf
000000f0: a329 22be 4fca d03d bb65 0ebf a41e fabe
00000100: 2d2a 0d3f 1236 8abe 5448 85be b1c3 86be
00000110: 1894 13bf c3ae 863e cb7b c43e eb9c b63c
00000120: df30 d33e c75b a9bd e40f 63bd ac5b 48be
00000130: 3578 063f be5f 8e3e bcd4 dfbe 118b d13e
00000140: 1891 c83e 2acb 58bd 1c7f a8be 4a7d b93e
00000150: e84b 1b3e 109e 993e 9613 bd3d c551 4d3e
00000160: 00bc 983d e3d4 223e 7676 fa3e 7653 97be
00000170: 6a47 dd3e f140 0b3e 16af 92be 2e3c 8d3e
00000180: ed3e c43e 61cf b8be e014 ef3e c0aa fbbe
00000190: 9d5d 9b3e 50e7 da3d 167d b03e 2032 e73d
000001a0: d5db 883e bc8f 423e 654d b43e 74f1 eabe
000001b0: d39b 5cbe d10d 653e 6413 9e3d db22 eb3e
000001c0: db41 633e 6d8e 823e 153e bcbe cc30 183e
000001d0: 5beb 883d fbda 0ebf c173 dc3e 36c0 223e
000001e0: ac84 05bf b717 06be cfec d63e 4067 b8be
000001f0: 1da4 f53e 1857 1b3d a4f0 a23e 92d3 04bf
00000200: 88f4 f2be a0b9 c73e 3c4d 78be f21a 12bf
00000210: 718a a53e 690a 183d f6cb 42be 738a b6be
00000220: 3201 36be 4198 dd3e c7e5 cb3e 8721 9d3d
00000230: 4afe 48be 2f4e 95be e9f5 d0be 6c8c a43e
00000240: 22c9 32be b94d 5b3c 0014 4e3e 6021 023f
00000250: dba6 d83e 1ba4 c03d 45af 003f 21cf ecbe
00000260: f496 b83e 8ccc 1bbe 1550 13bf ed40 bdbb
00000270: 41cb 0d3f 4010 0cbf 474c 75be 5ed6 d73e
00000280: 65c8 313e 2f03 04bf 6ad5 0e3f 39ee 89be
00000290: 758c 9dbe b776 5ebe 9a74 c53d 5d34 a1be
000002a0: 9ea8 113f 85f6 19bc 2c99 f73e 3333 2c3e
000002b0: 2108 10bf b6ea e53e 3f4d 693e bf57 643e
000002c0: 4aed 83bd 3597 12be 1f1c da3d 0056 283c
000002d0: ae10 963d 8a66 2bbe 9010 26bd 84d9 ad3d
000002e0: 46f3 99be e11e 8cbe 0062 c03c da63 9fbd
000002f0: 7949 e3be b3a3 34be 6c53 5e3e a5c9 a03e
0.22076936 -0.14669475 -0.19617347 0.5733528 0.50659364 -0.50212115 -0.08491981 -0.30256757
-0.36742595 0.21886162 -0.48835868 -0.47555292 -0.57054037 0.39333686 -0.078630805 0.057600692
0.18145049 -0.33129072 -0.12817076 0.34295726 -0.13210098 0.46675247 0.24718766 -0.12619653
-0.0068567577 0.3934536 0.29298392 -0.04964033 -0.3818015 -0.47817743 -0.19830188 -0.37609774
0.30270106 -0.26418963 0.27389216 -0.1654683 -0.13136062 -0.030158795 -0.20401028 -0.25222144
0.3889524 0.5705027 -0.48798773 0.2752302 0.121657304 0.49350262 0.28778192 0.32237202
-0.16146928 0.31743693 -0.2307656 0.5640083 0.5090363 0.35701486 -0.34822857 -0.098396495
-0.07495511 0.40696514 0.13128859 -0.55027217 -0.15836196 0.10194837 -0.5562398 -0.48851502
0.5514248 -0.26994377 -0.26031744 -0.26321176 -0.5764785 0.26305208 0.38375697 0.022291621
0.41248223 -0.08269458 -0.055435076 -0.1956622 0.5252717 0.2780742 -0.4371699 0.40926412
0.39173198 -0.052928127 -0.32909477 0.362284 0.15165675 0.30003405 0.09232251 0.20050724
0.07457733 0.15901522 0.48918504 -0.29555863 0.43218547 0.13598992 -0.28649205 0.27584976
0.3832926 -0.36095718 0.46695614 -0.4915371 0.3034486 0.106886506 0.34470433 0.112888575
0.2673022 0.19000143 0.35215297 -0.4588734 -0.21543817 0.22368552 0.07718542 0.4592503
0.2219309 0.25499287 -0.36766115 0.14862365 0.066855155 -0.5580289 0.43057063 0.15893635
-0.52155566 -0.13094984 0.41977546 -0.36016273 0.4797677 0.037924856 0.3182422 -0.5188533
-0.47452188 0.39008808 -0.24248213 -0.57072365 0.32332185 0.037119303 -0.19023117 -0.35652503
-0.17773893 0.43280223 0.39823744 0.076724105 -0.19628254 -0.29161212 -0.40812615 0.32138383
-0.17459539 0.01338523 0.20124817 0.50832176 0.423148 0.09406301 0.5026744 -0.46251777
0.36052668 -0.15214747 -0.5754407 -0.005775562 0.55388266 -0.54712296 -0.23954879 0.42155737
0.173616 -0.5156736 0.55794394 -0.26939562 -0.30771223 -0.21724974 0.096413806 -0.31485263
0.56897914 -0.009397154 0.48359048 0.16816406 -0.56262404 0.44905633 0.22783373 0.22299097
-0.06441744 -0.14315493 0.10649895 0.01027441 0.073274 -0.16738334 -0.04054314 0.084887534
-0.30068415 -0.2736731 0.02348423 -0.07782717 -0.44391993 -0.17640571 0.2171151 0.31403843

regime_proj.bias f4 [64]
00000000: 8c49 e6bd e8bc 03bd 3cf4 fdbd 544d fa3d
00000010: c366 c4be d6fe af3e 653c f43e dd51 3abd
00000020: 8d3e d7be b91d 8abe 91d8 013e edb1 a93e
00000030: 2965 f9be 9411 503e 34e6 e73e bc15 c1be
00000040: b723 ef3e 206d 1ebc d6c5 0b3f ffec 42be
00000050: e8b3 bfbd e944 d3be 649c 023f 1e7d 0fbf
00000060: 8b6c 0abf f890 00be 94b7 84be 5a95 b0be
00000070: 93f8 453e 2136 503d 5131 83be 5e60 a93e
00000080: 9e15 893e 539d 763e 26ac 06bf 9681 a23e
00000090: 449c 90be 94c9 e63e 1201 b43c 6d9a 7fbd
000000a0: f075 d03e f75e ee3e f18a c0be 1678 103f
000000b0: c162 fa3e 81f8 113f a474 0bbf dc5c f5be
000000c0: 3472 f93d 84ba 42be a5b9 2b3d 601e 72bd
000000d0: 012f f6be e411 12bf 933a cf3e c01c d7bd
000000e0: 2c25 07bf 13de c1be ade4 05bf 43cd 773e
000000f0: 3fd9 123e 459e 01be 8185 c2be 1dc2 493d
-0.11244497 -0.032162577 -0.124001 0.122217804 -0.3835965 0.34374112 0.47702327 -0.045488227
-0.4203991 -0.26975802 0.1268027 0.3314356 -0.48709992 0.20319206 0.4529282 -0.37711895
0.46706936 -0.009669572 0.5459875 -0.1903572 -0.09360486 -0.41263512 0.51019883 -0.5605029
-0.54071873 -0.12555301 -0.2592131 -0.34488946 0.19333105 0.05083287 -0.25623563 0.33081335
0.26774305 0.24083452 -0.5260643 0.3173949 -0.2824422 0.45075667 0.021973167 -0.06240313
0.4071498 0.46556827 -0.37606004 0.56433237 0.48903468 0.5701981 -0.54474854 -0.4792241
0.12179986 -0.19016463 0.04192509 -0.059111 -0.48082736 -0.5705855 0.40474376 -0.105035305
-0.52791095 -0.37864742 -0.52302057 0.24199395 0.14340685 -0.12658031 -0.3799248 0.049257386

transformer.layers.0.self_attn.in_proj_weight f4 [192, 64]
00000000: 0dd5 b33c 62c9 a23d 3554 7a3d a6a2 e8bd
00000010: 1b70 0f3e 71a2 58bc 295c 673d 38da e53d
00000020: dc42 9f3d 9491 d1bd 9af0 b13c bc05 e6b8
00000030: c649 db3d 4a13 103d 6cf9 eebc 0287 ddbc
00000040: cfbf 00bb e8fc e73d 6278 9abd e2e9 1b3d
00000050: abd0 433d 9b29 e23d 6465 33bd a8c2 70bd
00000060: 4b7a 3a3c 2853 91bb 64d2 d7bd 1955 0cbe
00000070: 82e6 983d 4b54 1f3b 55a3 5a3d bdcd aa3d
00000080: 034a c23d 02ec 163e 628e 15bd 8a8a 943d
00000090: c574 12bc 332d 27bd f10e 1bbe e815 88bd
000000a0: 7de8 7ebd e0c8 a23d b726 493d b15f 8f3d
000000b0: 8122 8ebd 15f3 17be 353d 83bc 42da 333d
000000c0: e5b0 063e 0866 11be 0801 54bd 167b 8f3d
000000d0: 0a5a c7bd a301 f13c dea2 1d3e 3fcb 043d
000000e0: 66bd e5bd 6552 2c3c c4f7 54bd af42 10be
000000f0: 3810 233c 6e84 07bc 69e0 18be 1d1f bcbb
00000100: dfc6 d3bb b048 8b3d 7017 85bd 5abd 7f3b
00000110: 46f2 cbbd 466c a73d c2ca 093e 4c8b 743d
00000120: e259 00be 234c fb3c cc9c 3dbd 808c 10be
00000130: 2b6e 98bd cec5 5c3d 4ace d3bc 5d0b b93d
00000140: 0fab 9bbc 2b21 e53d 5f70 11be 4769 063e
00000150: f14c 313d 9c87 18be 0e99 13be f2ce 16bc
00000160: a7b5 71bd 75bd fbbd 7a41 813c ec58 87bd
00000170: 625e f9bd 1856 123d 6587 d53b 02c3 b7bd
00000180: 691d 04be e27b b03c 96b0 e9ba 137c 19be
00000190: 44dd 243c 1775 84bd d136 953c 9dd6 663d
000001a0: 1daf 0ebe 0385 013e 7e51 03be 5173 bf3d
000001b0: 7146 db3d 5738 b33d 4526 87bd 8d57 a83d
000001c0: 5515 75bd 0acd f6bd 3db1 e33d 9fe0 a1bc
000001d0: 0386 b13d 4a92 efbc ad55 0dbe 90a0 05be
000001e0: 4a82 dcbd d42b 7e3d 018c db3d 4d17 193c
000001f0: 4563 cf3d a42e 9cbd 4770 ba3d c7b6 ca3c
00000200: 08e3 b53d eaa4 1a3e 3b5d 853d fbee 2d3c
00000210: 4418 7fbd 8689 c2bd f393 9d3c fe1a c03d
00000220: 8367 5a3d ebaa acbd 1794 ad3d a046 11bd
00000230: 1e68 743d ab3e 8a3d bbfe d6bd 8c4a 2e3d
00000240: faa5 b53d 2b49 3f3d fab4 153e 6bf1 28bc
00000250: 13c6 04be d7a0 ec3c 4968 093e 068c 93bd
00000260: 0fe3 cd3d f01a cc3d b056 22bc 1133 0f3a
00000270: 3163 073e 22d6 873d defa 0bbe 72db d13d
00000280: 162b c33d f613 5f3d 6577 86bd ca15 f73a
00000290: 4179 b7bd e5c7 5ebd ad9f 63bd 9219 50bd
000002a0: a8f4 043e 46df ea3d e446 c53d 07be abbd
000002b0: 9f12 0c3e d52d 1bbe a736 53bc c44d cbbd
000002c0: 7ad0 aebd 621b 3e3d 8295 ba3c 7875 8fbc
000002d0: 2eaf db3c 545a 353c 991f 50bd 4ed7 a3bc
000002e0: e6f5 b9bd 3907 f23d f3c6 94bd cd16 f0bd
000002f0: e10e 52bd aac2 0d3d 725a 9b3d eae3 6a3d
00000300: 4c8b d13d a1c3 64bb 4c6c b9bd 3652 723d
00000310: 3344 fd3d 791d 5f3d 7dda 8f3d 3d43 99bd
00000320: 9d11 a73c 3a05 96bd d75c 303b ee9d 7bbc
00000330: 29ca 0f3d dc3b f83d 946a 863c b2e0 7dbc
00000340: 4885 c73d 8447 783c 55ea 933d 4459 09be
00000350: 4dac fb3d 8c98 183e ac03 b53c ca22 dd3d
00000360: 154f 10be 1089 0d3d cc72 58bd c83a 9b3d
00000370: ca4e c63d ba38 54bd 8dd6 d83d 27ab 79bc
00000380: dfbe 67bd 3969 2cbd 75a2 fbbd 5bf4 c2bb
00000390: 22ef 323d 2e3b efbc 6db4 603d 7e1b 963d
000003a0: 23fc 0a3e 1217 2c3c f760 f9bc 5d3f 18bd
000003b0: 30f5 073e e8ab 7c3c 41fa fdbd 21ce bcbd
000003c0: 70aa 5d3d e206 af3d 5727 0fbd 0b6f 30bd
000003d0: 4fa1 0bbe 2278 b43c fd43 0dbe 82c6 80bd
000003e0: 8be6 b5bd 3372 093e 843e 9a3d 9fa1 0ebe
000003f0: b153 c0bd 453b e8bd 93b5 37bd d2c4 723d
0.021952176 0.07948567 0.061115462 -0.11359148 0.14007609 -0.013222323 0.056484375 0.112232625
0.07776424 -0.10232845 0.021721173 -0.00010968323 0.107074305 0.035174645 -0.029171668 -0.027041916
-0.0019645577 0.11327535 -0.075424924 0.038064845 0.047806423 0.11043092 -0.043797866 -0.05877939
0.011381696 -0.004434962 -0.10538176 -0.13704337 0.07465841 0.0024311717 0.05337842 0.08340023
0.09486773 0.14738467 -0.03651274 0.07252987 -0.008938973 -0.04081459 -0.15142418 -0.06644803
-0.062233437 0.0794847 0.049109187 0.070006736 -0.06940175 -0.14838822 -0.016020397 0.04390932
0.13153417 -0.14199078 -0.051758796 0.07005899 -0.097339705 0.029419726 0.1539416 0.032420393
-0.112177655 0.010517691 -0.0519941 -0.14087938 0.009952597 -0.00827132 -0.14929356 -0.0057410137
-0.0064629163 0.068009734 -0.06498611 0.0039022774 -0.09958319 0.081749484 0.13456252 0.059703156
-0.12534288 0.030675953 -0.04629211 -0.14116096 -0.07442888 0.05389958 -0.025855202 0.090353705
-0.019002466 0.11187967 -0.14203022 0.13126098 0.043286268 -0.14895481 -0.14413854 -0.009204613
-0.059011128 -0.122919954 0.015778292 -0.066087574 -0.12176205 0.035726637 0.0065163844 -0.08972742
-0.12901844 0.021543447 -0.0017829116 -0.14988737 0.010062519 -0.064676456 0.018214615 0.056357015
-0.13933988 0.12648396 -0.12824056 0.09348167 0.10706795 0.0875098 -0.06599096 0.08219824
-0.059834797 -0.12050827 0.1111779 -0.019760428 0.08668139 -0.02924456 -0.13802214 -0.13049531
-0.10767038 0.062053517 0.10720063 0.009343934 0.10126356 -0.076260835 0.091034465 0.024745358
0.088811934 0.15101972 0.06511923 0.010616059 -0.062279 -0.09498887 0.019235587 0.09380148
0.053321373 -0.084310375 0.084755115 -0.035467744 0.059669606 0.06750234 -0.10497805 0.042551562
0.08869548 0.046700638 0.14619818 -0.010311465 -0.12966184 0.028885288 0.13418688 -0.07204442
0.100530736 0.099660754 -0.009908363 0.00054626266 0.13221432 0.066326395 -0.13669917 0.10246934
0.09529702 0.054462396 -0.065657414 0.0018851098 -0.08958674 -0.054389853 -0.0555722 -0.050805636
0.12983954 0.11468367 0.09632662 -0.08385854 0.13678978 -0.15154202 -0.012891448 -0.09926942
-0.085358575 0.046412833 0.022776369 -0.017512068 0.02681693 0.011068899 -0.050811384 -0.020000126
-0.090801045 0.11817784 -0.07264509 -0.11723099 -0.05128372 0.034609474 0.075856104 0.057346262
0.10231647 -0.0034906643 -0.09053859 0.059160434 0.123665236 0.054471467 0.07024095 -0.07483528
0.02039414 -0.07325216 0.0026910806 -0.015357478 0.035104904 0.12120792 0.016408242 -0.015495466
0.09742218 0.015153769 0.0722243 -0.13412958 0.12288723 0.14901942 0.022096477 0.10797651
-0.14092667 0.03455454 -0.052843854 0.07579571 0.096829966 -0.05181191 0.10587797 -0.01523856
-0.056578513 -0.042092536 -0.122868456 -0.0059495396 0.043685086 -0.029203024 0.054859567 0.073294625
0.13572745 0.010503547 -0.030441744 -0.037169803 0.13277125 0.015421845 -0.12401248 -0.092190035
0.05411762 0.08546235 -0.034949627 -0.04307465 -0.13635753 0.02202994 -0.13795467 -0.06287862
-0.08881863 0.1342247 0.07531455 -0.13928841 -0.09390963 -0.1133943 -0.044850897 0.059269734

transformer.layers.0.self_attn.in_proj_bias f4 [192]
00000000: f75d d8ba 06c3 7fb9 73ab 77bb ee1a 1bbb
00000010: a0e8 653a 919f 2c3b bcf8 f038 3a60 9ab9
00000020: 21d9 cbba fcd7 8dba 3477 9939 8d09 57ba
00000030: c823 0fba 8ee7 3b3a 1512 3a3a 0f3a 143b
00000040: 3d98 47bb 9b6d 87b8 4432 92ba b80d b2ba
00000050: f4b4 e03a 5582 faba 329b 013a 7f2c 3b3b
00000060: fdc4 193a be0e 2f3a 7ae4 373a 7d57 7f3b
00000070: 34f2 c73a 60bc c6ba 788a 4b3b d434 abba
00000080: 8b60 80bb 6c30 f73a 5b67 543b 0046 24bb
00000090: 289b 85ba 7fdb 1739 dec1 94ba c9fe 0abb
000000a0: 9cc2 973b 633e c13b 2572 903b 4323 c3bb
000000b0: 97a9 ae3a 7098 993b 6809 443b 6c0c 503a
000000c0: e120 863b 7205 1bbb 6b1c 16ba 39a2 ae3b
000000d0: beb7 23ba c8a6 423b a4ab dcba be6c 233a
000000e0: a4ac d5ba a900 b0bb 42b8 baba dcfb b5ba
000000f0: 679a faba b7dc af38 1ec9 83ba f455 123b
00000100: 6c9b beb7 241d 7237 09c0 9db6 2d8a 5936
00000110: 68b4 c835 3057 20b6 60e0 e6b5 e429 f135
00000120: d7ef 0536 cdbc 42b7 24de f736 645e 0536
00000130: 485f dc35 a7d0 b835 683d b336 8788 8d36
00000140: beba 5fb5 3537 7136 9885 a936 6efb 9134
00000150: a29f 0936 9879 3fb6 89eb df36 609a 3fb6
00000160: 02ce a6b6 f87e 5db5 5330 9736 41e3 8035
00000170: a7a0 f736 f4fd 0eb6 8c09 3f36 7b13 1db6
00000180: 9e83 1737 7b70 adb6 d9cd 11b5 65ce bbb6
00000190: 8725 c735 6f03 3ab6 d6fd 47b7 a51f cf35
000001a0: 10d8 3bb7 6c06 d936 4bbf 4d36 7109 be35
000001b0: 8701 88b6 b65b 4cb6 3004 2fb6 48cd 32b4
000001c0: 42d8 3636 e605 b935 42a2 9e35 43e8 e9b6
000001d0: 9f8f 6933 5e62 8f36 ddef a036 0e64 8835
000001e0: 8b25 c036 163c ca36 25a0 a533 5420 8b36
000001f0: 79fb 8636 c451 26b6 a776 4a35 1b16 ad36
00000200: d971 113a 4885 933a 8461 06ba 3746 40ba
00000210: 89ab 7739 f8e5 c439 2b8c 113a ad8b 2739
00000220: d0ec f639 94c0 8f3a 5c44 bc3a 1f62 0639
00000230: 861d 613a b764 3338 0521 04ba 5e7e 94b9
00000240: a1ef 4337 8a6a 153a 81ba 0d3b f3f2 52b8
00000250: e5a9 a239 171e 303b a1b7 8d3a 2878 9839
00000260: 636d b13a d8b2 78b9 2fd7 a4b9 5cd3 ac39
00000270: f753 37b9 650e d739 d890 b8ba 2dc2 30ba
00000280: 776c 1e3a 5fdf 6bb9 ac60 c139 dc28 57b9
00000290: 0479 203a 74ec 1339 1fe4 e0b9 c7d9 cf39
000002a0: 741a 4db9 13ee 03bb 4942 ba39 0933 e838
000002b0: 0c23 56b7 9621 7b39 0b56 86b9 5988 0538
000002c0: 066c 1db9 930e b1b9 1e51 ab3a 947a 4137
000002d0: d3e7 48ba d9a0 a038 d394 82b9 79e4 d1ba
000002e0: f41e 853a 84ff 69ba f2aa 13ba d01b 2e39
000002f0: fb06 423a b515 b139 024e 8b3a c87b 05b9
-0.0016507496 -0.00024391347 -0.00377914 -0.0023667174 0.00087703206 0.0026340226 0.00011490422 -0.00029444863
-0.001555238 -0.0010821815 0.00029271247 -0.00082030223 -0.0005460349 0.0007167988 0.00070980313 0.0022617613
-0.0030455731 -6.457717e-05 -0.0011153896 -0.0013584411 0.0017143772 -0.0019112328 0.00049440854 0.0028560457
0.00058658404 0.0006677917 0.00070149417 0.003896206 0.0015254677 -0.0015162341 0.0031057876 -0.0013062009
-0.003917759 0.0018859035 0.0032410237 -0.0025066137 -0.0010193335 0.00014482251 -0.0011349281 -0.0021208993
0.0046313535 0.0058973297 0.0044081383 -0.0059551313 0.0013325688 0.0046873614 0.0029912833 0.00079364213
0.004093275 -0.0023654369 -0.00057262805 0.005329397 -0.0006245336 0.002970146 -0.0016835821 0.00062341604
-0.0016302061 -0.0053711724 -0.0014245587 -0.0013884264 -0.0019119502 8.3857616e-05 -0.0010054444 0.0022329064
-2.2722139e-05 1.4431109e-05 -4.7013204e-06 3.2415949e-06 1.4953666e-06 -2.3892608e-06 -1.7201637e-06 1.7968091e-06
1.995815e-06 -1.160726e-05 7.387034e-06 1.9873487e-06 1.6419008e-06 1.3769794e-06 5.3417643e-06 4.2180213e-06
-8.334572e-07 3.5943933e-06 5.052145e-06 2.7191294e-07 2.050751e-06 -2.8531995e-06 6.673338e-06 -2.8551076e-06
-4.971168e-06 -8.251368e-07 4.5057764e-06 9.602883e-07 7.379876e-06 -2.130747e-06 2.8466775e-06 -2.3406162e-06
9.030946e-06 -5.168896e-06 -5.4316257e-07 -5.5970618e-06 1.4837577e-06 -2.7718158e-06 -1.1920425e-05 1.5431912e-06
-1.11963745e-05 6.4678516e-06 3.0658728e-06 1.4158851e-06 -4.0532937e-06 -3.0451752e-06 -2.607947e-06 -1.6652223e-07
2.7245992e-06 1.3785291e-06 1.1819141e-06 -6.97098e-06 5.4380163e-08 4.2731835e-06 4.7962953e-06 1.0161909e-06
5.7264165e-06 6.027064e-06 7.7125414e-08 4.1462863e-06 4.0227865e-06 -2.4783521e-06 7.5423526e-07 5.158375e-06
0.00055482757 0.0011254931 -0.00051262253 -0.00073346816 0.00023619657 0.00037555373 0.00055521977 0.00015978394
0.00047097215 0.0010967427 0.0014363634 0.00012815789 0.0008587468 4.2770724e-05 -0.00050403207 -0.0002832291
1.1678699e-05 0.00056997745 0.0021626058 -5.0294166e-05 0.0003102563 0.0026873404 0.0010812172 0.00029081223
0.0013536628 -0.00023717748 -0.00031440842 0.00032963871 -0.0001748352 0.0004101872 -0.0014081253 -0.00067428016
0.0006043384 -0.00022494559 0.00036883855 -0.00020519219 0.00061215484 0.00014107098 -0.00042894573 0.00039644373
-0.00019560178 -0.0020130917 0.0003552607 0.00011072128 -1.2763554e-05 0.00023949737 -0.0002562258 3.1836655e-05
-0.00015012929 -0.0003377093 0.001307044 1.1532236e-05 -0.0007663939 7.659355e-05 -0.00024906415 -0.0016013525
0.001015632 -0.00089263194 -0.0005633078 0.00016604294 0.0007401553 0.00033776244 0.0010628107 -0.0001272998

transformer.layers.0.self_attn.out_proj.weight f4 [64, 64]
00000000: e243 e4bd c52c 763d a182 fabd 3bfa b23c
00000010: 4133 e8bd 562e cfbd 7c06 cd3b b734 a33c
00000020: f463 c1bd 0af1 e8bd 690d e7bd cedb e9bb
00000030: 95d8 b0bd c80e dabd cc95 babc bce0 b1bc
00000040: 61f8 7f3d 43b5 e9bc aed4 e5bb ee5d 803a
00000050: 37b3 85bc 2937 893c 4c45 b63d eed5 22bc
00000060: bfd5 7e3d 5bea c93d 8728 8bbc ce6b 253b
00000070: 3765 07bd 3308 d8bd d202 cb3c 8380 a13d
00000080: c440 dbbc 3aa3 2e3d 9848 92bd 0eb5 ddbd
00000090: bf84 9cbd 705b 92bd eeab 2d3d cd4b a4bd
000000a0: e619 ce3d 508f 1b3d 360b 47bd 4376 b3bc
000000b0: d7d4 873d c5f9 bcbd 7546 003d 3378 e4bd
000000c0: e802 7c3d 6b6e c73d f539 b6bd 8bca c33c
000000d0: 1d4b a33b ffed b33d 103a 00be 3d21 5abd
000000e0: 4ddd d63c 3765 4abd a00c b1bb 0cb6 df39
000000f0: 0ec9 edbd 721a eabd cecf 4ebd 8457 a7bd
00000100: df76 9abc 65e9 9abd 1d03 f73d 2a38 f1bd
00000110: 4d67 273d d8dc d7bd edf6 223d f4e6 9d3d
00000120: 1aac 813d 8e59 f4bd ba7a 4bbd 1e27 8e3c
00000130: c207 40bd 020a b63d c662 8bbc 475f 913d
00000140: 51eb f4bb 5c14 a9bc 243f 80bd d460 ea3c
00000150: 809a 0e3d d60e c0bd c7e1 4abd 9cfd 16bc
00000160: 7825 d6bd 9b5c fbbd 9b63 76bd bd6c a63d
00000170: 2ba2 cabd 6952 c03d 9832 863d 2a90 aabd
00000180: c4da 1c3d c685 acbd 9457 923d 22b4 a9bd
00000190: 8cb1 cfbc bc1a a9bc 8964 f6bd 0782 13b9
000001a0: 9206 4bbd 1165 30bd 1cb1 d43d ce89 d3ba
000001b0: 09c6 9f3c 972e b0bd a6e6 87ba f09c 5b3d
000001c0: 402c d43d 4616 ab3d a6c1 0f3d 2ff1 b8bd
000001d0: 01ec 043d 9777 f2bd 3cb6 313d 7ea3 e5bd
000001e0: 616d e13c 6041 5f3d e281 483d 5c9b cbbd
000001f0: d437 0c3d 037a 10bc 20fb 2d3d 045a 9cbd
00000200: 94ac d23d 5be8 00bd d504 b4bd 761c c93d
00000210: b283 273d d08b c23d 98ec 85bd 8e7e 7b3d
00000220: 348f cbbc 3171 20bd 36f6 963d 42c9 bd3d
00000230: 729d e0bd 05f2 d23d 0cf6 96bd a0a6 2cbd
00000240: 68e5 cf3c f358 86bc 74ce 3b3d 71ca c4bb
00000250: a800 853d 5c10 c73d 1167 7bbd abd9 d73d
00000260: 71fc 2d3d 3c1c 7ebd ee0a c63d bc87 d53d
00000270: 4d5c 0bbd 57a5 063d 8792 6c3d 3d98 bf3d
00000280: e88c cb3d dfae aebd ec2b 6a3d dfa2 e33d
00000290: cfb4 863d b7a1 f33b ec3a 11bd 7d86 e53d
000002a0: cea1 a03d e698 99bc 1391 b13d 2b4c ec3d
000002b0: bb74 b93c 737d f03d 6b85 b1bc 2543 e13d
000002c0: 9cfd 183d 106d 1cbc 5169 08bd 5511 b33d
000002d0: 2701 30bd 0983 9b3d 7925 c03c ebd4 9a3d
000002e0: 39c0 8bbd 129a debd f510 18bd 50b0 27bd
000002f0: 9f1c a73d 983a a4bd 276b a03d 852e fcbd
00000300: f1f7 aabd c175 f6bd 4414 a8bd fbb1 76bb
00000310: aa34 f1bd 638f 993d 6169 9cbd 21de 54bd
00000320: 8ef6 3b3d 9646 943d 617a 033d f716 00be
00000330: 6e3b db3d 69d8 393d 6cb9 493d 2d04 833d
00000340: 60b6 323d e9aa f93c dcf0 dbbd 6d89 933d
00000350: 7ad0 dcbc 4dc1 113d 7fa9 87bd 7132 033d
00000360: 7bfb 1dbc 6b50 b33d 34de f03d 8dfd e8bd
00000370: 1534 aebd 127e 70bd bd12 c13c 4965 953c
00000380: 803f df3d 24d4 bcbc e611 d7bd aec1 3fbd
00000390: 6110 9ebc 0afa c0bc 3170 08bd 55e8 fd3d
000003a0: 381a 2c3d 8760 a43c 3895 133d 1ad9 0b3d
000003b0: 9d8c 9e3b cc30 653d 58c9 f23c dae0 ee3d
000003c0: 6210 863d e111 b7bd ff1a 173d a715 c13d
000003d0: cb21 fabd b6e0 89bd 71d2 c13d 6abc 53bd
000003e0: 3241 c1bd 409d fc3c aa20 dd3c 3935 123d
000003f0: 7fee 8b3d 0e68 b5bd 03d6 f53c 9c99 aa3d
-0.1114576 0.06010129 -0.12231947 0.021847835 -0.11337901 -0.1011626 0.0062568765 0.019922597
-0.09442893 -0.113740996 -0.11281855 -0.0071367985 -0.0863506 -0.106473505 -0.022776507 -0.021713607
0.062492732 -0.028528815 -0.007013879 0.0009793618 -0.016320808 0.016749935 0.08899936 -0.0099387
0.062215563 0.09859153 -0.016987098 0.0025241259 -0.03305551 -0.10548439 0.024781618 0.0788584
-0.026764281 0.042636134 -0.071427524 -0.10825549 -0.07642507 -0.071463466 0.042400293 -0.0802227
0.100635335 0.03797847 -0.048594676 -0.021906978 0.06632393 -0.09227327 0.031317193 -0.11155739
0.06152621 0.097378574 -0.08897773 0.023900291 0.0049833194 0.087856285 -0.12522149 -0.053254355
0.026228571 -0.049412932 -0.0054031163 0.0004266951 -0.11610614 -0.11430825 -0.050491147 -0.08170989
-0.01885551 -0.07564048 0.12061141 -0.117782906 0.04087 -0.105401695 0.039786268 0.077100664
0.06331654 -0.11931144 -0.049677588 0.017352637 -0.0468824 0.088886276 -0.017014872 0.07098251
-0.007474341 -0.02063959 -0.06262043 0.028610624 0.03481531 -0.0937783 -0.049531724 -0.009215739
-0.10456365 -0.122735225 -0.060153585 0.08126209 -0.09894212 0.093907185 0.06552619 -0.08328278
0.03829457 -0.08423953 0.071456105 -0.08286311 -0.025353216 -0.02064263 -0.12030894 -0.00014067451
-0.049566813 -0.043065134 0.103853434 -0.0016139091 0.01950361 -0.08602636 -0.0010368421 0.053616464
0.103600025 0.08353858 0.035096787 -0.09030377 0.032451633 -0.11839216 0.043386683 -0.11212824
0.027517976 0.054505706 0.04895199 -0.09941742 0.03423293 -0.008818152 0.04247582 -0.076343566
0.10286823 -0.03147159 -0.08789984 0.098198816 0.04089708 0.09499323 -0.06539267 0.06139999
-0.024848558 -0.039170448 0.0737118 0.092669025 -0.1096753 0.10300068 -0.073711485 -0.042151093
0.025377944 -0.016399836 0.045851186 -0.006005578 0.06494266 0.09719917 -0.06137759 0.10539564
0.042477075 -0.062038645 0.096700534 0.1042628 -0.03402357 0.032872524 0.057756927 0.09355209
0.09938985 -0.08529448 0.057170793 0.111150496 0.06577455 0.0074350494 -0.035456583 0.11207292
0.07843362 -0.018749665 0.08670249 0.115379654 0.02263867 0.117426775 -0.021670064 0.10999135
0.037351236 -0.009547487 -0.033303563 0.0874354 -0.04296985 0.07593352 0.023455368 0.07560142
-0.06823773 -0.1086923 -0.037125546 -0.04093963 0.08159756 -0.08018988 0.07832938 -0.123135604
-0.08348072 -0.120341785 -0.0820699 -0.0037642706 -0.11777623 0.07498052 -0.07637287 -0.05196965
0.04588943 0.07240026 0.03209913 -0.1250876 0.10704695 0.0453724 0.049249098 0.06397281
0.043630958 0.030477004 -0.107393 0.07203946 -0.026954878 0.035584737 -0.06624126 0.032030527
-0.009642477 0.08755573 0.11761132 -0.11376486 -0.085060276 -0.05871398 0.023568505 0.018236773
0.109007835 -0.023050375 -0.10501461 -0.046815567 -0.01929492 -0.023556728 -0.03331012 0.123978294
0.04201719 0.02006556 0.036030978 0.03414259 0.0048385398 0.05595474 0.029637024 0.11663981
0.065460935 -0.08938957 0.03689098 0.09427958 -0.12213477 -0.06732313 0.09463967 -0.051693358
-0.09436263 0.030836701 0.026993115 0.03569529 0.06832599 -0.088577375 0.030009275 0.0833008
